electricity_problem/saved_models/best-model-parameters.pt (torch, 317736 bytes, 7 tensors)

lin.bias f4 [24]
00000000: ba13 c73f 0e45 bc3f eaaf b53f 38e6 b13f
00000010: 619e af3f f90b b13f dcaf b73f 0d34 c33f
00000020: 0277 cd3f ddce d53f 866e dd3f 1040 e33f
00000030: 0584 e63f 8747 e93f 9bb2 ea3f 1ec9 eb3f
00000040: 7594 eb3f ff7b ed3f fc6d ef3f 01b8 ee3f
00000050: 8342 ed3f c770 e93f 05d8 e33f 5b8e d73f
1.5552895 1.4708574 1.419431 1.3898382 1.3720208 1.3831779 1.4350543 1.525026
1.6051943 1.6703755 1.7299354 1.7753925 1.8009039 1.8224953 1.8335756 1.8420751
1.840468 1.8553466 1.870544 1.8649904 1.8535923 1.8237542 1.7800299 1.6840318

net.0.weight f4 [200, 149]
00000000: 89b0 7b3b bcb8 5f3d 16cd f23c 9ef4 85bd
00000010: b1a0 793d a1e7 5c3c 848b 9a3d 1428 9e3d
00000020: 2747 8bbc 498f 073d 8d14 9fbd d878 95bc
00000030: d023 483d 11d6 88bd ad90 82bd 6c39 1e3c
00000040: 31b8 073c 173e 8ebd b072 a93d 7be3 64bd
00000050: 96af 86bd bb27 8d3d 110c 823c a9ba 083d
00000060: cfb8 7bbc d93d 0b3d 0fdf a1bc 5352 2f3c
00000070: c50f 36bd 3ba6 273d d5c1 983d 1c6d 963c
00000080: b1d5 78bd ae4e 403c 6567 79bd 71e2 60bd
00000090: d96d dfbb 6de5 7bbd a38a 833d 8e04 54bd
000000a0: 1aae 6c3d 29e5 fabc c0b1 5f3c 195a 163d
000000b0: 97e7 2c3b d5f7 68bc 5810 213c 7af3 883b
000000c0: 5da2 69bd 41e1 8d3d b2b0 933d 5865 183c
000000d0: bbce a23d c1b2 5abc c68f 813d 4221 a23b
000000e0: 1d53 8fbd b5ee 883b 2073 973d 087f 8dbc
000000f0: d23b 983d 66cb 3bbd 4729 1f3d 74d7 853d
00000100: 6148 7fbc f553 eaba 853d a43d d743 24bd
00000110: 27a2 8bba 7e34 783d 95d5 943c 05f2 27bd
00000120: ff04 a73c 9b4e e43c a81e 903d 228d 823d
00000130: 5deb d73b ae51 08bc 807b bbbc 37ca 81bd
00000140: b5d8 59bd 5f53 91bd 5dfb 413d bc20 f63c
00000150: 9ba5 6ebd 7cec 36bd 0655 cf3c db34 013d
00000160: a217 e03c b95b e4bc 404a afbc e8b5 3a3c
00000170: b14b 713d d1ea cfbc 21d8 51bd 9a82 713d
00000180: 093c 0d3d 4683 263d 4a02 45ba cea1 1ebd
00000190: 6534 083d a5c1 8e3d c2bb ccbc 3041 9cbd
000001a0: f820 013d ba68 e7bc a9f6 86bd ce53 a33d
000001b0: ffac 993d f1dc 843d f16a 3fbd 3f07 3abd
000001c0: 30dd 8dbd 4cbf dabc f514 13bc bd12 1abc
000001d0: 9f4b 683b fd11 8fbb e65a 84bb 5714 a33d
000001e0: 1fc8 81bd 56d2 0ebd 3619 f93c d0e3 203c
000001f0: 47d9 31bd d216 2abd 8f70 283a 67ac 14bd
00000200: 2a14 98bc 9d51 e53c a970 24bd 4ab5 813b
00000210: f0a3 82bc cb86 06bd 6d13 9e3d b2f8 cf3b
00000220: dc01 3fbd e079 bcbc 7bf7 01bd 17c5 773c
00000230: 49d0 9c3d c83b a33c 42da 53bd 5ce8 b7bc
00000240: 30d4 aabd 1464 90bd c2a7 9fbd e5bf 96bd
00000250: 2546 283d c07b 323d 049e 05bd e8ec b33d
00000260: 4e93 a93d 7862 513d 78f8 dd3c 2554 b7bc
00000270: 7ac7 653c c779 b7bd 0749 203d a687 cebd
00000280: 09ad 413c 5b1f c2bd 8629 5fbd d5cc 1bbd
00000290: 9baa 763d f5cc d1bc 9f60 a03c 3c16 99bb
000002a0: 8124 0f3d a256 fe3a f1ce 4fbd 0b4b f6ba
000002b0: 3eba bcbc 43c7 74bd 9d4f 1dbd c05e b13d
000002c0: e27b 78bd aab7 8f3d 1b9d 80bd 5305 33bd
000002d0: e2e5 a93d 6f49 7abd 42c7 ea3c 7719 5ebd
000002e0: 2c20 54bd 3199 f43b 1766 6d3d 6140 01bd
000002f0: 9526 363d 73e0 d93c 1cdd 9b3c 9611 86bd
00000300: cf5d 9bbd 2860 b33c 68f7 4dbd bdb0 8dbc
00000310: fd80 af3c a16a 7bbd 99ee cdbc a46d 7abc
00000320: 93b3 a8bd 9c4f 253c 61d5 033d 7497 9d3d
00000330: dbe4 08bd 3c86 96bd 5779 85bd e441 bebc
00000340: 09ec 97bd 4195 37bd b529 063d d472 21bd
00000350: f315 f03b 9cd0 293d 3972 81bd c367 f43c
00000360: e633 f23c 9815 6b3d 2fa3 87bc b971 aabd
00000370: 6d79 ccbc 9a32 89bd c656 463d 07fb 113c
00000380: 1678 c7bc 7e99 1fbd b1ec dc3c 3279 2bbd
00000390: 9328 01bd 2f8a 12bb 631f 93bd b42b 6cbd
000003a0: 4542 46bd 50b6 5f3d 6e00 8c3c a99b 53bd
000003b0: 0306 653d ee27 ff3c 6623 90bd 6701 99bc
000003c0: aca5 19bd 0610 1b3c 14a4 713d 366d ad3d
000003d0: 654a 9c3c b3ba 2f3d 985e 00bd b9f5 0bbd
000003e0: 200a 8abd 136a f7bc b847 88bc 17f8 943d
000003f0: 1631 f63c e3e3 423d ce1e 613d ccb5 1e3d
0.0038404784 0.054619536 0.029638808 -0.06540798 0.060944263 0.013482959 0.07546142 0.07722488
-0.017001702 0.03309563 -0.077675916 -0.0182461 0.04886228 -0.06681455 -0.06375251 0.009657245
0.008283661 -0.069454364 0.08273828 -0.055881005 -0.06576459 0.068923436 0.015874894 0.033381138
-0.015363886 0.03399453 -0.019759683 0.01070078 -0.044448633 0.040930014 0.074588455 0.018362574
-0.060750667 0.011737509 -0.06088962 -0.05490345 -0.006818515 -0.061498094 0.06422927 -0.051762156
0.057783224 -0.03062685 0.013653219 0.036707018 0.0026383155 -0.014219244 0.009830557 0.0041794153
-0.057039607 0.069277294 0.07211436 0.009301506 0.07949587 -0.013348282 0.06326251 0.0049478123
-0.069982745 0.0041788467 0.07395005 -0.017272487 0.07433285 -0.045848273 0.038857725 0.06535235
-0.015581221 -0.0017877804 0.080195464 -0.04010376 -0.0010653184 0.060596935 0.01816825 -0.041002292
0.020388125 0.027869513 0.07037097 0.06374575 0.006589337 -0.008320255 -0.022886038 -0.063373975
-0.053185184 -0.0709598 0.04735886 0.030044906 -0.058263402 -0.044659123 0.025309097 0.031544548
0.027355019 -0.027875768 -0.02139771 0.011395909 0.058910076 -0.025380524 -0.051231507 0.058962442
0.034481082 0.040652536 -0.0007515295 -0.038728528 0.033253092 0.069705285 -0.024991874 -0.07629621
0.031525582 -0.02824818 -0.065900154 0.07974969 0.075036995 0.06487454 -0.046732847 -0.045417067
-0.06926954 -0.026702546 -0.0089771645 -0.009403882 0.0035445464 -0.004366158 -0.0040391563 0.07962864
-0.06336998 -0.03486856 0.03040753 0.00981994 -0.043420102 -0.04152567 0.0006425464 -0.03629723
-0.018564302 0.027993018 -0.040146504 0.003958379 -0.015947312 -0.032843392 0.07718549 0.0063467855
-0.046632633 -0.023007333 -0.031730156 0.0151226735 0.07656915 0.019925967 -0.05172182 -0.022449665
-0.08341253 -0.070503384 -0.07795669 -0.0736082 0.04108252 0.04357505 -0.0326214 0.08785421
0.08280049 0.051119298 0.027096018 -0.02237899 0.01402461 -0.08958774 0.039132144 -0.10084467
0.01182104 -0.09478637 -0.05448296 -0.03803714 0.060221296 -0.025610426 0.019577323 -0.00467184
0.034946922 0.0019404481 -0.050734464 -0.0018790675 -0.023038026 -0.059760343 -0.038406003 0.0866065
-0.06066502 0.07017453 -0.062799655 -0.04370625 0.082958 -0.061105188 0.028659467 -0.054223504
-0.051788494 0.007464551 0.05795869 -0.031555537 0.04447039 0.026596284 0.019026332 -0.06546323
-0.07586252 0.021896437 -0.050284773 -0.01729619 0.021423811 -0.061380986 -0.025138186 -0.015284929
-0.08237376 0.010089781 0.032185916 0.07694903 -0.03342138 -0.07349822 -0.06517284 -0.023224778
-0.07418067 -0.044820074 0.03275462 -0.03941615 0.0073268353 0.04145871 -0.06320614 0.029834634
0.029565763 0.05739364 -0.016557304 -0.08322472 -0.024960244 -0.066991046 0.048422597 0.008909947
-0.024349254 -0.03896474 0.026968332 -0.041863628 -0.031532835 -0.0022360196 -0.07183721 -0.057658866
-0.048403043 0.054617226 0.017090049 -0.05166212 0.055913936 0.03114697 -0.07038002 -0.018677427
-0.037511513 0.0094642695 0.058994368 0.08468096 0.019078443 0.04290266 -0.03134021 -0.034169886
-0.067402124 -0.030201947 -0.01663576 0.07273882 0.030052703 0.04758061 0.05496102 0.038747594

net.0.bias f4 [200]
00000000: 98a2 92bd aa28 c8bb ca3f 2e3d d2e4 cf3a
00000010: c41e e63b 9bec 9fbd 20ac 81bd f72e d63c
00000020: 4036 1bbd 3708 3e3d 770a 86bc 905c a33d
00000030: 53de 67bd bd93 5dbc f34a 85bd 7c80 103d
00000040: 2a73 9fbd 118b a43c e315 95bd 6ca0 56bd
00000050: 5e29 733d ef10 683d b06a 073d ed43 6d3d
00000060: f7bb 2ebc afea a13d 4c37 8d3d 9444 5a3d
00000070: 1a07 98bb 66a6 aebc 071e 9abd 999b 98bc
00000080: 9f59 023d 884e be3a 45d8 153d a35a 183c
00000090: 22f4 d3bb 6797 023c 686f 19bd 9b9e f0bc
000000a0: 6aae 4d3c a68d 67bd 0ff5 473d 6098 b03d
000000b0: 8678 9e3d 3555 993d f40a 863c 88a5 9d3d
000000c0: 3270 25bd 574d 86bd 4158 6abd 227b ecbc
000000d0: eb72 ec3c e00e 98bd 0255 f93c 991b 633d
000000e0: 20a6 45bd a7cd 193d e86f 33bd 443b 14bd
000000f0: 8cde 76bb 5891 cdba f7ad 80bc f7ad 8cbd
00000100: b15c b03d 060e 913d e00a a3bd 671f 86bd
00000110: b7da 77bd df4f 6cbc 8668 443d b6d5 823c
00000120: d1ae c83c 64d4 dbbb b3a5 b63c 3c87 353d
00000130: c855 82bd 5894 fa3c ee57 643c 879b f9bc
00000140: bc42 82bc 0496 8a3d 6cc3 b13c 98d8 463d
00000150: 2d4c 41bd 9052 15bd 1e40 203d 134e 38bd
00000160: cf7d 973c beba 7d3d d16f 1d3d 746d 17bc
00000170: ccf0 5ebd e756 57bd ded0 dfbb 03b9 873c
00000180: d225 8a3d 2e62 6cbd 64b0 41bd ef2d 4b3d
00000190: 73e0 41bd 559e dd3b 30fe e6bc 52db 613d
000001a0: 31f3 e33b 6d02 a4bd 716a 6ebc 58c1 9e3d
000001b0: bb80 8a3d cfa5 0abd cb5b 77bd b7d7 fcbc
000001c0: 7ce5 0a3c 6234 43bc f775 423d 0c4f e53c
000001d0: 553e 6dbd 4618 7c3c 8d53 093d 5d0d cf3c
000001e0: fb5b 8cbd 00c8 9fbc 136c 913d d9ce 84bb
000001f0: 2db6 20bd 74d5 953d b740 83bd 384a 58bc
00000200: 57c8 873d 520f a53d 77b9 763b eb31 34bd
00000210: d138 b93c 0ed8 3fbc 45f4 2dbd e34e 3cbd
00000220: 5ff4 8a3d 38ab 0ebd 762f 90bc 81c2 ad3b
00000230: 387f 573d 784b 623d 4179 593d faba 9cbd
00000240: 2c85 78bd 8573 c1bc a092 993d 13b2 b3bc
00000250: f576 5ebd f402 09bd dc93 f63b a93b 80bd
00000260: aede 16bd 1987 30bd 0c73 81bd 874b 69bd
00000270: 804e 22bd 5b0b 5f3d dc90 3bbc 2cdf 5cbc
00000280: 8544 593d b94c 64bd 50ed 873d c7f9 4c3b
00000290: a8b8 1abd 8725 a4bd c32b 06bc 4abf ed3c
000002a0: e183 efbc 551f 943d 0e16 763d 0791 0cbd
000002b0: f17c 293d 557e 9bbc 273e 9d3d 6496 e5bc
000002c0: a00b 1a3d 3393 c73c 4f7c ea3c a5ce 043d
000002d0: 26a4 45bc abe2 8a3d 33d2 0ebd 447a 68bd
000002e0: b44e 793a 5b08 1f3c c365 8ebd 4a2c b7bb
000002f0: 4abc c6bc 9c03 31bc 22c9 903d 318d 5fbd
00000300: a5dc 8c3d 07a0 0bbd 55d6 4bbd a6b0 1abd
00000310: df55 913d 7cba 74bc 1b9d dbbc 3bbd 73bd
-0.071599185 -0.006108363 0.042541303 0.001586104 0.0070227105 -0.07808801 -0.06331658 0.026145441
-0.037893534 0.046394553 -0.016362412 0.07976639 -0.05660851 -0.013523993 -0.06508436 0.035278782
-0.07785638 0.020085843 -0.07279565 -0.052399084 0.059365623 0.056656774 0.03306073 0.057926107
-0.0106649315 0.079060905 0.06895313 0.053288057 -0.0046395184 -0.02131958 -0.075252585 -0.018628882
0.03182375 0.0014519254 0.036583204 0.009298953 -0.006468312 0.007970667 -0.03745976 -0.029372504
0.012553791 -0.05653157 0.04881769 0.08622813 0.07737832 0.07486955 0.016362645 0.07697588
-0.0403902 -0.0655772 -0.05721307 -0.028867308 0.02886339 -0.07424712 0.030436043 0.05544624
-0.048254132 0.03754964 -0.043807894 -0.036189333 -0.003766927 -0.0015683575 -0.015707953 -0.06869119
0.086114295 0.07082753 -0.079610586 -0.06548958 -0.060511317 -0.01442334 0.047951244 0.015971046
0.024497421 -0.0067086685 0.022295808 0.044318423 -0.06364018 0.030588314 0.01393698 -0.030469669
-0.015900962 0.067668945 0.02169963 0.048546404 -0.047191788 -0.03645569 0.039123647 -0.044996332
0.018492607 0.06194567 0.038436715 -0.009242404 -0.05442886 -0.05257311 -0.006830319 0.016567713
0.06745495 -0.05771082 -0.04728736 0.049604353 -0.047333192 0.0067632594 -0.028197378 0.0551408
0.006956481 -0.08008275 -0.014551745 0.07751721 0.06762835 -0.033849534 -0.060390275 -0.03086458
0.008477565 -0.0119143445 0.04747578 0.027991794 -0.057920773 0.015386647 0.033526946 0.025274927
-0.068534814 -0.019504547 0.07100692 -0.0040529785 -0.039236236 0.073161036 -0.06408828 -0.013201289
0.06630009 0.08059563 0.0037647167 -0.043992918 0.0226101 -0.011709226 -0.04246928 -0.04597367
0.06784891 -0.034831256 -0.017600756 0.0053027277 0.05261156 0.055247754 0.053094152 -0.076528504
-0.060673878 -0.023614654 0.074986696 -0.021935498 -0.054312665 -0.033450082 0.0075249504 -0.06261379
-0.036833458 -0.04309759 -0.063207716 -0.056956794 -0.039625645 0.05445419 -0.011448111 -0.013480943
0.05304386 -0.05573723 0.06637061 0.0031276809 -0.03777376 -0.0801497 -0.008189145 0.029021878
-0.02923769 0.072325386 0.060079627 -0.034317996 0.04137892 -0.018981138 0.0767787 -0.028025813
0.037608743 0.024362182 0.028623728 0.032423634 -0.012063062 0.06781515 -0.03486843 -0.056757227
0.0009510324 0.009706582 -0.06953003 -0.0055899965 -0.024259705 -0.010804083 0.07069613 -0.05457801
0.06878022 -0.03408816 -0.04976495 -0.03776612 0.07096457 -0.014937039 -0.026808312 -0.059506636

net.2.weight f4 [200, 200]
00000000: 839b 8e3d de35 00bd aee2 8c3b 83b8 8fbd
00000010: d14a 413d 4ba1 76bd d350 45bd a3cd 21bd
00000020: b4f7 493d 70b3 623d c598 cd3a 035d 7a3d
00000030: 4430 81bd 8da1 f43c f1a9 6cbd 008c 8ebd
00000040: f906 613c b9e6 a13b 1b13 603c 0804 a23c
00000050: 7a50 c43c c957 1dbd f3e4 46bd 7d93 a1bc
00000060: bc68 cd3c 7aa0 3ebd ee38 9b3b 409e 933c
00000070: 3d04 533d b3d3 4a3d 3c96 40bd 9c81 05bc
00000080: ec2f 653d c4e5 75bd 17f8 27bd 17f3 363d
00000090: 2549 5fbd 64bc 37bc 81b7 313d ecc7 aebc
000000a0: f8f4 89bb 82dc bb3c c496 1dbd 4186 133a
000000b0: 31d2 47bb 24c4 04bd 57c7 8339 8e96 15bd
000000c0: 6a6a 133d 3a21 3bbd 9199 4abd b20b 7dbc
000000d0: 22b4 ddbc 0d48 163d 188f 3bbc bade 7f3b
000000e0: 0b71 313d bc8f 1dbd f6ae ad3b 2203 8cbb
000000f0: fd4a 48bd 2176 50bd 98a5 4a3d b36f 5a3d
00000100: da1e debc fb78 d5bb 9a51 73bd f237 4c3d
00000110: ce2d 4abd 761a 733d 2b22 15bd f267 02bd
00000120: 1aba 503d 0bde 483b a0fa 6f3d 31f0 7a3c
00000130: 3623 863d d62a a93c 4a51 3d3d ef3b c9bc
00000140: e8a9 49bd 443d 92bc f702 143c e950 1b3d
00000150: 0425 8dbd e87c 86bb dff4 503d 1333 73bd
00000160: cc23 dbbc 318a 093d bc71 20bd 47ac 723d
00000170: 4a19 4cbd c5fa 263d 11c6 1e3c 0993 56bc
00000180: d649 7b3b 087f 2cbc 216e ff3c ba15 633c
00000190: 477a f8bc 0f03 e9bc 36df 233d 32c0 75bd
000001a0: 0d7b 6a3d a073 843d 945f babb 6bc3 23bc
000001b0: f730 6f3c e494 87bd 64ad 0ebc 2e2a 073d
000001c0: 4e5b 373c f6c6 09bd 402b 90bd 1763 8d3d
000001d0: 3b36 233d c380 113d a9c5 4f3d 3167 0a3d
000001e0: 8d6a 71bd ec2f 783d bb00 013c 4352 c7bc
000001f0: 9c66 6dbd 5bc7 65bd fab1 083d 62bf 193b
00000200: 0b48 273d 1e69 903c 908e d93c 5e96 25bd
00000210: cffc 103d aa46 613d 0938 e6bc 78fb 87bd
00000220: 3e5b cf3c b099 93bb 1ec7 8c3d c874 8dbd
00000230: a006 afbc 6a00 773c e556 883d 3273 6abd
00000240: cce9 89bd a994 92bd 943d 8bbc fcfa 193d
00000250: 082c 7e3d c20c 5fbd 1b92 52bd 5b79 8fbc
00000260: 7bd8 95bd 04d2 2bbc c7de 3bbd e141 023c
00000270: 4666 8a3d d359 34bd 8815 93bb e440 90bc
00000280: 34cc b73a fbb2 a03c 13ab 49bd 6b59 d7bb
00000290: 1296 92bc 9fcf 98bd 349d 333b 50db 4cbc
000002a0: fdf6 923c 3f25 f13c d8a6 89bd ef99 90bc
000002b0: 5d0e 903c 32c9 083d 76aa e1bc 127a 073d
000002c0: 0009 463d c7b8 e33c 8ee6 86bd 7344 93bb
000002d0: 4e43 873d 8721 0b3d 1be5 9fbd 8d50 143d
000002e0: 37cd 12bc fe7c 24bd 6614 04bd 9ad5 7cbd
000002f0: 4a79 23bb adad 343d 09d7 4a3c a0e3 92bd
00000300: b20e e93c bf65 2abd d7c2 893d 55fd 673d
00000310: 775e 403d 483d 02bd f685 863c 6460 23bc
00000320: 3489 44bd 0b8a 5bbd f503 8f3d 921b cf3c
00000330: 09af 1ebd a1df 463d a6c9 2fbd 3437 743d
00000340: 99a2 033c 73d7 043d 00a5 fabc 8a15 cabc
00000350: 08f9 963d 4f23 78bd 373e 09bd 8b34 303d
00000360: a99a 823d 0d48 59bd 7e66 90bd 5d97 aabb
00000370: addf 82bc fdf4 a6bd 21b1 503d d12f 703d
00000380: 0cd0 0d3c 31bb 6d3d 4331 f63c 7384 c4bb
00000390: 1c38 eb3c 7e80 02bb 1efa 0cbd 36dc 6abd
000003a0: 895c 263d 5707 6fbc a23a 08bd 50a9 82bb
000003b0: 9243 d3bc 2e28 6b3d 3354 e03c b5b8 373c
000003c0: ff27 d9ba c39b eebb 3e27 97bc 2b36 1a3c
000003d0: 60b8 b83c 263a 613d e3d0 8f3c 984d a6bc
000003e0: f7e0 b2bd a434 843d 391b 21bb e085 923d
000003f0: c93b 4abc 816d c13c b456 0bbd fd82 80bd
0.06963255 -0.03130137 0.0042994833 -0.07017615 0.04719049 -0.060212415 -0.048172783 -0.03950275
0.049308494 0.055346906 0.0015685788 0.06112386 -0.06308034 0.02986219 -0.057779256 -0.06960297
0.013734573 0.0049408344 0.01367643 0.019777313 0.023964155 -0.038413797 -0.048558187 -0.019723648
0.025074355 -0.04653976 0.004737011 0.018019795 0.051517714 0.0495183 -0.047018275 -0.008148577
0.055953905 -0.060033575 -0.04100808 0.044665422 -0.054513115 -0.011214349 0.043387894 -0.021335565
-0.0042101108 0.022932295 -0.03847386 0.00056276104 -0.0030490274 -0.032413617 0.00025134787 -0.036520533
0.035990156 -0.045685984 -0.04946286 -0.015444683 -0.027063433 0.036689807 -0.01144769 0.0039042667
0.043320697 -0.038467154 0.005300398 -0.0042728344 -0.04889964 -0.050893907 0.04947433 0.05332918
-0.02711432 -0.006514666 -0.059403993 0.04985804 -0.04936009 0.059351407 -0.03640954 -0.03183741
0.05095873 0.0030649926 0.058588624 0.015316055 0.06549685 0.020650309 0.0462201 -0.024564711
-0.0492343 -0.01785148 0.00903391 0.03791896 -0.06891826 -0.0041042455 0.051014777 -0.05937488
-0.026750468 0.033579055 -0.039170966 0.059246328 -0.049828805 0.040766496 0.009690777 -0.013096579
0.003834357 -0.0105283335 0.031180443 0.0138601605 -0.030331744 -0.028443841 0.040007792 -0.059997745
0.057246257 0.06467366 -0.0056876633 -0.009995322 0.0145990765 -0.066201955 -0.008708332 0.03299921
0.011191202 -0.03363701 -0.07039499 0.069036655 0.03984664 0.035523187 0.050725613 0.033789817
-0.058939505 0.060592577 0.007873709 -0.024331218 -0.057959184 -0.056098323 0.033372857 0.002346002
0.04084019 0.017628249 0.026557237 -0.040426604 0.035397347 0.05499903 -0.028102892 -0.06639761
0.025312062 -0.004504405 0.06873916 -0.0690704 -0.021365464 0.015075782 0.06657199 -0.057238765
-0.06734046 -0.07157261 -0.016997136 0.037592873 0.06205371 -0.054455526 -0.05140887 -0.017513921
-0.07316681 -0.010487083 -0.045866754 0.007950277 0.06757788 -0.044030976 -0.0044886507 -0.017609067
0.0014022649 0.019616595 -0.049235415 -0.0065719387 -0.017893825 -0.074614756 0.0027406933 -0.01250346
0.017940039 0.029436706 -0.06721276 -0.017651526 0.017584974 0.033395 -0.027547102 0.0330754
0.048348427 0.02779807 -0.065869436 -0.0044942438 0.06604634 0.03396752 -0.0780737 0.03620963
-0.00896006 -0.040158264 -0.032246016 -0.061727144 -0.002494412 0.044110943 0.01238037 -0.07172322
0.02844939 -0.04160094 0.06726616 0.05663808 0.04696509 -0.031796724 0.0164213 -0.009971712
-0.04798241 -0.053598445 0.069831766 0.025281701 -0.038741145 0.048553113 -0.042916916 0.05962296
0.008034372 0.03243203 -0.030596256 -0.024668474 0.07371718 -0.060580548 -0.0335066 0.04301886
0.06377155 -0.05304723 -0.07050799 -0.005206032 -0.015975798 -0.081521966 0.050950173 0.05863935
0.008655559 0.058039848 0.030052787 -0.0059972345 0.028713278 -0.0019913013 -0.034418218 -0.057338916
0.040615592 -0.014589152 -0.03325904 -0.003987469 -0.025789056 0.057411365 0.0273839 0.011213471
-0.0016567706 -0.007281752 -0.01845133 0.009412329 0.022548854 0.054987095 0.01755566 -0.020300671
-0.08734315 0.06455353 -0.0024582876 0.07154441 -0.012343355 0.023611786 -0.034018233 -0.06274984

net.2.bias f4 [200]
00000000: c569 1d3d cd0f 123d 6637 e0bb ebc5 abbc
00000010: 69ab 57bd 87d3 04bd cc2b 873c c567 78bd
00000020: 6fef b3bc 4998 773d d154 8ebd 9732 93bc
00000030: 2c12 803d ea14 28bd 6ddc b0bc 85a6 b23c
00000040: d15a ef3c 3998 83bd 4c26 1abc ffcd 68bd
00000050: 5c04 d3bc e8bd 4a3d 447d 61bc 283f f7bc
00000060: d5a8 5bbd fe53 06bd 30fa b73c 5149 4f3d
00000070: 6c94 e8bb 0bf3 103d 6bdc 803c c5f0 843c
00000080: 8b54 5a3d 9c13 74bc 32ae 3eba ac6a b8bc
00000090: 8a1b 723d f276 ea3c 9562 72bc bb28 1c3d
000000a0: 44c6 ffbc 79a8 84bd b498 4a3d 27eb 5dbd
000000b0: f4d5 233d 7f24 7e3d f198 133d 2a0f 853c
000000c0: 3345 75bc 7cc9 fdbc 1ca2 b23c 53a0 a139
000000d0: fb5c 7fbd 8d4a f9bc bce4 853b 1dff 443c
000000e0: fa56 8dbd 53c0 7ebb dfa3 673d 9359 3cbd
000000f0: f381 7bbc 9fef 193d 4546 373c 441f e43c
00000100: 0043 503d ac68 dc3c cf69 9abc 2955 d6bb
00000110: b4c7 043d d11c b93c 8cfd 4fbd f529 94bd
00000120: 4bb4 563c daa3 4d3c c510 8abb 145a fa3c
00000130: 013b 1b3d e88d edbc c1d6 2f3b 496c e33c
00000140: 58c1 b83c 7bb5 c83c 0911 423d f048 23bd
00000150: e5a0 f03c cecb 5ebb f8d1 c13b 3c74 04bd
00000160: 1031 78bd 3b0d 623d bdbe 99bd c3d1 26bd
00000170: 28d0 b5bc f7a9 633d 7f3c 80bd 9fcc 943c
00000180: 2fbd 89bd 6b30 81bd 97c6 523d 510f 4c3d
00000190: 8ee5 38bd 7797 0fbd 5e72 5f3d b7b1 61bd
000001a0: 2d64 c1bc ebbf 7f3d 7eac 42bd 3e9f 083d
000001b0: 0e26 313d ff1b 7cbd 82e7 abbc bece 2abc
000001c0: 782c c8ba 6eb8 1fbd a8b1 4f3d 08a6 393b
000001d0: 7f9d 09bd d930 4bbd b89b 25bd 5f84 773c
000001e0: 2ce9 28bd eea5 3a3d de7a 913c d619 15bd
000001f0: 280c 24bd f0ae 09bc ff38 233a a046 2ebc
00000200: c3fd e4bc 4c7a 203d 923e 0bba 6aae 56bd
00000210: 7a19 6b3b b6a1 603c 5580 30bb c8b9 32bd
00000220: 68dd 383d 09f2 703d 15bd 55bd 341d 65bd
00000230: 8d8d 563c b9cb 18bc 780f 02bd c976 66bd
00000240: 3541 f33c a1d6 6fbd 8c05 74bd be7f d23c
00000250: bf44 713d a1fe 73bd 598d d73c 1f73 56bd
00000260: 7c40 0cbd 41ed 3abd 629a e5bc 0485 69bd
00000270: b9fb 86bd 8012 42bd e259 643d 756e 923d
00000280: e9dd 923d 17a0 f93c 5def 2abc 6616 8bbd
00000290: a89e 0f3d 2e22 5bbd 5de5 633c 278a efbc
000002a0: b102 86bd 57d6 623d f12b fdbc f62f 85bc
000002b0: 1096 e3bc 3cb7 2d3c 590a 2a3d c632 cbbb
000002c0: 025b 7cbd 414c 3f3d 7f80 31bd 5de3 cb3c
000002d0: de9d b8bc e5ec 6cbc 963d f6bb b35f 84bd
000002e0: 0db4 75bd 9b64 583d 3867 863d 1507 6dbd
000002f0: 20cc 85bc d509 623d b9fe 6e3c 365d 49bd
00000300: 4c77 e33b 85c5 e63c 78cd b33c ea2a 86bd
00000310: 6b20 e33c 2a34 cebb c7c8 243d c597 2bbb
0.038430948 0.0356596 -0.0068425415 -0.020968398 -0.052653704 -0.03242829 0.016500376 -0.060645837
-0.021964757 0.060447965 -0.06949771 -0.017968459 0.06253466 -0.04103557 -0.021589482 0.021807918
0.02921811 -0.064255185 -0.009408545 -0.05683708 -0.025758915 0.049497515 -0.013762776 -0.030181482
-0.053627808 -0.032794945 0.022458166 0.05060703 -0.0070977714 0.035388034 0.015730103 0.01622809
0.053303283 -0.014897253 -0.0007273882 -0.022511803 0.059108295 0.02862117 -0.014794012 0.03812478
-0.03122247 -0.06477446 0.049462035 -0.054179337 0.039998963 0.062046524 0.03603453 0.016242582
-0.014970112 -0.030979864 0.021805815 0.00030827764 -0.062344532 -0.030431056 0.004086105 0.012023714
-0.06901355 -0.0038871958 0.056552764 -0.045983862 -0.0153508065 0.037582036 0.011186187 0.02784694
0.050845146 0.02690538 -0.018849282 -0.0065409136 0.032417014 0.022596749 -0.05077891 -0.07234565
0.013104509 0.012551272 -0.004213425 0.03056053 0.037898067 -0.02899833 0.0026830884 0.027761595
0.022553131 0.0245006 0.047379527 -0.03986448 0.029373595 -0.0033995989 0.005914923 -0.032337412
-0.060593665 0.0551884 -0.075070836 -0.040727388 -0.022193983 0.055582013 -0.06261539 0.018163977
-0.06725537 -0.06308063 0.05145892 0.049819294 -0.045140795 -0.035056558 0.05455243 -0.055101123
-0.023607338 0.062438887 -0.047527783 0.03335499 0.043249182 -0.061550137 -0.020984415 -0.010425268
-0.0015272042 -0.038994245 0.050706536 0.0028327722 -0.033597466 -0.04960713 -0.040431708 0.015107243
-0.041237995 0.0455684 0.017758783 -0.036401592 -0.040050656 -0.008403525 0.00062264496 -0.0106369555
-0.027953034 0.03917913 -0.0005311753 -0.052412428 0.003587334 0.01371043 -0.002693196 -0.043634206
0.045133024 0.058824573 -0.052182276 -0.055936053 0.013095272 -0.009325915 -0.031753033 -0.056265626
0.02969418 -0.058554295 -0.059575602 0.025695678 0.058903452 -0.059569005 0.026312517 -0.05235588
-0.034241185 -0.04563642 -0.028027717 -0.05701162 -0.06590981 -0.047380924 0.05574978 0.07149974
0.07171232 0.030471845 -0.010433045 -0.067913815 0.035063416 -0.053499393 0.013909665 -0.02924068
-0.06543482 0.05538019 -0.030904742 -0.016258221 -0.027781516 0.0106027685 0.041513775 -0.006201121
-0.06161023 0.04670358 -0.043335434 0.024888689 -0.022536214 -0.014460777 -0.007514666 -0.06463566
-0.059986163 0.05283032 0.06562656 -0.057868082 -0.016332686 0.055185158 0.014587098 -0.04916116
0.0069417115 0.028170357 0.021948561 -0.06551154 0.027725419 -0.0062928395 0.04023054 -0.002618299

net.4.weight f4 [24, 200]
00000000: c01a 473d 0bb6 69bc 9dcf 613d 69af 6e3d
00000010: 81e5 813c fd15 023d 60ca 20bc 08fb 91bd
00000020: ceb2 253d 302e 2a3d 8292 0a3d 2037 a1bd
00000030: 885b 34bd e1f4 1bbd f8c6 1d3d f1db 85bd
00000040: addd 863c 9682 853c 6df4 0b3d 1781 a03b
00000050: 1dca e4bc 29ed 9cbc a28e 8e3d f6f0 ac3c
00000060: 591d 0bbc 7fab 4dbd e823 bb3a f150 d23c
00000070: 9ebd 91bd 6287 58bd f8aa 65bc c564 37bb
00000080: 7aae d7bc fe9b 0dbd 3b41 4abd 83cb 1bbd
00000090: a044 36bb f5bf f6bc ec6d 753d 2c34 c7bc
000000a0: 8368 c73c f3d3 7bbd f99a 2bbd c01b 1ebc
000000b0: 751e 3e3d 19a6 373d ce98 9cbc b7b6 3dbd
000000c0: beed 463d bbdc f83b 36ce 213d b6b0 9c3b
000000d0: 85b9 983b 8aba ddbb ebfa f5bc 7020 44bd
000000e0: fdd0 8cbd 32b5 f5bc d1ea 19bd 6c30 e5bb
000000f0: a1f1 8abc 133b 033d 1c71 923c a2f4 043d
00000100: 2557 99bc 4875 0cbd be55 443c 1513 763d
00000110: 6a4b 6abd b067 5f3d 4a0b 053d 2754 5b3d
00000120: d4f4 6a3c 80e5 053d f942 86bd 968a 993a
00000130: b83b 4a3d 7f20 75bb 0c7c 2abc 778c 8b3c
00000140: ea1e 7fbd c9a7 f03c 72ab 983c aa9d 093d
00000150: 2de7 34bd 51f8 b8bc 6704 653d bd48 5cbd
00000160: 1397 71bd 6e31 033d b25d 91bc 48e4 dabc
00000170: a58b 79bd e038 aebd b981 e7bc 5ce5 22bd
00000180: 9141 66bd c7ec 94bc 8751 d2bc b4ec 73bd
00000190: 8365 d4bc acea 69bd cb6b ca3c 379c d5bb
000001a0: ef68 9a3b 2f7f 733c 88f7 babc f46a 9ebc
000001b0: 36b7 8c3c c232 763d b7a7 e73c 3d78 6e3d
000001c0: 6de7 2c3c c735 80bc f6d8 88bd 4ac3 0f3d
000001d0: e003 58bd 5a30 abbc bd23 3b3d 656c 883c
000001e0: 3e57 6b3d 574e 17bd 7fd7 653c bf25 83bd
000001f0: 53f2 63bd bdba b2bb b702 03bd 85d1 90bd
00000200: daaa 863d 3480 863c 72a7 8fbd ae78 bc3c
00000210: c5f7 07bd 08f9 763d 9b37 d83c 87d6 51bd
00000220: c5e3 c13c b71a 8b3d c01d 403d 5357 e8bc
00000230: 76bd 353d bcc0 ed3c 0f76 6dbd b8ef b4bc
00000240: 2b60 ee3c 2837 f0bc e435 823c 66e7 883b
00000250: aeb5 a8bc 7d6a d8bc f4ca 073c a4b4 513d
00000260: 9ecb 8e3b eb81 ef3b 4125 95bc 9514 263d
00000270: 8ba1 443d fb08 2fbd f417 6f3c 6f3e 833d
00000280: 4b93 2bbc 1b3e 823d 9da6 30bd fd9b 0c3d
00000290: 4a9d ccbc 9edb 7b3d ced6 843d 1dff ddbc
000002a0: 177a 18bc 3acb ca3c c439 92bc 7147 70bd
000002b0: f8eb dfbc a2c9 323d 7686 9cbc 31ed e53c
000002c0: 51be 30bc 54f5 3ebd ad9a 7b3d e1a0 0c3d
000002d0: 1568 b83c 7acd a93c 5220 ad3c 49af 493d
000002e0: 7957 853c 3582 92bd bb95 8e3b 64b1 25bd
000002f0: 545b 2cbd 8030 453d bc6e 44bd 2964 bf3b
00000300: aa04 d13c 2536 77bc 7b99 bb3b f844 8fbd
00000310: a77c 18bd 8bef 7539 ba6d 7dbd 8b0e 4f3d
00000320: 0239 7cbd 9ac2 3cbd 8f00 773d 61dd b9bc
00000330: 69a5 6c3d 5c7f 6d3d 67f6 a13c b3da 803c
00000340: 1a5e a03b 8bfd f23b e383 ad3c 281b 86bd
00000350: 5a96 763d da2a 89bd a3b1 f2bc 64e8 5bbd
00000360: c98e d03c 46e7 2e3c 6026 ff3c dec7 7d3d
00000370: 098a 263d 1f17 2fbd edff fbbc 2c26 653d
00000380: e024 ee3c 96ea 56bd 4f66 ce3b 2bf1 74bd
00000390: b451 0cbd d7ed 583c 752e 73bd 0033 84bb
000003a0: bf93 533d 70b1 803c 0a88 eebb 3358 85bd
000003b0: 7a04 4dbc bfb9 1a3d 7df3 ba3b 2a5d aa3c
000003c0: fbdf 8e3c 443c bb3c a48b 7cbd 37a0 263d
000003d0: 0a25 8a3c ff8b 6d3d d3d6 0abc f7b7 2abd
000003e0: 56cb 243c 3c4f 5cbd 2e84 913b fdec 8f3c
000003f0: 58e6 83bd 5e1d 1dbd a86f 2b3d d92c 6abd
0.048609495 -0.014264594 0.055129636 0.058272753 0.015856506 0.03175925 -0.009813875 -0.071279585
0.040453725 0.041547954 0.033831127 -0.078718424 -0.044032604 -0.03807533 0.03851983 -0.06536091
0.016463125 0.01629762 0.03416865 0.004898201 -0.027928406 -0.019156056 0.06960799 0.021110993
-0.008490884 -0.05021238 0.0014277669 0.025673361 -0.07116245 -0.052863486 -0.014017813 -0.0027983647
-0.026328314 -0.034572594 -0.049378615 -0.03803588 -0.00278119 -0.03012083 0.059919283 -0.02431687
0.024341827 -0.061481427 -0.04189584 -0.009650171 0.046415765 0.044836137 -0.019115832 -0.04631683
0.048566572 0.0075946725 0.0395033 0.004781808 0.0046607875 -0.006766622 -0.030026874 -0.047882497
-0.06875799 -0.029993627 -0.037577454 -0.0069942977 -0.01696092 0.03203876 0.0178762 0.032459863
-0.018718312 -0.034291536 0.011983333 0.06007679 -0.057200827 0.054542243 0.03248147 0.05354705
0.014340598 0.03268957 -0.06555743 0.0011714275 0.04937336 -0.0037403402 -0.010405552 0.017034752
-0.06228534 0.029376881 0.018636439 0.033597626 -0.04416578 -0.022579344 0.0559124 -0.053780306
-0.058981966 0.03202956 -0.017744873 -0.026720181 -0.06092419 -0.08506942 -0.028260099 -0.039769515
-0.056214873 -0.01817931 -0.02567364 -0.05955191 -0.02592731 -0.057108566 0.024709603 -0.0065188664
0.004712216 0.014861866 -0.02282311 -0.019338109 0.017177206 0.060107 0.028278215 0.058220137
0.010553223 -0.015650643 -0.06682007 0.03509835 -0.05273807 -0.02089708 0.04568838 0.016653249
0.057456248 -0.036939945 0.014028429 -0.06403684 -0.05565102 -0.00545439 -0.03198501 -0.07071213
0.06575556 0.016418554 -0.070143595 0.023006763 -0.033195276 0.06029609 0.026393702 -0.05122998
0.02366818 0.06792205 0.04690337 -0.028361952 0.044370137 0.029022567 -0.057973918 -0.022086963
0.02909859 -0.029323176 0.015894838 0.0041779755 -0.020594444 -0.026417965 0.008288134 0.051197663
0.004357769 0.0073091886 -0.01820624 0.040546972 0.048005622 -0.042733174 0.014593113 0.06408393
-0.010472129 0.06359502 -0.043127645 0.03432845 -0.024977345 0.06148874 0.06486283 -0.027099187
-0.009306452 0.02475511 -0.01784981 -0.05866188 -0.027334198 0.043649323 -0.019107085 0.028067203
-0.0107875625 -0.046620682 0.061426807 0.034333114 0.022510568 0.020727862 0.021133576 0.04923943
0.016277062 -0.07153741 0.0043513454 -0.040452376 -0.042079285 0.048141956 -0.047957167 0.0058407974
0.02551492 -0.015088593 0.0057250834 -0.069955766 -0.037228253 0.00023454257 -0.06187222 0.05055098
-0.061577804 -0.046084024 0.060303267 -0.02268857 0.057774935 0.057982787 0.019770814 0.015729284
0.0048940303 0.0074154786 0.021181053 -0.065481484 0.06020198 -0.066976264 -0.02962572 -0.05368842
0.02545871 0.010675257 0.031146228 0.061958186 0.040658984 -0.04274666 -0.030761683 0.055944607
0.029070318 -0.052469812 0.006298817 -0.05980031 -0.034257606 0.013240299 -0.059370477 -0.0040344
0.051654574 0.015709609 -0.0072794007 -0.06510963 -0.012513274 0.037774798 0.0057052956 0.020796377
0.017440787 0.022855885 -0.06165661 0.040680137 0.016863365 0.05799484 -0.00847407 -0.04167935
0.010058245 -0.0537865 0.004440806 0.01756906 -0.06440419 -0.038358085 0.04185453 -0.057171676

net.4.bias f4 [24]
00000000: ef5e d8bb 1cd9 3ebc 6fc1 03bd c3b0 2abb
00000010: 5ae4 71bd 0792 0cbb 7c4d 853d 4db2 303d
00000020: 4c4b 943c 8d2d ccbb 1741 c8bc bdcc 6fbd
00000030: dea2 49bd b6a4 90bb 2cf6 273d d5d7 943c
00000040: c619 003d 9659 7b3b 0067 c93c 17ec 873c
00000050: eebc d2bc 054d e83c 27f1 053c 876a 4abd
-0.006603114 -0.011648443 -0.032166895 -0.00260453 -0.059055664 -0.0021449344 0.065089196 0.04313879
0.01810231 -0.006231016 -0.0244451 -0.058544863 -0.049227588 -0.0044141663 0.041006252 0.018169323
0.03127458 0.0038352958 0.024585247 0.016592069 -0.025724854 0.028357038 0.008175171 -0.049418
