electricity_problem/saved_models/model_pnet0.1.pt (torch, 326692 bytes, 15 tensors)

lin.bias f4 [24]
1.5677791 1.4837207 1.4210168 1.3897303 1.3746915 1.3805233 1.437273 1.5420752
1.6133691 1.6772872 1.729896 1.7747594 1.8088737 1.8209976 1.8449075 1.8417729
1.8490584 1.8555566 1.8780797 1.8647557 1.8487238 1.8312854 1.7830102 1.6713536
00000000: fcac c83f 8fea bd3f e1e3 b53f afe2 b13f
00000010: e4f5 af3f fdb4 b03f 90f8 b73f b862 c53f
00000020: e182 ce3f 59b1 d63f 3b6d dd3f 512b e33f
00000030: 2c89 e73f 7316 e93f ee25 ec3f 37bf eb3f
00000040: f2ad ec3f e182 ed3f ea64 f03f 51b0 ee3f
00000050: fba2 ec3f 8f67 ea3f ae39 e43f eaee d53f

net.0.weight f4 [200, 149]
-0.02228942 -0.03756954 -0.065589674 -0.049313717 -0.016386913 0.01366549 -0.05934028 0.029809477
0.07181824 0.026152708 0.07910818 -0.011171594 0.0011960434 -0.07614177 -0.025400128 0.040173125
-0.07870065 -0.0020583263 0.051775128 0.06498836 0.027678661 0.04699604 -0.015593314 -0.045661453
0.022349667 -0.06176596 -0.022626054 0.011660394 0.022991864 -0.07870145 -0.047496308 -0.0030257853
0.004641934 -0.06690576 0.04685852 0.0053825956 -0.023994228 -1.2012598e-06 -0.042070393 0.06168435
0.023746867 -0.0055497866 0.06890197 0.05844733 0.03815791 -0.063215815 -0.057952907 0.028932557
-0.016070144 0.019650135 -0.00015695767 -0.043711107 -0.008829082 0.07026701 -0.035859555 0.009280084
0.052524723 -0.08047549 -0.054180637 0.0028039697 0.07940766 -0.039600205 0.021949325 0.023744885
0.057736363 -0.0032793337 0.045481738 0.02211524 -0.03986222 0.048366565 -0.027714085 0.03814149
-0.06831397 -0.040241145 -0.028513394 -0.043438844 -0.054057937 0.014930327 0.07935617 0.035607707
-0.0070458716 0.0779953 -0.01142862 -0.032808993 -0.07325109 0.012981048 -0.07219957 -0.07643159
0.046744682 0.06838663 0.06804312 -0.025658596 0.009452072 -0.019238826 0.037872214 -0.05356907
0.016797006 0.030806826 0.0754501 -0.018698955 0.03519181 -0.01914547 0.041991215 0.024648864
0.04133278 0.017064413 0.050711572 -0.01352002 0.04761354 -0.050393175 -0.038445495 -0.048030518
-0.03161165 0.031177714 0.0020938837 0.06249811 0.032576412 0.060008623 -0.08883101 -0.0042586857
0.068628006 -0.057542015 0.03558398 0.010874642 -0.029123018 -0.074653186 -0.04326457 0.027870692
-0.046356216 -0.023260336 -0.0089591835 0.03316823 0.017952377 -0.02246383 -0.029691245 -0.013384739
0.060957048 -0.00793138 -0.05798969 -0.0732086 0.05234214 -0.016152505 -0.07945825 0.07213004
0.04368199 0.071930766 -0.037074335 0.07868352 0.07837634 0.053659037 -0.07890665 -0.0049131713
-0.0011767518 0.006385758 -0.024848755 0.020064807 0.046922196 0.06779384 0.0012858442 0.03810035
-0.085232414 -0.06508551 -0.061964974 0.020948365 0.042169508 0.064362906 0.0499529 0.041593175
-0.058729433 -0.005877171 -0.04024016 0.008235469 -0.022829566 -0.048909117 -0.046624385 0.041126367
-0.03163155 0.00028171623 -0.02014195 -0.055099927 -0.07856869 0.0646252 0.047682177 -0.008087925
-0.0455035 -0.09012306 -0.059328634 0.053940076 -0.033528328 0.06315212 0.033146054 -0.06187746
-0.008333714 0.00876612 -0.016743973 -0.052224126 -0.06537175 0.016448947 -0.03527682 0.07624698
0.0719763 -0.046037994 -0.078592375 -0.06489711 -0.063031204 0.03965965 0.03470958 0.01445878
0.000862349 0.06823003 -0.051925056 -0.03836032 0.04873921 -0.06974985 -0.06610067 0.017052336
-0.050999947 -0.016340505 0.025460586 -0.08181003 -0.028597003 -0.019240092 0.0028887345 -0.03978515
-0.05927651 0.01804533 -0.018947357 0.015691444 -0.041582357 -0.07738918 -0.039952405 0.02905189
-0.027351683 -0.06310422 -0.068211555 0.027125563 0.075804584 0.014438143 0.03713612 0.071401745
0.007359177 0.021819359 -0.07960269 0.056396082 0.081566595 -0.07708806 0.076684326 -0.033061184
-0.071123734 -0.04433054 0.079791665 0.013489675 -0.016255436 -0.068959646 0.014878888 0.030911576
00000000: 4d98 b6bc 85e2 19bd e153 86bd 2efd 49bd
00000010: d93d 86bc 38e5 5f3c cb0e 73bd 0133 f43c
00000020: 7115 933d 343e d63c 7803 a23d 1009 37bc
00000030: 8fc4 9c3a 37f0 9bbd ee13 d0bc 938c 243d
00000040: ce2d a1bd fce4 06bb 2812 543d 9e18 853d
00000050: 5cbe e23c eb7e 403d 197b 7fbc 8107 3bbd
00000060: a616 b73c 4efe 7cbd 465a b9bc 3d0b 3f3c
00000070: 6f59 bc3c 3a2e a1bd 7d8b 42bd 414c 46bb
00000080: 5d1b 983b e305 89bd b8ee 3f3d 7c60 b03b
00000090: 8b8f c4bc f93a a1b5 0152 2cbd bba8 7c3d
000000a0: ca88 c23c fcda b5bb 7a1c 8d3d 7866 6f3d
000000b0: 784b 1c3d 4b77 81bd 0760 6dbd f803 ed3c
000000c0: 89a5 83bc 52f9 a03c 0195 24b9 6b0a 33bd
000000d0: dba7 10bc 26e8 8f3d 78e1 12bd 7e0b 183c
000000e0: 2a24 573d 55d0 a4bd 84ec 5dbd cec2 373b
000000f0: 7ca0 a23d d333 22bd 12cf b33c a284 c23c
00000100: f77c 6c3d 17ea 56bb 0f4b 3a3d 052b b53c
00000110: 9146 23bd 051c 463d a608 e3bc 403a 1c3d
00000120: 32e8 8bbd e6d3 24bd ec94 e9bc eeec 31bd
00000130: db6b 5dbd 559e 743c 7d85 a23d 63d9 113d
00000140: 0ee1 e6bb 00bc 9f3d 1b3f 3bbc b962 06bd
00000150: ab04 96bd 76ae 543c 5edd 93bd 2a88 9cbd
00000160: 5a77 3f3d 4a0e 8c3d 315a 8b3d fa31 d2bc
00000170: dddc 1a3c be9a 9dbc e51f 1b3d 3e6b 5bbd
00000180: e099 893c 995e fc3c 9585 9a3d 8d2e 99bc
00000190: 4a25 103d f6d6 9cbc fbfe 2b3d 6aec c93c
000001a0: 904c 293d abca 8b3c f0b6 4f3d 1383 5dbc
000001b0: 6a06 433d 1369 4ebd 0679 1dbd a6bb 44bd
000001c0: 387b 01bd 6868 ff3c 8a39 093b 05fe 7f3d
000001d0: d86e 053d 9acb 753d 08ed b5bd 728c 8bbb
000001e0: d78c 8c3d 2db1 6bbd 82c0 113d 8e2b 323c
000001f0: 6593 eebc c5e3 98bd 3136 31bd 1451 e43c
00000200: 04e0 3dbd 768c bebc 8ac9 12bc 69db 073d
00000210: dd10 933c 1106 b8bc 0e3b f3bc aa4b 5bbc
00000220: 19ae 793d 9ef2 01bc 9986 6dbd 64ee 95bd
00000230: b664 563d 4252 84bc 02bb a2bd eab8 933d
00000240: e3eb 323d 7050 933d 42db 17bd d324 a13d
00000250: c683 a03d 94c9 5b3d cf99 a1bd abfe a0bb
00000260: 3d3d 9aba 9f3f d13b 9e8f cbbc f35e a43c
00000270: 7d31 403d 7fd7 8a3d c689 a83a 1d0f 1c3d
00000280: 558e aebd 8d4b 85bd fcce 7dbd e89b ab3c
00000290: efb9 2c3d b3d0 833d 699b 4c3d 9b5d 2a3d
000002a0: 468e 70bd 4995 c0bb ded2 24bd 10ee 063c
000002b0: 1205 bbbc ed54 48bd 36f9 3ebd 1f74 283d
000002c0: 1690 01bd 50b3 9339 bb00 a5bc 76b0 61bd
000002d0: 9fe8 a0bd 385a 843d 634e 433d 3783 04bc
000002e0: e161 3abd 7092 b8bd 9502 73bd 45f0 5c3d
000002f0: 0055 09bd e655 813d 28c4 073d 3873 7dbd
00000300: 218a 08bc c69f 0f3c a82a 89bc f7e8 55bd
00000310: a0e1 85bd f1bf 863c 6d7e 10bd 6027 9c3d
00000320: 4f68 933d 5692 3cbd 0af5 a0bd c7e8 84bd
00000330: 8116 81bd 2872 223d a22b 0e3d 85e4 6c3c
00000340: 430f 623a 30bc 8b3d 5eaf 54bd b61f 1dbd
00000350: c4a2 473d 02d9 8ebd ca5f 87bd 57b1 8b3c
00000360: 52e5 50bd 86dc 85bc b892 d03c 048c a7bd
00000370: 4344 eabc 669d 9dbc ec50 3d3b c1f5 22bd
00000380: edcb 72bd cdd3 933c 7d37 9bbc 588b 803c
00000390: 4352 2abd 387e 9ebd 22a5 23bd 3bfe ed3c
000003a0: a310 e0bc c93c 81bd 80b2 8bbd 6e36 de3c
000003b0: 6f3f 9b3d f68d 6c3c 0b1c 183d 143b 923d
000003c0: 4025 f13b 83be b23c bc06 a3bd 94ff 663d
000003d0: 630c a73d 58e0 9dbd ac0c 9d3d 2a6b 07bd
000003e0: 52a9 91bd f193 35bd d069 a33d cc03 5d3c
000003f0: 1f2a 85bc b73a 8dbd 94c6 733c 463a fd3c

net.0.bias f4 [200]
-0.07519717 0.052008152 -0.036379118 -0.052873455 0.042949248 -0.08172942 -0.077062964 -0.07117914
-0.030273061 -0.03954109 0.031993188 -0.044089224 0.015865153 -0.025846863 -0.060861442 0.07931829
-0.059085134 -0.035869323 -0.06694458 0.011205081 0.019464683 -0.035236802 -0.039256036 -0.0374855
-0.035228044 0.07244381 0.008499284 -0.050080713 0.04502194 -0.028605547 0.0058552823 0.06616351
0.029453875 0.05455583 0.034680102 -0.061029803 0.022172859 -0.05638971 -0.061834045 -0.07578381
-0.07701442 0.021360692 -0.03552704 -0.059392978 0.0014519154 0.07038618 0.06246318 0.030177921
-0.044842336 -0.019228408 -0.02804919 -0.061772123 0.023579737 0.05930169 -0.054458167 -0.019799426
0.012729144 0.040524043 0.033059347 -0.077581145 0.030501459 0.068861015 -0.07573057 -0.0063627795
0.029963646 -0.039304625 0.040555477 -0.03240266 0.048378658 0.044983342 -0.059640095 -0.026296915
-0.0434774 0.05769486 0.04912974 0.0042968197 -0.043110643 -0.022647673 0.020534392 0.033989146
-0.02775606 0.041121185 -0.017617969 0.018956106 0.045356292 0.06467618 0.061745223 -0.014999227
0.079549156 -0.043140355 0.054254256 -0.07359284 0.0778366 0.002793789 0.06561686 0.023076491
-0.06816035 0.019412722 -0.008848965 0.07498391 0.04394565 -0.07103705 0.001136705 -0.07565089
-0.0680431 -0.014353581 -0.02220619 -0.06627902 -0.018936353 -0.061201956 -0.06495193 -0.0014220976
0.040589944 -0.033760004 0.077083096 -0.065739185 -0.018393915 -0.074502274 0.031217577 0.08038332
-0.05955625 0.0766438 -0.020601226 -0.060997706 -0.060462765 0.051649716 -0.047121752 -0.06778542
0.048325244 0.062496956 -0.0119703 0.00028272287 -0.00013764572 0.00041189967 0.007055853 -0.018201834
0.018173022 -0.046407666 0.01103749 -0.081811704 -0.004097556 0.05047068 -0.030393852 -0.05691749
-0.0761632 -0.06685821 0.017762111 0.043495927 -0.07003986 0.040801153 0.062761374 -0.00024403434
0.061560716 -0.06465709 -0.06532944 -0.03276313 0.06307771 0.03695638 0.0009319894 -0.022252226
0.035686463 0.053017907 -0.018665416 0.0504474 -0.002534068 -0.07459119 0.028202554 0.058742486
0.07547703 0.04216548 0.04938828 -0.0067105787 -0.050426662 -0.069476634 -0.005818276 0.08179967
0.07518024 0.011275423 0.014050266 0.06629881 0.05688092 0.025317194 -0.037833408 -0.023514647
0.04763986 0.07280412 -0.033308838 -0.025878627 0.041862436 -0.012886459 -0.011639909 -0.03181897
-0.081970066 0.07905617 -0.02616162 -0.024653874 0.054340664 0.024585841 0.026960397 -0.0038254121
00000000: f900 9abd 8006 553d 4502 15bd d691 58bd
00000010: 8deb 2f3d c161 a7bd 30d3 9dbd 5ec6 91bd
00000020: 36ff f7bc d7f5 21bd 4a0b 033d e796 34bd
00000030: a3f7 813c cdbc d3bc d949 79bd a171 a23d
00000040: 4103 72bd b6eb 12bd 3d1a 89bd 8495 373c
00000050: 6674 9f3c 7754 10bd f0ca 20bd 658a 19bd
00000060: 484b 10bd 6c5d 943d 9540 0b3c 6f21 4dbd
00000070: ed68 383d 2e56 eabc abdd bf3b bc80 873d
00000080: 4149 f13c ef75 5f3d b90c 0e3d 63fa 79bd
00000090: dba3 b53c e6f8 66bd b245 7dbd 8b34 9bbd
000000a0: bcb9 9dbd 9efc ae3c cd84 11bd 0d46 73bd
000000b0: 324e be3a a126 903d 64d9 7f3d b037 f73c
000000c0: 99ac 37bd e584 9dbc 6ac7 e5bc c404 7dbd
000000d0: 4b2a c13c 54e6 723d 870f 5fbd 6832 a2bc
000000e0: e68d 503c 8afc 253d 3d69 073d dde2 9ebd
000000f0: 32de f93c 0107 8d3d a118 9bbd dd7e d0bb
00000100: 5276 f53c e3fd 20bd 801d 263d a7b8 04bd
00000110: b328 463d 7440 383d 2c49 74bd a16c d7bc
00000120: 5c15 32bd 7251 6c3d 443c 493d 56cc 8c3b
00000130: c994 30bd 9d87 b9bc be37 a83c 3438 0b3d
00000140: ad60 e3bc b06e 283d 8f53 90bc d649 9b3c
00000150: 85c7 393d f274 843d 8fe8 7c3d 51bf 75bc
00000160: abea a23d f1b3 30bd b639 5e3d d8b7 96bd
00000170: cc68 9f3d 0018 373b 2262 863d e90a bd3c
00000180: a797 8bbd 6e07 9f3c 40fb 10bc 2a91 993d
00000190: 5b00 343d df7b 91bd 7efd 943a dbee 9abd
000001a0: 2e5a 8bbd 482b 6bbc c1e9 b5bc 4bbd 87bd
000001b0: 6920 9bbc e7ae 7abd 8405 85bd ad65 baba
000001c0: a441 263d ee47 0abd bedd 9d3d 44a2 86bd
000001d0: d6ae 96bc a694 98bd 01bc ff3c 03a0 a43d
000001e0: 41f1 73bd 6df7 9c3d e7c3 a8bc bbd8 79bd
000001f0: cea7 77bd a78e 533d bd02 41bd 15d3 8abd
00000200: b1f0 453d cffc 7f3d 141f 44bc 6c3a 9439
00000210: fe54 10b9 3df4 d739 c934 e73b 031c 95bc
00000220: 97df 943c f715 3ebd 97d6 343c e58c a7bd
00000230: cb44 86bb 58ba 4e3d 87fc f8bc 5022 69bd
00000240: 74fb 9bbd f5ec 88bd d981 913c c928 323d
00000250: 0f71 8fbd 1c1f 273d 0989 803d 78e3 7fb9
00000260: 1727 7c3d f06a 84bd 71cb 85bd a232 06bd
00000270: e32e 813d 935f 173d c050 743a 4d4a b6bc
00000280: f82b 123d 4e29 593d 37e8 98bc efa1 4e3d
00000290: 9b12 26bb 44c3 98bd 0b09 e73c f69b 703d
000002a0: b393 9a3d b6b5 2c3d 5d4b 4a3d 6ae4 dbbb
000002b0: 308c 4ebd c449 8ebd 3da7 bebb 9686 a73d
000002c0: 19f8 993d 8dbc 383c 1633 663c acc7 873d
000002d0: f8fb 683d 0166 cf3c 34f7 1abd caa1 c0bc
000002e0: 0422 433d 541a 953d d96e 08bd 6aff d3bc
000002f0: f277 2b3d ba21 53bc 51b5 3ebc 9c54 02bd
00000300: ecdf a7bd 34e8 a13d e550 d6bc ecf6 c9bc
00000310: 5194 5e3d 3f68 c93c 0ddc dc3c c4b3 7abb

net.1.weight f4 [200]
1.001731 1.0033201 0.9949023 0.99624723 0.98933285 0.99327195 0.9969001 1.0030096
1.0119845 0.999853 1.0042821 1.0001994 0.9996071 0.99358696 1.0012832 1.0012637
0.9997377 0.9950857 0.9966783 1.0068831 0.9977039 1.0021249 0.99679124 0.9966716
0.99154335 0.9912675 1.0037147 0.9964108 0.9913448 0.99927527 0.99883455 0.9999534
0.9947047 1.0026898 0.9957118 1.0097245 0.9936604 0.99905705 0.99756324 0.9977464
1.0005473 1.003009 1.0084759 0.9862858 0.9950237 0.9943649 0.9988894 1.0023686
1.0003285 0.99969167 1.0156612 1.0085629 1.0004457 1.0051489 1.0025208 1.0099453
0.9919683 1.005067 1.0029337 0.9989166 1.002987 1.0063506 1.0037184 0.9990784
1.0008368 1.0023193 1.0088605 0.9943852 0.99526995 0.9953162 1.0211499 1.0022806
0.9995085 0.9909384 0.9956424 0.99810416 0.9919184 1.001009 1.0027341 0.99824375
1.0014957 0.9989994 0.9959758 1.0066726 0.99733496 0.9989402 1.0037173 1.0032383
1.021993 0.9947712 1.0028621 0.990789 1.0094033 0.9877274 1.013365 0.99600416
1.0097638 1.0054818 1.0025111 1.0036911 0.9867234 0.9960106 0.9931069 0.99765503
0.9911733 0.991811 0.992555 0.9891514 0.9995182 0.9996749 1.0169015 1.0041741
0.9959417 1.0018114 1.0055066 1.0039372 1.0059288 1.0006176 1.0112594 1.0084333
0.9895198 1.0055232 1.0022621 0.9990778 0.99704385 0.99778295 0.9927252 1.0007917
0.99690926 1.0053859 1.0123166 1.0029812 0.99920577 1.0040711 1.0031039 0.9993551
1.0072594 0.99732363 0.9962298 1.0063992 1.0022204 1.0126055 1.000671 0.9979033
1.0013939 1.0113336 0.98988265 1.0049285 1.0010676 1.0137004 0.9921765 0.99353
1.0047593 1.0026104 0.997243 1.003199 0.9893364 0.98938483 1.002925 0.9968645
0.9980931 1.0028324 0.9963979 0.9942531 0.99107176 0.9941125 0.99647117 1.000829
0.9956962 0.9954063 0.9947479 1.001905 1.0057375 0.99405473 0.992457 0.9960114
1.0104957 1.006741 1.0031247 1.0033357 1.0024972 1.002342 1.0000899 0.9992638
0.9934442 1.0052011 1.0032438 0.9928077 0.9968747 1.0075792 1.0012957 0.99003583
0.9896715 1.0111223 1.0087159 1.0046378 1.0031749 0.99952936 0.99461734 0.9993993
00000000: b938 803f cb6c 803f ebb1 7e3f 0f0a 7f3f
00000010: eb44 7d3f 1247 7e3f d834 7f3f 9e62 803f
00000020: b588 813f 5ef6 7f3f 518c 803f 8906 803f
00000030: 40e6 7f3f b75b 7e3f 0c2a 803f 6929 803f
00000040: cfee 7f3f f0bd 7e3f 4f26 7f3f 8ce1 803f
00000050: 8669 7f3f a145 803f b62d 7f3f df25 7f3f
00000060: c9d5 7d3f b5c3 7d3f b979 803f c714 7f3f
00000070: c6c8 7d3f 81d0 7f3f 9fb3 7f3f f2fc 7f3f
00000080: f8a4 7e3f 2458 803f f8e6 7e3f a73e 813f
00000090: 8760 7e3f 34c2 7f3f 4e60 7f3f 4f6c 7f3f
000000a0: ef11 803f 9962 803f bd15 813f 3a7d 7c3f
000000b0: e0b9 7e3f b38e 7e3f 37b7 7f3f 9d4d 803f
000000c0: c40a 803f cbeb 7f3f 3001 823f 9718 813f
000000d0: 9b0e 803f b8a8 803f 9a52 803f e345 813f
000000e0: a2f1 7d3f 09a6 803f 2260 803f 00b9 7f3f
000000f0: e161 803f 19d0 803f d879 803f 9ac3 7f3f
00000100: 6c1b 803f 004c 803f 5722 813f 0790 7e3f
00000110: 03ca 7e3f 0bcd 7e3f 0ab5 823f bb4a 803f
00000120: cadf 7f3f 24ae 7d3f 6ce2 7e3f c183 7f3f
00000130: 5dee 7d3f 1021 803f 9759 803f e78c 7f3f
00000140: 0331 803f 6dbe 7f3f 45f8 7e3f a6da 803f
00000150: 5851 7f3f 8cba 7f3f cf79 803f 1d6a 803f
00000160: abd0 823f 53a9 7e3f c95d 803f 59a4 7d3f
00000170: 2134 813f b4db 7c3f f2b5 813f 21fa 7e3f
00000180: f13f 813f a1b3 803f 4952 803f f378 803f
00000190: e899 7c3f 8dfa 7e3f 413c 7e3f 5266 7f3f
000001a0: 89bd 7d3f 53e7 7d3f 1618 7e3f 0739 7d3f
000001b0: 6de0 7f3f b2ea 7f3f d429 823f c788 803f
000001c0: 09f6 7e3f 5b3b 803f 71b4 803f 0481 803f
000001d0: 46c2 803f 3d14 803f f370 813f 5814 813f
000001e0: 2b51 7d3f fcb4 803f 204a 803f 90c3 7f3f
000001f0: 443e 7f3f b46e 7f3f 3d23 7e3f f119 803f
00000200: 7235 7f3f 7cb0 803f 9793 813f b061 803f
00000210: f3cb 7f3f 6785 803f b565 803f bcd5 7f3f
00000220: e0ed 803f 9a50 7f3f eb08 7f3f b0d1 803f
00000230: c248 803f 0f9d 813f fd15 803f 9776 7f3f
00000240: ad2d 803f 6173 813f f368 7d3f 7fa1 803f
00000250: fc22 803f efc0 813f 47ff 7d3f fb57 7e3f
00000260: f49b 803f 8a55 803f 514b 7f3f d368 803f
00000270: 2645 7d3f 5348 7d3f d95f 803f 8332 7f3f
00000280: 0883 7f3f d05c 803f ef13 7f3f 5f87 7e3f
00000290: e1b6 7d3f 287e 7e3f bc18 7f3f 2a1b 803f
000002a0: f2e5 7e3f f3d2 7e3f cca7 7e3f 6c3e 803f
000002b0: 02bc 803f 5f7a 7e3f a911 7e3f 9afa 7e3f
000002c0: ec57 813f e4dc 803f 6466 803f 4e6d 803f
000002d0: d451 803f be4c 803f f202 803f c1cf 7f3f
000002e0: 5c52 7e3f 6eaa 803f 4b6a 803f a528 7e3f
000002f0: 2e33 7f3f 5bf8 803f 752a 803f fd72 7d3f
00000300: 1d5b 7d3f 756c 813f 9a1d 813f f997 803f
00000310: 0968 803f 28e1 7f3f 3e9f 7e3f a2d8 7f3f

net.1.bias f4 [200]
-0.00052285544 -0.007742059 -0.0109106125 -0.003225174 -0.013271768 -0.009969969 -0.0044849045 -0.005299352
-0.0003488482 -0.006243153 0.008796118 -0.0029090208 0.0065332507 -0.0025505654 -0.0038824033 -0.012100766
-0.009342265 -0.015523169 -0.0028963608 -0.007956896 -0.0041939327 -0.0057394463 -0.014200968 -0.0015069076
-0.007145992 -0.01029311 0.0015207521 -0.011649757 -0.0016083809 -0.013379639 -0.0010510857 -0.003510885
-0.010903199 -0.00016519176 -0.013042463 -0.002473661 -0.010821828 0.00433587 -0.0077885515 -0.011355623
-0.004343504 -0.00063640653 0.008841791 -0.009176129 -0.003957587 -0.011818631 0.00047887253 -0.0028926746
-0.0027402306 -0.004066359 0.0017451248 -0.008128926 6.765183e-05 0.0019216335 -0.003949158 0.0073105763
-0.012785324 -0.0006448915 -0.00869539 0.0031343226 -0.005224146 -0.0020439995 0.0028434498 -0.006326361
-0.003184283 0.004983847 -0.0070800586 -0.01856371 -0.013186573 -0.011867627 0.015289872 0.00013767135
-0.016989492 -0.00970978 -0.007252996 -0.0070501477 -0.012505037 -0.002903472 -0.012493976 0.0045009986
-0.0004836835 -0.0075929267 -0.0030143496 0.0012283967 -0.007790935 -0.0046158605 0.0035223805 -0.0014344233
0.011558396 -0.0068174433 -0.006428104 -0.0072699226 0.008883498 -0.014430594 0.00056747097 0.00033295125
0.0083444165 0.0027667102 0.0009877118 -0.0027703575 -0.0126078315 -0.006325963 -0.0061415816 -0.008491777
-0.005434623 -0.008670501 -0.012124596 -0.009278442 -0.0008458034 0.008513617 -0.00029622173 -0.008489459
-0.018764395 0.0042878203 0.009133968 -0.007922927 0.0018214475 -0.001125349 -0.0070690787 -0.011848987
-0.012637274 -0.00053404766 -0.007953529 0.0020128365 -0.0029848192 -0.0017202612 -0.01493354 -0.003903473
-0.007773401 -0.0006622743 0.00032950798 -0.0049516778 -0.0030922797 -0.0014129925 0.009229527 -0.0040950305
-0.00877411 -0.012161996 -0.010082182 0.0021679918 -0.0017865075 0.0024637203 -0.004377714 -0.00046867877
-0.0030936988 0.004446047 -0.0064280042 -0.0072786408 -0.018436454 0.0054602167 -0.009538836 -0.0059349644
-0.004515701 0.004498627 -0.005912182 -0.0054266686 -0.008908568 -0.007998769 -0.008053461 -0.010267537
-0.0007328039 0.0008154659 -0.01078932 -0.0009873521 -0.01231688 -0.0063735666 -0.00075993926 0.0077340486
0.0032131965 -0.015190391 -0.01098172 -0.0052675037 -0.0026848083 -0.0072486443 -0.0053613605 -0.0124641005
0.0009113743 0.00028693158 0.0010666613 0.003344317 0.006674154 -0.0020270734 -0.009209255 -0.0073148715
-0.010060269 0.009993238 -0.010025909 -0.014795303 0.00294537 0.0025255345 -0.0047678505 -0.013784009
-0.009534679 -0.006020851 0.009003716 -0.005007709 -0.0020918008 -0.0018832667 -0.010538526 -0.0044042566
00000000: 3c10 09ba 19b1 fdbb 6dc2 32bc 715d 53bb
00000010: d471 59bc 1559 23bc 1bf6 92bb 30a6 adbb
00000020: 9de5 b6b9 5d93 ccbb 981d 103c 45a5 3ebb
00000030: e114 d63b 6327 27bb eb6f 7ebb 4b42 46bc
00000040: 4d10 19bc e454 7ebc dfd0 3dbb a45d 02bc
00000050: 426d 89bb f711 bcbb 2dab 68bc 6e83 c5ba
00000060: ed28 eabb 6fa4 28bc f953 c73a 9fde 3ebc
00000070: 4fd0 d2ba 4636 5bbc 95c4 89ba e016 66bb
00000080: 55a3 32bc 5337 2db9 0eb0 55bc 251d 22bb
00000090: 094e 31bc ea13 8e3b 1b37 ffbb ef0c 3abc
000000a0: f453 8ebb 85d4 26ba 29dd 103c 7957 16bc
000000b0: a5ae 81bb eea2 41bc 2f11 fb39 0793 3dbb
000000c0: 7195 33bb 173f 85bb acbc e43a 302f 05bc
000000d0: 4de0 8d38 52df fb3a f067 81bb 8f8d ef3b
000000e0: 8979 51bc f00d 29ba 1c77 0ebc 3569 4d3b
000000f0: 502f abbb 9ff4 05bb 2c59 3a3b 5d4d cfbb
00000100: 67af 50bb 8a4f a33b d6ff e7bb ec12 98bc
00000110: 7f0c 58bc 6f70 42bc 5f82 7a3c df5b 1039
00000120: 8c2d 8bbc c515 1fbc 8aaa edbb ed04 e7bb
00000130: ede1 4cbc 2d48 3ebb 89b3 4cbc 1d7d 933b
00000140: e796 fdb9 16ce f8bb 658c 45bb 2702 a13a
00000150: 1a4b ffbb a540 97bb bdd7 663b 4203 bcba
00000160: 6d5f 3d3c dc64 dfbb d8a2 d2bb 8838 eebb
00000170: 178c 113c 4c6e 6cbc 55c2 143a f68f ae39
00000180: 05b7 083c b251 353b 1c76 813a e38e 35bb
00000190: 1491 4ebc 064a cfbb 523f c9bb 1821 0bbc
000001a0: ec14 b2bb b80e 0ebc 3ea6 46bc 9b04 18bc
000001b0: e8b8 5dba b37c 0b3c 354e 9bb9 5f17 0bbc
000001c0: cab7 99bc d880 8c3b a3a6 153c 2acf 01bc
000001d0: a3bd ee3a 7280 93ba bba3 e7bb 4122 42bc
000001e0: 920c 4fbc 55ff 0bba 854f 02bc cbe9 033b
000001f0: f59c 43bb 637a e1ba ceab 74bc 69d1 7fbb
00000200: 04b8 febb 7a9c 2dba d0c1 ac39 af41 a2bb
00000210: d8a7 4abb 2934 b9ba 7137 173c 9b2f 86bb
00000220: 49c1 0fbc 1c43 47bc bc2f 25bc de14 0e3b
00000230: 3f29 eaba 5e76 213b ed72 8fbb 00b9 f5b9
00000240: a7bf 4abb 25b0 913b 02a2 d2bb aa81 eebb
00000250: 0c08 97bc 9eeb b23b c748 1cbc 177a c2bb
00000260: 72f8 93bb 3869 933b faba c1bb 32d2 b1bb
00000270: 3ef5 11bc 450d 03bc aaf2 03bc 2c39 28bc
00000280: a319 40ba fdc4 553a b0c5 30bc 0a6a 81ba
00000290: bdcc 49bc 5ad9 d0bb a936 47ba e76d fd3b
000002a0: 7e94 523b 1ee1 78bc acec 33bc 069b acbb
000002b0: 9cf3 2fbb 0986 edbb 5aae afbb 3a36 4cbc
000002c0: 4be9 6e3a 4e6f 9639 37cf 8b3a 542c 5b3b
000002d0: ddb2 da3b a6d8 04bb 6ae2 16bc 97b1 efbb
000002e0: d4d3 24bc aeba 233c b643 24bc 0068 72bc
000002f0: 1c07 413b 7083 253b a13b 9cbb 53d6 61bc
00000300: 5837 1cbc 8f4a c5bb 5284 133c b517 a4bb
00000310: 9816 09bb f2d7 f6ba c8a9 2cbc 9551 90bb

net.1.running_mean f4 [200]
-0.05665612 0.34967017 0.113190815 -0.07272994 -0.27990013 0.18494314 0.037248183 0.14703085
-0.0793403 0.1859025 0.17553018 -0.13340399 0.005270132 -0.11409112 0.14055172 0.13251483
-0.32524246 0.016643409 -0.38263804 0.03447916 0.29488918 -0.09689164 -0.16688652 0.0645142
-0.07694485 0.30296668 0.09297265 -0.093952596 -0.34485462 -0.18499443 0.546371 0.13378671
-0.28362054 -0.008086922 0.22543646 -0.24842606 -0.11638626 -0.045871977 -0.046822958 -0.003955248
0.34779388 -0.13091882 -0.074060634 0.09665385 -0.18923266 0.20193323 0.5680068 0.20492597
-0.5585334 -0.2747457 -0.026490932 -0.07981117 -0.16859712 -0.16745436 0.036462866 -0.0054466478
0.144022 -0.30995002 -0.039725948 -0.37476137 0.31069154 -0.09357298 -0.05092927 0.18973306
-0.42756757 -0.16053334 -0.13284408 -0.073058285 0.32201904 0.08985786 -0.16261607 -0.17962372
-0.2163252 0.106262445 0.020550782 0.039626494 -0.4297365 0.15705225 0.2989806 -0.066558115
0.060894057 -0.06646145 0.22839868 0.06240145 0.02043335 0.2851291 0.06822511 0.19608068
0.0849614 -0.019577185 -0.13652311 -0.16208707 0.106968045 -0.13100517 0.13097534 -0.07021174
-0.14206299 -0.10587614 -0.05198126 0.13715297 -0.19902834 0.21005678 -0.2739116 -0.15129948
-0.41546932 0.010797552 -0.041167945 -0.11669514 -0.042395577 0.054667838 -0.039967116 -0.06358826
-0.0560921 -0.0054855873 0.36533207 -0.2800766 -0.13462703 -0.34310699 -0.039217647 -0.2345524
0.2702114 0.05114512 -0.32629016 0.17024766 0.26643106 -0.08591785 -0.18343256 -0.22143666
-0.10742949 0.077030234 0.013093064 -0.040564317 0.15645818 -0.21641006 0.020325797 0.031409863
0.12991248 0.050544973 0.010135042 0.40335673 0.11625273 -0.018551888 -0.2752985 -0.2050084
-0.33483192 -0.030780692 -0.048064478 0.2559701 -0.25684565 -0.12629828 0.06932642 0.12630866
-0.028283352 -0.4206393 -0.21935911 0.07769799 0.32340908 0.38095385 0.24339674 -0.11408094
-0.031801756 -0.04642665 0.006585768 -0.24858496 -0.0119206775 -0.41716084 0.13886881 -0.120515816
0.13272214 -0.15212603 0.012330031 -0.11619631 -0.02438286 -0.1282788 0.109446324 0.1061455
0.05805552 -0.13602488 -0.22813003 -0.26570842 0.05192508 -0.045824777 -0.12648447 -0.10718156
0.27532318 0.3839749 -0.083106086 0.20556453 0.021050593 -0.02206962 0.27855837 0.252574
0.14979723 0.1620877 0.12251812 -0.11105865 0.10793795 -0.1863486 0.26325366 -0.27108857
00000000: 3f10 68bd f807 b33e 96d0 e73d 6ff3 94bd
00000010: 124f 8fbe bc61 3d3e 8d91 183d 418f 163e
00000020: 2b7d a2bd 3a5d 3e3e 2fbe 333e 0e9b 08be
00000030: 12b1 ac3b 9ba8 e9bd caec 0f3e f8b1 073e
00000040: 2e86 a6be c257 883c 22e9 c3be 053a 0d3d
00000050: b7fb 963e 206f c6bd 4de4 2abe 0520 843d
00000060: 4395 9dbd 731e 9b3e 7268 be3d 386a c0bd
00000070: c990 b0be 2e6f 3dbe f8de 0b3f 62ff 083e
00000080: b636 91be 027f 04bc d1d8 663e 6763 7ebe
00000090: eb5b eebd 41e4 3bbd 6ec9 3fbd 069b 81bb
000000a0: 0a12 b23e 950f 06be 1aad 97bd 74f2 c53d
000000b0: 35c6 41be 96c7 4e3e e568 113f 1dd8 513e
000000c0: 0bfc 0ebf 78ab 8cbe 8303 d9bc 0a74 a3bd
000000d0: b9a4 2cbe 2879 2bbe 165a 153d cb79 b2bb
000000e0: 817a 133e c5b1 9ebe adb7 22bd b9e0 bfbe
000000f0: f612 9f3e 31a3 bfbd 369b 50bd 6249 423e
00000100: 23ea dabe da62 24be 4708 08be 959f 95bd
00000110: aedf a43e 6607 b83d d484 26be 48ef 37be
00000120: 5a84 5dbe 20a0 d93d 1d5a a83c 644f 223d
00000130: 6c06 dcbe 4ed2 203e fc13 993e 9f4f 88bd
00000140: 0c6c 793d f11c 88bd 58e1 693e aa98 7f3d
00000150: d763 a73c 71fc 913e 9bb9 8b3d 60c9 483e
00000160: 3e00 ae3d 5560 a0bc b7cc 0bbe 27fa 25be
00000170: 1012 db3d 3826 06be 661e 063e 2ccb 8fbd
00000180: f678 11be 97d5 d8bd 4dea 54bd d471 0c3e
00000190: 16ce 4bbe 2019 573e 243e 8cbe 40ee 1abe
000001a0: 65b8 d4be 37e8 303c b89f 28bd ddfd eebd
000001b0: fca6 2dbd 62eb 5f3d 8fb4 23bd 903a 82bd
000001c0: d4c0 65bd 71c0 b3bb ce0c bb3e 3366 8fbe
000001d0: abdb 09be b8ab afbe afa2 20bd 812e 70be
000001e0: 2659 8a3e 8c7d 513d 810f a7be 6755 2e3e
000001f0: a769 883e b3f5 afbd bfd5 3bbe 4bc0 62be
00000200: fe03 dcbd 07c2 9d3d 4a84 563c c526 26bd
00000210: 9336 203e 999a 5dbe 4982 a63c a1a7 003d
00000220: c707 053e 3f08 4f3d 720d 263c c684 ce3e
00000230: e915 ee3d 21fa 97bc edf3 8cbe b9ed 51be
00000240: 176f abbe ca27 fcbc 42df 44bd 830e 833e
00000250: 4681 83be 5654 01be 03fb 8d3d 0f57 013e
00000260: 7db2 e7bc 095e d7be ad9f 60be 2020 9f3d
00000270: e095 a53e 620c c33e ff3c 793e 45a3 e9bd
00000280: 8f42 02bd df29 3ebd 6dcd d73b 0e8d 7ebe
00000290: f24e 43bc 1b96 d5be a033 0e3e ffd0 f6bd
000002a0: 50e8 073e edc6 1bbe e603 4a3c 55f8 edbd
000002b0: 90be c7bc 855b 03be 6525 e03d d062 d93d
000002c0: a0cb 6d3d 1b4a 0bbe eb9a 69be ef0a 88be
000002d0: 65af 543d c3b2 3bbd 2585 01be 0182 dbbd
000002e0: 29f7 8c3e 5c98 c43e 8633 aabd 827f 523e
000002f0: 4b72 ac3c 59cb b4bc 349f 8e3e 6151 813e
00000300: 7264 193e 51fa 253e c8ea fa3d b872 e3bd
00000310: 920e dd3d 2bd2 3ebe 2fc9 863e 1fcc 8abe

net.1.running_var f4 [200]
0.029136468 0.046282224 0.072257414 0.060358115 0.044133287 0.049234077 0.034779258 0.020186631
0.027785115 0.054899056 0.11294783 0.09306821 0.069046676 0.24389987 0.014308357 0.06889798
0.060762912 0.035726447 0.08998084 0.017441304 0.062028307 0.027874455 0.09610117 0.037131894
0.07099986 0.046776004 0.025399882 0.023588676 0.08409054 0.103954114 0.13092695 0.022260776
0.117116146 0.087521836 0.12194604 0.06673794 0.03496814 0.43621054 0.014683465 0.05862208
0.06241919 0.034647238 0.04977381 0.036862906 0.016643748 0.031881034 0.16537447 0.03801739
0.14720085 0.038449112 0.017434496 0.13710701 0.08621409 0.027791878 0.022921035 0.020715658
0.08685573 0.093683586 0.0111497175 0.05060792 0.18320689 0.037027832 0.034979433 0.18700096
0.061598614 0.18911657 0.13369499 0.099794984 0.124746434 0.12112056 0.18034877 0.051108114
0.044111095 0.0779054 0.013253827 0.06568511 0.118889056 0.031149497 0.088218294 0.24925186
0.08631362 0.13866214 0.062284812 0.08452504 0.032401346 0.060701087 0.03341925 0.1089025
0.023903416 0.053689416 0.21459292 0.07488344 0.05447454 0.043007094 0.03405118 0.017591873
0.02381274 0.11688781 0.075642936 0.040171605 0.045994658 0.09179953 0.05513932 0.046577513
0.17132181 0.12284378 0.10763988 0.095230594 0.058625136 0.030859144 0.016623728 0.2397942
0.09072518 0.010054324 0.07220966 0.10601817 0.023031523 0.08097068 0.14199379 0.10936582
0.19675076 0.01977955 0.108210154 0.03896529 0.03514044 0.06422751 0.0238996 0.049455497
0.14065768 0.026529467 0.01253821 0.03654022 0.06688833 0.060022485 0.04412295 0.01690402
0.06521269 0.01095433 0.053248957 0.117592745 0.06874361 0.03150299 0.07939838 0.10624354
0.081495084 0.047083568 0.23639716 0.09863856 0.30049258 0.029410195 0.033107497 0.047616404
0.099806525 0.07625676 0.01688239 0.21154147 0.05687874 0.28363857 0.077331275 0.03205151
0.018097494 0.11340753 0.022643091 0.3397296 0.1428598 0.30785725 0.17226893 0.05367499
0.09100472 0.03678301 0.04979837 0.061546877 0.047672395 0.012157293 0.023385562 0.020144366
0.03399029 0.028038137 0.07065407 0.100698546 0.06503717 0.11530647 0.016715093 0.08766391
0.104972616 0.06424037 0.030948589 0.106091626 0.12481152 0.0410339 0.06380826 0.2960674
0.0672789 0.08862086 0.07477753 0.015275789 0.043245386 0.034862664 0.05032276 0.054867547
00000000: 9aaf ee3c 6e92 3d3d b2fb 933d 123a 773d
00000010: 1bc5 343d aca9 493d b274 0e3d 6f5e a53c
00000020: 9c9d e33c d5dd 603d 3151 e73d 8c9a be3d
00000030: 5868 8d3d e3c0 793e 996d 6a3c 621a 8d3d
00000040: 88e2 783d e555 123d e047 b83d 11e1 8e3c
00000050: 6511 7e3d f858 e43c b1d0 c43d 9d17 183d
00000060: 6068 913d 3298 3f3d 6a13 d03c 0a3d c13c
00000070: a937 ac3d e5e5 d43d b711 063e 3b5c b63c
00000080: 97da ef3d a63e b33d d8be f93d e7ad 883d
00000090: c13a 0f3d fd56 df3e ea92 703c b51d 703d
000000a0: 44ab 7f3d 43ea 0d3d 9fdf 4b3d 8ffd 163d
000000b0: 7858 883c b095 023d ed57 293e 1fb8 1b3d
000000c0: d2bb 163e d17c 1d3d cad2 8e3c c865 0c3e
000000d0: 0391 b03d cbab e33c e5c4 bb3c e2b3 a93c
000000e0: 6be1 b13d 2edd bf3d 4ead 363c 404a 4f3d
000000f0: 969a 3b3e 7faa 173d 9846 0f3d 2e7d 3f3e
00000100: d44e 7c3d c6a7 413e 57e7 083e 5061 cc3d
00000110: 0f7b ff3d 0e0e f83d 59ad 383e be56 513d
00000120: d6ad 343d de8c 9f3d 9426 593c ea85 863d
00000130: 1b7c f33d 3b2d ff3c cbab b43d e13b 7f3e
00000140: 32c5 b03d 73fd 0d3e 5c1e 7f3d 771b ad3d
00000150: 46b7 043d b4a1 783d a0e2 083d 4608 df3d
00000160: 19d1 c33c 6fe9 5b3d 3fbe 5b3e 7d5c 993d
00000170: b220 5f3d 3528 303d 4079 0b3d d51c 903c
00000180: ef12 c33c e062 ef3d afea 9a3d fb8a 243d
00000190: e564 3c3d 6401 bc3d c5d9 613d 10c8 3e3d
000001a0: fc6e 2f3e 8595 fb3d 4c72 dc3d 4208 c33d
000001b0: e920 703d 51cc fc3c 7c2e 883c 9c8c 753e
000001c0: 20ce b93d e4ba 243c a9e2 933d 0e20 d93d
000001d0: 9bac bc3c f5d3 a53d d266 113e 30fb df3d
000001e0: 0879 493e b908 a23c 499d dd3d 119a 1f3d
000001f0: 6cef 0f3d b689 833d 18c9 c33c d991 4a3d
00000200: 9108 103e 5354 d93c 106d 4d3c 33ab 153d
00000210: c0fc 883d 23da 753d 44ba 343d 4d7a 8a3c
00000220: 3b8e 853d ca79 333c 941b 5a3d 77d4 f03d
00000230: 73c9 8c3d 4709 013d 9e9b a23d 3796 d93d
00000240: e5e6 a63d b3da 403d 1912 723e 0303 ca3d
00000250: 2ada 993e a6ed f03c ba9b 073d 6b09 433d
00000260: 5d67 cc3d 812c 9c3d f04c 8a3c 549e 583e
00000270: aff9 683d 1339 913e dc5f 9e3d 7248 033d
00000280: 3241 943c 3542 e83d 017e b93c 0af1 ad3e
00000290: d749 123e 779f 9d3e 4467 303e 4eda 5b3d
000002a0: af60 ba3d c8a9 163d 60f9 4b3d 9418 7c3d
000002b0: 2144 433d 622f 473c 1493 bf3c cc05 a53c
000002c0: 6739 0b3d 3cb0 e53c 15b3 903d 0a3b ce3d
000002d0: 3532 853d cc25 ec3d 17ee 883c 2389 b33d
000002e0: e2fb d63d 7590 833d e587 fd3c 9146 d93d
000002f0: 2f9d ff3d 2a13 283d e8ad 823d 2596 973e
00000300: 85c9 893d da7e b53d f624 993d 4e47 7a3c
00000310: 1322 313d 27cc 0e3d 3d1f 4e3d cbbc 603d

net.4.weight f4 [200, 200]
0.028622357 -0.023821404 0.024556462 -0.0067177024 0.060298122 0.039865334 -0.012292033 0.027037634
0.066915296 -0.045137633 -0.076033846 -0.03215368 0.05498419 -0.03690903 0.04448986 -0.075396456
-0.0071691317 -0.042708524 -0.05316407 -0.05855485 -0.012655969 -0.025974596 -0.035006423 0.018572988
-0.06784946 0.018760782 0.042716544 -0.009749012 0.057615053 0.07164763 -0.026456792 0.041877326
-0.04818722 -0.05634106 0.0016625392 0.05021051 -0.03139037 0.015095011 -0.007529174 -0.050344173
0.061860655 -0.026905358 0.07554782 -0.056935858 -0.043829318 0.039979406 0.0158561 -0.003200188
0.073748045 -0.014756389 0.074813 -0.009417833 0.0549936 0.037202545 -0.0033557324 -0.03818323
0.032889128 -0.051487867 0.03208811 0.04831239 0.037068028 0.008733265 0.052265327 0.017418046
0.060581915 0.06420687 -0.05786645 0.055798713 -0.06467623 -0.015411185 -0.05764784 0.03644172
0.0005080316 0.018404253 -0.008286242 0.043505277 -0.039941147 -0.07450602 0.025572052 -0.042226765
-0.056027867 0.016150407 -0.038212143 0.04229935 -0.036508493 0.035768706 0.04452557 -0.050717212
0.0044842493 0.050516315 0.024374502 -0.04417728 -0.00032044097 -0.027595421 0.020545747 0.062222946
0.02592997 0.04749828 0.020229686 0.025912037 -0.0049122563 -0.015253709 0.07187982 -0.029423788
-0.037154283 -0.057399124 -0.041374076 -0.053543057 -0.047753766 -0.02556887 -0.038564026 -0.042801574
-0.022888374 -0.029793091 0.05629669 -0.030399293 -0.058494557 -0.009086607 0.01858859 0.0627643
0.06426782 0.04822422 -0.04240841 -0.07039376 -0.04501146 0.06592813 0.037414804 0.0018297606
0.071585074 0.051925972 -0.07166954 0.0658432 0.05955227 0.029796643 -0.020157391 0.011309456
-0.056900207 -0.049338195 0.05647229 0.05126141 -0.057419937 0.03530202 0.045667995 0.06108142
-0.017032161 0.06054998 0.010408745 0.041923102 0.036356308 0.047432076 -0.0372817 -0.034519006
0.030962331 -0.0461256 -0.057606526 0.044471968 0.04008524 0.020294104 0.025236322 0.06003067
-0.011306182 -0.034390863 -0.040554293 -0.005032352 -0.03853578 -0.010013752 -0.04194226 -0.021865938
-0.036592875 0.00800847 0.044500157 0.0127508035 0.0040210844 -0.018410092 0.046077736 -0.056005806
0.041436624 0.05421776 -0.014566469 0.07212835 -0.037323765 0.020933751 0.061627775 -0.064021505
-0.044326097 0.008124704 -0.020640446 0.06372804 -0.05504716 0.077025786 -0.070208386 -0.04492618
-0.035319388 -0.025547922 -0.036022436 0.039584044 0.022593386 0.01757131 -0.058835294 -0.030418608
-0.06157704 0.05256936 0.031450387 -0.0047174753 -0.022522239 0.02477871 0.008707564 0.044960644
-0.055463046 0.013947961 -0.05519594 -0.047186732 0.062359516 -0.058817063 -0.0070739104 -0.02189843
0.027190782 -0.046488848 -0.010946276 -0.012764278 0.02927211 0.015293159 0.050904553 0.017445317
0.0040961113 -0.027564429 0.043415748 -0.019760914 0.04872058 -0.012365722 -0.03085345 0.03500468
-0.0201489 0.03814543 -0.008944021 -0.014773629 -0.012920734 0.005496709 -0.025368487 -0.0669994
-0.0065735597 0.021948704 -0.014975574 -0.0238811 -0.03865107 -0.0015884864 0.0138073405 0.06546434
-0.03404244 -0.038146485 -0.00038514545 -0.021043044 0.0008044691 0.06697904 -0.043059096 -0.044911906
00000000: 6f79 ea3c 1b25 c3bc a22a c93c 2c20 dcbb
00000010: 2afb 763d d549 233d 8664 49bc 077e dd3c
00000020: e30a 893d 3de2 38bd a2b7 9bbd 94b3 03bd
00000030: 1a37 613d ec2d 17bd 003b 363d 7569 9abd
00000040: 09eb eabb 22ef 2ebd 91c2 59bd 36d7 6fbd
00000050: fb5a 4fbc adc8 d4bc e562 0fbd 6126 983c
00000060: a8f4 8abd 36b0 993c 8bf7 2e3d 52ba 1fbc
00000070: c3fd 6b3d febb 923d eabb d8bc 8f87 2b3d
00000080: f65f 45bd e2c5 66bd 8fe9 d93a 89a9 4d3d
00000090: 3093 00bd 1151 773c 4ab7 f6bb b135 4ebd
000000a0: 9961 7d3d a068 dcbc d1b8 9a3d 9335 69bd
000000b0: 5f86 33bd 72c1 233d a7e4 813c 3fba 51bb
000000c0: 3709 973d c8c4 71bc 8f37 993d 414d 1abc
000000d0: f840 613d b261 183d d9eb 5bbb 0566 1cbd
000000e0: c0b6 063d f1e4 52bd d26e 033d 36e3 453d
000000f0: a5d4 173d f815 0f3c 2b14 563d 4ab0 8e3c
00000100: be24 783d e47e 833d 5f05 6dbd 318d 643d
00000110: f974 84bd 327f 7cbc 2420 6cbd ea43 153d
00000120: 6c2d 053a 84c4 963c 05c3 07bc 9732 323d
00000130: 5499 23bd 9d96 98bd 7b7c d13c f9f5 2cbd
00000140: 7a7d 65bd dc4d 843c 5684 1cbd 1542 2d3d
00000150: ee89 15bd 3582 123d 7260 363d dabc 4fbd
00000160: 9cf0 923b 32ea 4e3d 09ad c73c 3cf3 34bd
00000170: dc00 a8b9 cb0f e2bc 8e4f a83c 7ddd 7e3d
00000180: 176b d43c 8e8d 423d bab8 a53c 7b45 d43c
00000190: fef6 a0bb b1ea 79bc ba35 933d 280a f1bc
000001a0: 172f 18bd 581b 6bbd dd77 29bd f74f 5bbd
000001b0: 7499 43bd cf75 d1bc 50f5 1dbd b450 2fbd
000001c0: 6680 bbbc a410 f4bc 5c97 663d f007 f9bc
000001d0: fd97 6fbd fedf 14bc 1947 983c 928a 803d
000001e0: d99e 833d c286 453d 71b4 2dbd 9b2a 90bd
000001f0: f05d 38bd 5405 873d 4440 193d 94d4 ef3a
00000200: 329b 923d 54b0 543d 7bc7 92bd cdd8 863d
00000210: 15ed 733d 1718 f43c 1d21 a5bc 4c4b 393c
00000220: 3110 69bd d916 4abd 7d4f 673d 7cf7 513d
00000230: 2b31 6bbd da98 103d 5d0e 3b3d 8330 7a3d
00000240: 0887 8bbc 4103 783d 7189 2a3c 8fb7 2b3d
00000250: 5aea 143d 2348 423d b2b4 18bd cd63 0dbd
00000260: b7a4 fd3c 32ee 3cbd d2f4 6bbd 3d28 363d
00000270: 6c30 243d d23f a63c 67bc ce3c b8e2 753d
00000280: 903d 39bc 6fdd 0cbd 421c 26bd 6ee6 a4bb
00000290: b2d7 1dbd b810 24bc a6cb 2bbd 3220 b3bc
000002a0: 69e2 15bd f535 033c cc45 363d bfe8 503c
000002b0: 4dc3 833b c3d0 96bc 02bc 3c3d 5866 65bd
000002c0: 73b9 293d 7113 5e3d 33a8 6ebc 07b8 933d
000002d0: cee0 18bd 427d ab3c 686d 7c3d b51d 83bd
000002e0: 488f 35bd 7a1d 053c 2716 a9bc d983 823d
000002f0: 2179 61bd b2bf 9d3d 6ac9 8fbd 8404 38bd
00000300: 10ab 10bd e049 d1bc 438c 13bd e122 223d
00000310: c415 b93c b5f1 8f3c 47fd 70bd 7230 f9bc
00000320: 3538 7cbd f852 573d 1fd2 003d 0d95 9abb
00000330: 8f80 b8bc b9fc ca3c 2caa 0e3c a728 383d
00000340: 382d 63bd fd85 643c 2315 62bd e046 41bd
00000350: b16c 7f3d 29ea 70bd 43cc e7bb 5664 b3bc
00000360: 34bf de3c 176b 3ebd 0258 33bc 4321 51bc
00000370: 10cc ef3c 2890 7a3c 4b81 503d 7be9 8e3c
00000380: ac38 863b ccce e1bc b6d4 313d a4e1 a1bc
00000390: 3b8f 473d 9999 4abc 60c0 fcbc 1161 0f3d
000003a0: 4e0f a5bc 623e 1c3d f189 12bc 170d 72bc
000003b0: 7cb1 53bc bd1d b43b 93d1 cfbc fb36 89bd
000003c0: 0467 d7bb c5cd b33c 1c5c 75bc 4ca2 c3bc
000003d0: 9650 1ebd c234 d0ba 2f38 623c 2b12 863d
000003e0: 1670 0bbd 7d3f 1cbd 59ed c9b9 7662 acbc
000003f0: 02e3 523a 4f2c 893d bc5e 30bd 8cf5 37bd

net.4.bias f4 [200]
0.06320883 0.013590913 -0.04571061 -0.024343917 0.02229038 -0.0050530387 -0.004403883 0.013985215
-0.0669223 0.01537333 0.06626927 0.044738356 0.022623885 0.063976176 -0.04697109 0.006133816
-0.065477334 -0.056876447 -0.0075589367 -0.043390114 0.06626336 0.0116909295 0.012255314 0.06834709
0.033595853 0.0065367366 -0.015424831 -0.034963425 -0.0044974457 -0.030313514 0.04582394 0.05893229
0.06309972 -0.016528593 -0.005824593 0.009084011 0.06689858 -0.049754143 0.028825814 0.045925755
-0.06932588 0.0047270753 -0.048246212 -0.041302066 0.02235281 -0.035870943 -0.0700015 -0.015349751
-0.0557498 -0.024768649 0.018702025 0.06222402 0.047313128 -0.0322904 -0.0002646327 -0.009018704
0.04731071 0.00047265025 0.028402409 0.02958958 -0.006006477 -0.06542614 0.04213928 0.07050815
-0.02035826 -0.06728873 0.065342166 0.068384506 0.0041958373 -0.03211227 0.04840871 -0.008823963
0.006200787 -0.037538454 0.021008082 -0.012991931 0.05801879 0.026190873 -0.030854583 -0.04593459
0.013177767 0.02196123 -0.07159465 0.049174715 -0.030567775 0.010512649 0.057270627 -0.0038056797
0.025372779 -0.06477955 -0.05817389 0.005526989 0.046538375 -0.036678858 0.061899453 -0.04854141
-0.0075023924 0.03575247 -0.043304205 0.031988014 0.055120505 -0.013498282 0.020878922 -0.0038227604
0.034555495 -0.025214186 -0.042977307 0.011417356 0.04528869 0.025027134 -0.062000442 -0.012338366
0.022923073 -0.06719044 0.055198014 -0.040488414 -0.056166437 0.06295147 0.0012440182 -0.0005522889
-0.013848212 -0.0033675516 -0.0030537026 -0.059296682 -0.021482645 -0.049244538 -0.046401687 -0.00085498433
0.053315617 -0.032747522 0.015107905 -0.06641514 0.06225388 0.021167425 0.04960114 0.031508137
-0.026553987 0.026242062 0.07004889 0.021873929 0.01841049 0.035740387 0.003834168 -0.008547809
0.0367201 0.030286383 -0.06118407 0.018707752 0.03349725 0.01893597 0.007547734 0.06526887
-0.016336853 0.031165406 -0.063304536 0.017890655 -0.023501946 0.027068468 0.0130606685 0.06994853
-0.02360003 0.019953117 -0.007655674 0.040601436 -0.00081351347 0.0630357 -0.052347377 -0.005850624
-0.020553486 0.04147997 0.06692025 0.028341992 0.06538763 -0.004502994 -0.03745591 0.008784391
-0.05651408 0.04313936 0.051436428 -0.01185378 0.06906507 0.056702588 -0.062746055 0.030492617
0.04966788 -0.017254757 0.057888735 -0.011352571 0.03822947 -0.007762651 -0.059149224 0.070728794
-0.010630405 -0.060517613 0.055486884 0.04361823 0.0121358745 0.0021160785 -0.06641808 -0.059084978
00000000: a273 813d 6cac 5e3c 0c3b 3bbd e56c c7bc
00000010: 519a b63c f693 a5bb 734e 90bb 3e22 653c
00000020: 8f0e 89bd 6be0 7b3c 2fb8 873d 913f 373d
00000030: ba55 b93c f105 833d c264 40bd 2efe c83b
00000040: fb18 86bd 47f7 68bd f5b0 f7bb d5b9 31bd
00000050: 16b5 873d 508b 3f3c 83ca 483c 8ff9 8b3d
00000060: ce9b 093d 1f32 d63b 6eb8 7cbc cf35 0fbd
00000070: 4f5f 93bb 0c54 f8bc e2b1 3b3d fc62 713d
00000080: 6d3a 813d f966 87bc 3adc bebb 1bd5 143c
00000090: 1f02 893d 00cb 4bbd 1d24 ec3c a51c 3c3d
000000a0: bafa 8dbd 95e5 9a3b d29d 45bd 5b2c 29bd
000000b0: 3d1d b73c 69ed 12bd f25c 8fbd 867d 7bbc
000000c0: e759 64bd 9fe7 cabc fd34 993c 9dde 7e3d
000000d0: 69cb 413d f042 04bd 66be 8ab9 30c3 13bc
000000e0: e0c8 413d 0bce f739 2bac e83c d965 f23c
000000f0: fbd1 c4bb 24fe 85bd 3d9a 2c3d 9466 903d
00000100: 5ec6 a6bc acce 89bd 1dd2 853d 2d0d 8c3d
00000110: 3c7d 893b 2888 03bd 3648 463d 6292 10bc
00000120: f92f cb3b ecc1 19bd 2419 ac3c 1cdc 54bc
00000130: 1ca5 6d3d 3e8e d63c c0c2 fcbc e925 3cbd
00000140: 90e7 573c 0ae8 b33c 37a0 92bd 6d6b 493d
00000150: 4569 fabc 3f3d 2c3c 9b94 6a3d b668 79bb
00000160: 93da cf3c 24ab 84bd bf47 6ebd bf1b b53b
00000170: 069f 3e3d 923c 16bd 488a 7d3d 5cd3 46bd
00000180: a1d6 f5bb 2f71 123d c05f 31bd dd05 033d
00000190: 0ac6 613d e627 5dbc 460a ab3c 4787 7abb
000001a0: 108a 0d3d fb8d cebc f908 30bd dd0f 3b3c
000001b0: a280 393d b405 cd3c 2df4 7dbd dc26 4abc
000001c0: 2bc9 bb3c 249b 89bd 5017 623d 2ed7 25bd
000001d0: c70e 66bd b3ec 803d 530e a33a 7bc7 10ba
000001e0: 9ce3 62bc 24b2 5cbb a120 48bb 14e1 72bd
000001f0: 5ffc afbc a4b4 49bd b20f 3ebd 0721 60ba
00000200: 7a61 5a3d 4422 06bd 2587 773c a904 88bd
00000210: edfd 7e3d 4f67 ad3c 912a 4b3d ad0e 013d
00000220: bf87 d9bc 98f9 d63c cb75 8f3d f430 b33c
00000230: 99d1 963c 8364 123d aa46 7b3b 1c0c 0cbc
00000240: d167 163d 261b f83c 269c 7abd 0041 993c
00000250: 6a34 093d 9b1f 9b3c fb52 f73b afab 853d
00000260: ddd4 85bc 984e ff3c cfa5 81bd 6c8f 923c
00000270: 2787 c0bc b1be dd3c 6afc 553c 2d41 8f3d
00000280: da54 c1bc b874 a33c 73dc fabb b14d 263d
00000290: f741 55ba dc18 813d 346a 56bd 97b6 bfbb
000002a0: c95f a8bc e7e6 293d 7c0d 893d 772d e83c
000002b0: f3e9 853d da8d 93bb 5e6b 19bd 68ec 0f3c
000002c0: 4f7b 67bd e6b2 303d 01af 523d 5b36 42bc
000002d0: fd71 8d3d f940 683d 0181 80bd a7cb f93c
000002e0: 8c70 4b3d d959 8dbc bd1c 6d3d 2200 3abc
000002f0: 8196 1c3d d65d febb 7546 72bd 42da 903d
00000300: 262b 2ebc 51e1 77bd 3746 633d 07a9 323d
00000310: 8cd5 463c e8ad 0a3b 3406 88bd 1703 72bd

net.5.weight f4 [200]
0.98220295 0.9809083 0.97689253 0.9844992 0.9971452 0.97815824 0.9828325 0.9721732
0.9940269 0.9560911 0.9855087 0.98651904 0.990842 0.98070794 0.9807332 0.99553937
0.9920948 0.9960489 0.9930509 0.97404027 0.97510535 0.9871176 0.9880383 0.9956523
0.9845778 0.9981974 0.9702419 0.99269676 0.9858271 0.97643864 0.98235065 0.9921747
0.9678551 0.98923016 0.9736086 0.97782475 0.97694325 0.98307043 0.9681118 0.97786915
0.9877216 0.9790827 0.9862268 0.97085273 0.98654336 0.99613416 0.9637546 0.98433566
0.99348897 0.98628247 0.99516577 0.988205 0.9928415 0.99162877 0.98795575 0.98260504
0.9906361 0.9913898 0.975689 0.980713 0.96543217 0.9708797 0.9609563 0.9748944
0.97452456 0.9895259 0.9965795 0.95622414 0.9871232 0.97902566 0.9777463 0.98658055
1.003769 0.98412645 0.96794224 0.9827471 1.0023906 0.9743659 0.9876181 0.9749689
0.9732486 0.99489194 0.9643898 0.9795803 0.9863504 0.961521 0.98204553 0.9851892
0.9914075 0.9796531 1.0098459 0.9808974 0.98285663 0.9927586 0.9950986 0.98330164
0.9801964 0.9923294 0.9756851 0.98657024 0.96894497 0.9933549 0.9928662 1.0014476
0.9649272 0.9797786 0.9792456 0.9643988 0.99707615 0.98464066 0.98282003 0.9823736
0.9909005 0.9579989 0.9835469 0.9840969 1.0045054 0.9591913 0.9921932 0.97609717
0.9870782 0.9853765 0.9820026 0.9662335 0.9914697 0.98733443 0.9981136 0.98023224
0.9836816 0.9761325 0.98627436 0.98732996 0.98630863 0.98170525 1.0057175 0.93058807
0.98641515 0.99330366 0.9843086 0.95939326 0.98558056 0.9905031 0.97439605 0.98669857
0.9935139 0.98214644 0.9813158 0.97641 0.9858072 0.9762596 0.9930055 0.99351746
0.963948 0.99936944 1.004825 0.9939345 0.98303187 0.9923978 0.97607505 0.97864336
0.96580815 0.96178514 0.95318663 0.98614335 0.99316967 0.9726786 0.96277606 0.98616403
0.9709792 0.96673954 0.99714667 0.99609053 0.9879351 0.9900587 0.99745274 0.98966557
0.98960423 0.9915522 0.9740967 0.9668777 0.9880499 0.9808788 0.9830662 0.9815738
0.9914752 0.9965915 0.9986976 0.99676996 0.9870523 0.9952571 0.9701719 1.0072718
1.0016606 0.99065787 0.98008704 0.9985117 0.9722024 0.9829286 0.98916256 0.9906144
00000000: a771 7b3f ce1c 7b3f a115 7a3f 2408 7c3f
00000010: e844 7f3f 9468 7a3f e99a 7b3f 58e0 783f
00000020: 8c78 7e3f 63c2 743f 4c4a 7c3f 838c 7c3f
00000030: d2a7 7d3f ad0f 7b3f 5511 7b3f abdb 7e3f
00000040: edf9 7d3f 10fd 7e3f 9538 7e3f b45a 793f
00000050: 81a0 793f bdb3 7c3f 14f0 7c3f 12e3 7e3f
00000060: 4a0d 7c3f dd89 7f3f c661 783f 6021 7e3f
00000070: 2a5f 7c3f e2f7 793f 557b 7b3f 29ff 7d3f
00000080: 5ac5 773f 303e 7d3f 6a3e 793f b952 7a3f
00000090: f418 7a3f 81aa 7b3f 2dd6 773f a255 7a3f
000000a0: 53db 7c3f 2aa5 7a3f 5c79 7c3f ce89 783f
000000b0: 1b8e 7c3f a602 7f3f 9fb8 763f 6cfd 7b3f
000000c0: 4b55 7e3f 027d 7c3f 2fc3 7e3f 01fb 7c3f
000000d0: dc2a 7e3f 62db 7d3f abea 7c3f 018c 7b3f
000000e0: 549a 7d3f b9cb 7d3f c1c6 793f 0210 7b3f
000000f0: 9026 773f 928b 783f 3b01 763f ae92 793f
00000100: 717a 793f 9251 7d3f d61f 7f3f 1bcb 743f
00000110: 1bb4 7c3f 6da1 7a3f 954d 7a3f 8b90 7c3f
00000120: 817b 803f b6ef 7b3f 10cb 773f 5095 7b3f
00000130: 564e 803f 0b70 793f 8ad4 7c3f 9097 793f
00000140: d226 793f 3db1 7e3f 40e2 763f c6c5 7a3f
00000150: 7681 7c3f 3e26 763f 5667 7b3f 5c35 7c3f
00000160: e2cc 7d3f 8cca 7a3f a142 813f 181c 7b3f
00000170: 7e9c 7b3f 6d25 7e3f c8be 7e3f a8b9 7b3f
00000180: 27ee 7a3f 4d09 7e3f 80c6 793f de8f 7c3f
00000190: c70c 783f 824c 7e3f 7b2c 7e3f 6f2f 803f
000001a0: 7805 773f c5d2 7a3f d7af 7a3f d7e2 763f
000001b0: 6240 7f3f 6911 7c3f 189a 7b3f d67c 7b3f
000001c0: a8ab 7d3f 6a3f 753f bbc9 7b3f c6ed 7b3f
000001d0: a293 803f 908d 753f 6000 7e3f 81e1 793f
000001e0: 28b1 7c3f a241 7c3f 8664 7b3f 145b 773f
000001f0: f5d0 7d3f f3c1 7c3f 5f84 7f3f 80f0 7a3f
00000200: 8fd2 7b3f d2e3 793f 7a7c 7c3f a8c1 7c3f
00000210: b97e 7c3f 0951 7b3f 5abb 803f 053b 6e3f
00000220: b485 7c3f 2649 7e3f a6fb 7b3f cc9a 753f
00000230: 024f 7c3f 9c91 7d3f 0572 793f 4798 7c3f
00000240: ed56 7e3f f36d 7b3f 8337 7b3f 01f6 793f
00000250: dc5d 7c3f 26ec 793f 9c35 7e3f 2957 7e3f
00000260: 4cc5 763f add6 7f3f 1b9e 803f 7e72 7e3f
00000270: faa7 7b3f c80d 7e3f 0ee0 793f 5f88 7a3f
00000280: 343f 773f 8d37 763f 0a04 743f e473 7c3f
00000290: 5e40 7e3f 7701 793f 7e78 763f 3f75 7c3f
000002a0: 1892 783f 3e7c 773f 0145 7f3f caff 7e3f
000002b0: 51e9 7c3f 7d74 7d3f 1059 7f3f b95a 7d3f
000002c0: b456 7d3f 5dd6 7d3f 675e 793f 4c85 773f
000002d0: d7f0 7c3f df1a 7b3f 3aaa 7b3f 6c48 7b3f
000002e0: 52d1 7d3f 9f20 7f3f a5aa 7f3f 512c 7f3f
000002f0: 76af 7c3f 2bc9 7e3f 305d 783f 48ee 803f
00000300: 6a36 803f c19b 7d3f fce6 7a3f 769e 7f3f
00000310: 42e2 783f 35a1 7b3f c239 7d3f e898 7d3f
