electricity_problem/saved_models/model_pnet0.4.pt (torch, 317640 bytes, 7 tensors)

lin.bias f4 [24]
00000000: 1543 c73f 11cd bc3f ef44 b43f 974c b03f
00000010: 926c af3f 4ff1 b03f 525b b83f 2031 c43f
00000020: 2c8f cd3f ffbf d43f a108 dd3f 5b63 e23f
00000030: 7331 e73f d7f9 e83f e956 eb3f 13d7 eb3f
00000040: 636b eb3f b625 ed3f 9f2d f03f 3845 ef3f
00000050: 17c4 eb3f fc5c ea3f fbc4 e33f ae67 d53f
1.5567347 1.4750081 1.4083537 1.3773373 1.3705008 1.3823642 1.4402869 1.5327492
1.6059318 1.6621093 1.7268258 1.7686571 1.8061966 1.8201245 1.8385898 1.842501
1.8392147 1.8527133 1.8763922 1.8692999 1.8419217 1.8309627 1.7794489 1.6672266

net.0.weight f4 [200, 149]
00000000: 67b0 fb3c 0e53 493d 1593 aa3d ab5b b3ba
00000010: e05d d03a e026 9f3d 2c62 9a3d 0545 a93c
00000020: 9565 29bc df52 0abd e7c0 9abd 5d2a 253c
00000030: 57e5 5cbd 5e60 70bd d2f9 713c e0de a0bd
00000040: f38e 503d 058d fcbc debd 263d 8ff0 453b
00000050: 4346 eabc e5a1 203d 9f16 673d 3b42 a73d
00000060: 07fd 77bc 61a8 0b3a 2a69 ae3d 111f 1fbd
00000070: 3b90 183d 11a6 9cbb 95bc 04bd 338b 02bb
00000080: 58e4 223d fbf9 d33c 6534 38bd e9e9 3dbd
00000090: 4ddb 4c3d a683 ba3c d00e 2b3d 451a ba3c
000000a0: 3c2c 82bd a829 8d3d 22b6 3e3c 74f1 e0bc
000000b0: 8cee 2e3d 3283 a83c a630 94bd 7688 18bc
000000c0: f33e 2cbd f65b 62bd b3c1 843d 01b8 74bd
000000d0: 49e1 76bd 0177 52bd 0fbf 17bd 9230 23bd
000000e0: 1401 e0bc 757a 733d fb49 6ebd cba5 8f3c
000000f0: 33e8 62bd 5e26 f7bc ab2d 10bd 222b a13d
00000100: a7e9 13bd ddf2 9d3d a1b0 0e3d 7cdb 04bc
00000110: 0c9b 973d dcf8 513d 7cb5 5a3d 150b c6bc
00000120: 8113 fe3c 1d03 55bd fbe6 8a3d dd77 2b3d
00000130: a1d7 62bd 7498 8fbd a3e9 323d 87e0 53bd
00000140: 149a 243d 551e 5cbd 0cd7 4d3d 8036 2dbd
00000150: 660d 10bd 87fa 64bd eea2 763d 4a08 9dbd
00000160: c0f9 34bd 4073 ebbc 76dc a8bc 8b5f 43bd
00000170: 34e6 093d 76a4 823d dc3c 933c 7d14 cb3c
00000180: 8a98 ebbb 3908 c13b c97b 803d 6fbc 893d
00000190: 3f69 9cbd 6a6a c63b acef 643d 398c e33c
000001a0: 1ce2 993d fe8a 3bbb 85e5 f0bb cf5c 57bd
000001b0: 3615 19bd c7a5 543d 57fc 713d cae0 73bd
000001c0: b1dd 11bd 16ee 83bd a85e 503b 9460 63bb
000001d0: 31b4 d4bc f560 713d 0561 5abd c892 63bd
000001e0: f790 89bd e3c8 8bbd 9534 ab3d 2717 41bc
000001f0: 4e0a 15bd 49b5 67bd 404a a03d d9bf 0d3d
00000200: f737 1d3c 7b40 273d d7f5 e9bc 35b7 6f3c
00000210: f27d 3b3c 20f5 83bc 5d22 23bd 9a46 8fbd
00000220: 2038 223c b838 a73d adeb 45bd 41b5 ce3c
00000230: 6241 82bd 1501 bbbc ce9e 083d 7314 a33c
00000240: 9da2 82bd 404b 0e3d 8839 bd3b c9c7 a3bb
00000250: 3cb7 ae3d 4a72 4f3d 84fd 39bd f94f 8a3d
00000260: 8969 5abd 89fe 583d f8e7 61bd 94a1 41bd
00000270: 01c0 163d b63c f4ba d727 573c 1a73 80bb
00000280: 4122 063d f312 8abd 8f7c 5f3b 405e c4bc
00000290: c397 54bb 9f95 86bd f71e 0fbd 7515 a7bc
000002a0: 81f6 403d 5b4e c2bc 0e0e cabc 2421 933d
000002b0: 3228 f2bc 3845 483d 60b3 6fbd e890 4e3d
000002c0: 98b9 68bc 26cc 7ebc 3c43 703c ce95 4abd
000002d0: bebd 083d e304 4cbd 0a12 c13c b319 833b
000002e0: e739 dfbc 6150 9abd d7ef 893d b448 773b
000002f0: 71c1 adbc 96cd 81bd fe4e 323d 4d7f 893d
00000300: 4de1 d23b 472f 1a3d 5251 133d dfc7 fdbc
00000310: e043 a93c 2522 833d f6b0 863b 0150 463d
00000320: d30b 1b3d 8108 8abd 49cb 1f3a a052 0cbd
00000330: f451 0b3d b898 bc3c ac3e 033c 621e 833b
00000340: d09c 9ebd 6a5b 933d 200d 253d a65e 883d
00000350: 6df9 e1bc 4c50 a43d 01da 023d 827e 3abc
00000360: 6de1 0cbd d78e 02bd 490e 3abd c56e 74bd
00000370: 1eb7 b8bc b85d b23b 3e42 a8bd 5505 893c
00000380: 1e97 c03c 78be 4dbc c52d a93c e935 2b3d
00000390: bb92 8d3b 4bc1 a2bd 1e06 e63b a268 ab3c
000003a0: cadb 8a3d 0728 423d 9d52 c5bc 516a 123d
000003b0: 7517 b63b 54af 1b3c 147e 5dbd 7989 983c
000003c0: 0a5c 4d3d 56dd 68bd aea7 6b3d 75fb 6fbd
000003d0: f2eb 2a3b 6321 163d e41a 8a3d bfee 0e3d
000003e0: 3ee3 4e3d ab78 083d 0ce5 1e3d 2a3b 553d
000003f0: 1636 c13c 67d8 a73d 2774 2b3d 709f 68bd
0.030723764 0.049151473 0.08328835 -0.0013683935 0.0015897118 0.07771087 0.07538256 0.020662794
-0.01033916 -0.03377044 -0.075563245 0.010080901 -0.053929653 -0.058685653 0.014769034 -0.0785501
0.050917577 -0.030828962 0.040708415 0.0030203199 -0.028597957 0.039216895 0.056418058 0.08166929
-0.01513601 0.00053275196 0.08516152 -0.038847987 0.037246924 -0.004780539 -0.03240641 -0.0019919395
0.039768547 0.025876036 -0.044971842 -0.046365652 0.05001383 0.022767853 0.041762173 0.022717604
-0.06356093 0.06892711 0.0116401035 -0.027458884 0.042707965 0.020570371 -0.072358415 -0.009309879
-0.04205222 -0.055263482 0.06482258 -0.059745792 -0.060273442 -0.051383022 -0.037047442 -0.039841242
-0.027344264 0.059442956 -0.058176022 0.017535111 -0.055397224 -0.030169662 -0.035199802 0.07869555
-0.0361115 0.07712338 0.034836415 -0.00810897 0.0740262 0.05126272 0.053395733 -0.024175206
0.03101516 -0.052004922 0.06782337 0.041862357 -0.05538142 -0.070115 0.043679845 -0.051727798
0.040186003 -0.053739864 0.050253913 -0.042288303 -0.035169028 -0.055902984 0.060213976 -0.07667597
-0.044183493 -0.028741479 -0.020612936 -0.04769854 0.033666804 0.06379025 0.017973356 0.024790043
-0.007189815 0.005890873 0.0627361 0.06725394 -0.076372616 0.006055166 0.05589263 0.027776824
0.0751383 -0.0028616781 -0.0073515796 -0.052578744 -0.037373744 0.05191591 0.05907854 -0.059540547
-0.035611812 -0.06441896 0.00317947 -0.0034695016 -0.025964828 0.058930356 -0.05331518 -0.055559903
-0.06717103 -0.068254255 0.083596386 -0.011785305 -0.03638678 -0.05656937 0.07826662 0.03460679
0.009595863 0.040832978 -0.028559608 0.014631082 0.011443602 -0.016108096 -0.039827693 -0.06995888
0.009901077 0.08165115 -0.04832046 0.025232913 -0.06360127 -0.022827664 0.033354573 0.019907212
-0.06378672 0.034739733 0.0057746805 -0.0049981815 0.08531043 0.050646104 -0.045407787 0.06753535
-0.053323302 0.05297712 -0.055152863 -0.047273234 0.036804203 -0.0018633816 0.013132057 -0.003919971
0.03274751 -0.067418955 0.0034101342 -0.023970723 -0.003243909 -0.06571507 -0.03494164 -0.020395974
0.047110084 -0.023719003 -0.024664905 0.071840554 -0.029560182 0.048894137 -0.058520675 0.050431162
-0.014204405 -0.0155516025 0.014664467 -0.04945927 0.033384077 -0.049809348 0.023568172 0.0040008663
-0.02724929 -0.07534862 0.06735199 0.0037732543 -0.021210404 -0.063380405 0.043532364 0.06713734
0.0064355494 0.037642743 0.035966225 -0.030979095 0.020662248 0.06402997 0.004110451 0.04841614
0.037853073 -0.06739903 0.00060956605 -0.034258485 0.034013703 0.02302204 0.008010548 0.0040014246
-0.07744753 0.0719517 0.04029572 0.06658678 -0.027584756 0.08023128 0.031946186 -0.011382701
-0.03439467 -0.031874504 -0.04542378 -0.05967595 -0.022548255 0.005443301 -0.0821576 0.016726175
0.023509558 -0.012557618 0.020651707 0.04179946 0.00432047 -0.07947024 0.007019772 0.020923916
0.06780203 0.047401454 -0.024087245 0.035745922 0.0055569955 0.009502251 -0.054075316 0.01862024
0.050136603 -0.056851707 0.05753296 -0.058589417 0.0026080576 0.036652934 0.0674341 0.034895655
0.050509684 0.033318203 0.038792655 0.052058376 0.02358536 0.08195572 0.04185882 -0.056792676

net.0.bias f4 [200]
00000000: c2c7 203d 1da2 493d 1b7b 7ebc ec3e 45bd
00000010: 42fb 423d b9a1 9abd 392d 883c a1e2 343c
00000020: 3a2f 9dbb 338a 183a 3cd3 d8bb 3ec2 60bd
00000030: 1d1b 203d 84fa 9cbd c52a 8dbd aee7 aebb
00000040: c106 8cbd 952c 00bd 63ab 453d a9c2 583d
00000050: c1fc 72bd a807 fdbc 71d5 8abd 4d41 5b3d
00000060: 785f a6bc 66c7 7e3d 5870 85bd 3bb1 8bbd
00000070: 891e a93d eff9 82bd b92d ea3b 3240 503d
00000080: 6a9d 2abd 6bb2 0abd dbce bc3c 45d6 9bbd
00000090: 76d1 053d 9285 61bd 8b35 25bd 16b2 573d
000000a0: b7b9 563d 4c52 86bd 617c d6bc a54d 9abd
000000b0: f41c 983c f5a9 0d3d 994a 093d 2550 8d3d
000000c0: 88c5 f63c c9cb febb 2230 a8bd 855d 78bd
000000d0: befa 01bd 383e 933d f174 29bd 533a fe3c
000000e0: 2d79 193d b931 e8bc 97dd 9a3d 2827 853d
000000f0: a14a 5e3d 8bcf 53bd 5ab9 2b3d c0cb 9e3c
00000100: 1a95 e8bb 2ae4 59bc 2921 efbc bcf8 cd3c
00000110: bf6f 8cbd 9a1a 5cbd edfc 29bc be20 8e3b
00000120: 6a6e 333d 68c4 02bd 89b8 98bd 57e1 9fbd
00000130: d5c8 a8bc 7d2a 353d 529c 473d e86c 6abd
00000140: f019 89bd c0f8 8d3d c343 5fbc c5e3 02bd
00000150: a768 563d 85e4 7b3d 8b7f ac3d 370e 9dbd
00000160: 9441 ec3c 38a8 c0bc fc4f 4d3d ee93 8d3b
00000170: a838 9bbc 71ba 943d e3e6 2abd 63be 113d
00000180: a851 af3b 6e69 6cbd f456 9cbd 5dd7 aabc
00000190: b092 623b eb69 2dbd 7e08 9b3d 6b75 74bd
000001a0: ce58 e4bb 32b4 a53c 4d99 843c eda3 a2bb
000001b0: e414 0f3d cec7 0b3d f188 2c3c 82e4 0f3c
000001c0: 6b55 30bd 68d7 0dbb 261b 053d 8a9e 14bd
000001d0: 1500 273d 6ee0 6d3c db4b 08bd afff c13a
000001e0: ad55 4fbd 8e63 97bb df63 75bd b73e 50bd
000001f0: 214e 813c 9d60 403d 2f51 eeba c6bc af3c
00000200: 130e 72bd 8abf 1d3b ffd7 8c3d eeae 49bd
00000210: 5c3c 1cbd 5298 a6bd 260a 7fbd c2dc 30bd
00000220: a0f0 563b 5f5c acbd 2174 84bc ed7d 55bd
00000230: 0f11 16bd 2647 a4bd 713d 523d 9dc5 2dbd
00000240: accf 603d 49b0 1c3d 22d5 3a3d 4d58 8a3c
00000250: 1a95 883b c05f 813d e3a8 61bd 3d34 95bd
00000260: 2051 1ebd 9a37 7c3c c458 16bc 6611 06bc
00000270: c920 b63b 7abf 23bd 67df 38bd a0be 8cbd
00000280: 35cc 333d 7664 47bd c4fd 94bd d160 ea3c
00000290: 9962 89bd b388 863c 6c38 183c 75fa 3c3c
000002a0: 249f ba3c a687 e2bc 60cb 553d c7f4 18bd
000002b0: 84a3 49bd 78f9 15bb b199 273c 0a52 033d
000002c0: 55ca cdbc 1a7e 9b3d ddc5 8d3d 343c 79bc
000002d0: a03c 3ebd 3981 9c3d faab e8bb 1644 b93c
000002e0: 37af 9fbd 04da 853d 86f9 15bd a259 e1bc
000002f0: 1622 93bd f780 863d 5f6a 27bd 5a24 b93c
00000300: 98a9 0b3c 538b 863d 368a a7bd aba5 9b3d
00000310: 2286 17bd 3edb 88bd d277 21bc 04e8 01bd
0.039253004 0.04922687 -0.01553228 -0.04815571 0.0476029 -0.075503774 0.016623126 0.011040361
-0.0047968896 0.0005818933 -0.006616978 -0.054872744 0.039088357 -0.076649696 -0.06892923 -0.005337677
-0.06837226 -0.031292517 0.04825915 0.052920017 -0.059323076 -0.03088744 -0.06778992 0.053529073
-0.020309195 0.06220188 -0.065155685 -0.068209134 0.08257777 -0.06395327 0.007146564 0.05084247
-0.041654028 -0.03386156 0.023047855 -0.07609228 0.03267046 -0.055059023 -0.040334266 0.05266007
0.052423205 -0.06558666 -0.026182355 -0.07534341 0.018568493 0.03458591 0.033518407 0.06900052
0.030123487 -0.007775758 -0.082123056 -0.060636062 -0.031733267 0.07189602 -0.04137129 0.03103367
0.037469078 -0.028344022 0.07561796 0.06501609 0.05427039 -0.0517116 0.041924812 0.019384265
-0.0070978524 -0.013299027 -0.029190617 0.02514302 -0.068572514 -0.053736307 -0.010375244 0.0043373993
0.04380647 -0.03192559 -0.07457072 -0.07806652 -0.020603577 0.044229973 0.048733063 -0.057232767
-0.066944 0.06932211 -0.0136269955 -0.0319555 0.052345898 0.06149723 0.084227644 -0.07668727
0.028839864 -0.023517713 0.050125107 0.004320613 -0.018947914 0.072621234 -0.041724097 0.035581958
0.0053503104 -0.057717733 -0.076337725 -0.020854646 0.0034572296 -0.04233734 0.07569979 -0.05968229
-0.006968594 0.020227525 0.01618638 -0.004963389 0.034932032 0.034126095 0.010530696 0.008782508
-0.04305021 -0.0021643285 0.032496594 -0.036284007 0.040771563 0.01451884 -0.033275466 0.0014800931
-0.050618816 -0.004620022 -0.059909698 -0.05084106 0.015784325 0.046967138 -0.0018182154 0.021452319
-0.059095453 0.0024070465 0.068771355 -0.04923909 -0.0381435 -0.081345215 -0.062265538 -0.04317928
0.0032797232 -0.08416056 -0.016168656 -0.052122045 -0.036637362 -0.08021383 0.051328126 -0.042424787
0.05488555 0.038254056 0.045613416 0.016887808 0.004168165 0.06317091 -0.055092704 -0.07285354
-0.038651586 0.015394116 -0.009176437 -0.008182859 0.0055581075 -0.03997753 -0.045134928 -0.06872296
0.04389592 -0.04867979 -0.072749645 0.028610619 -0.06708259 0.016422605 0.009290796 0.011534323
0.022780962 -0.027652573 0.052195907 -0.037342813 -0.049228206 -0.002288429 0.010229514 0.03206066
-0.025120893 0.07592411 0.06922505 -0.015212107 -0.046444535 0.07641835 -0.0071005793 0.022615474
-0.077970915 0.06535724 -0.036614917 -0.02750856 -0.07184236 0.06567567 -0.040872928 0.022600342
0.008524321 0.06569543 -0.081806585 0.07599958 -0.036993153 -0.06682442 -0.009855228 -0.031715408

net.2.weight f4 [200, 200]
00000000: 5e27 c63c 5714 893d 7772 9fbc 05d9 9d3c
00000010: d979 463d 95cc c5bc 76c7 f8bc cbf6 8a3d
00000020: e4d1 923c 00d5 0b3d 1ea3 82bc 656b 013d
00000030: e34c 3bbb 6bb5 4bbd cb61 b73c 5f75 21bd
00000040: c3b5 27bd a36d 41bd a71b 36bd 10ef 983c
00000050: 9681 8cbc 548b 873c 7848 ec3b a49b 6cbb
00000060: 0b52 30bc f188 b3bc 64f8 1dbd 39d9 8b3d
00000070: 2fc0 49bc 9562 52bd 85f2 a93c f0c7 04bd
00000080: 0f9e 49bd 5fd2 5dbd eb79 d6bc e460 ed3c
00000090: d04e 203d 0834 52bd 5b38 f13c ef65 03bb
000000a0: db6c 613d 28d8 603d 281e 0cbd ae82 903d
000000b0: 8516 60bc f099 f93c 0a18 843d 9318 813c
000000c0: e448 79bd 35d2 d7bc 5c77 dc3c 6f37 4bbc
000000d0: 99d8 dbbc 5b30 1b3d 3628 84bd c3c0 443c
000000e0: cc6c 5bbd 12a3 24bd ca9a 503d b561 63bc
000000f0: d699 603d 0460 7abc e5b2 073d e420 da3b
00000100: 1e8d 783d 22f8 3d3c a43c 4a3d 8b6f 803c
00000110: 21d1 68bd 6472 733d ff1f 853d c593 2ebc
00000120: 8ce5 953c 4ff4 3e3d 5193 cabb f1cc 45bd
00000130: 944a 6bbd 4cb7 533d 032e e6ba 4775 7dbd
00000140: 8db2 31bb 09e8 18bd c367 30bd 8609 38bc
00000150: b944 81bd 1ed8 ee3c da61 02bd a87c 2a3c
00000160: 048c 783d c0a3 12bd 0da7 993c 2b45 03bd
00000170: 3ae2 203d c09d bdbc 3705 00bd 475d 743d
00000180: e43b 943c 1050 9c3d 431c 0c3d dca1 82bd
00000190: d295 833d f66c 51bd 5657 453c c073 453b
000001a0: 830a 283d 1eec eabb 7f21 203d 757d 90bc
000001b0: 7d36 bd3c 1e5e 3c3b 096a 983d 82b1 823d
000001c0: e8b0 6e3d 020b 75bd ab79 0c3d 13d4 60bb
000001d0: fbf7 4a3d 2461 82bd bf7f 703d 7399 903c
000001e0: 48f8 613d b5d2 1cbd ebb2 75bc c4b6 1d3c
000001f0: e8b8 13bd 7361 1d3c a8ef 28bc 3154 9a3d
00000200: 6c28 97bd 7833 4bbd 3272 7f3d 8f12 05bd
00000210: ab3c 70bd 9be1 0f3c c3c6 6e3d b612 8ebd
00000220: e84d c03c 1769 253d 5a68 3fbd e766 573b
00000230: 2643 1bbd 0b02 15bc 2beb dbbc 8741 8dbd
00000240: a53c 833d 2ee8 183d 14ad 8cbd 1e54 5e3a
00000250: 6950 283c 5d65 2d3d 286d ab3c ea85 57bd
00000260: 9bb7 91bc a27f cebc 91ef 2cbd 40d8 0cbd
00000270: b710 82bd e4c1 ef3c a1e3 273d ebe3 3dbd
00000280: 6dbc 103c 5ee9 783c 4267 083d 2fb6 c03c
00000290: f6cc ccbc 8757 80bc f672 d23c 13a0 4abc
000002a0: 3fe7 30bd eac6 3fbd c475 08bd c6de c3bc
000002b0: 6fa2 0b3d c36f 103c fc81 2abd d5b4 1dbd
000002c0: fe4f c83c cc19 d6bc 0aad 0a3d 2ac3 9cbb
000002d0: 2656 17bd dd83 2fbd b201 62bd a932 35bc
000002e0: 744a 863d 7f0a 7abb 30a1 733d 0ec2 bcbc
000002f0: ab11 453d 3842 5ebd b71a 873c 2d45 4abd
00000300: e8d5 793d b22f 03bd f193 2a3d 91e6 83bc
00000310: 4685 af3c 98d8 43bd 335b 5f3d e2b3 243b
00000320: 6db4 eebc ed94 473d 3564 d9ba 851d 313c
00000330: a6ad 50bc feb5 02bd e892 46bd a6c9 bbbb
00000340: abe5 41bd 81eb bdbc 5579 0dbc e714 4ebc
00000350: 0e8a 52bc e481 8c3c 543a ff3c e190 5a3c
00000360: 5ce0 143d 50eb 25bd a95d d23c 3f7c 783d
00000370: 28aa 873d ddfe eebc aaf2 513d 0d06 903c
00000380: adbe 163d 63d1 8cbc be85 3c3d d859 c2bc
00000390: 5e50 6ebd 6239 36bd 4c51 80bc 6f8c 0abd
000003a0: 2174 48bd b343 cc3c 7269 7b3d 9e66 1d3d
000003b0: 065e 6a3d c9c6 a43c 5764 01bd fd99 963d
000003c0: c0a3 fcbb 0176 48bd d629 573d 6140 cf3c
000003d0: 9a0c 163c e6be 62bc 84be 7ebd 0013 a8bc
000003e0: eb3a a83c 7ee0 e93b 3079 2f3d a014 46bd
000003f0: b5e6 893d ba56 5d3d f122 813d a1ee a63c
0.024188694 0.06693333 -0.01946376 0.019268522 0.048456047 -0.024145404 -0.030368548 0.06785353
0.01792235 0.03413868 -0.015946921 0.03159656 -0.0028579764 -0.04973356 0.022385499 -0.039418574
-0.040944826 -0.0472237 -0.044459965 0.018668681 -0.017151635 0.016545929 0.0072107874 -0.0036103511
-0.010761748 -0.021915885 -0.038566962 0.06828541 -0.012313887 -0.051363546 0.020745525 -0.032417238
-0.049223002 -0.054155704 -0.026181182 0.028976865 0.03913766 -0.051319152 0.029445818 -0.002004977
0.055035453 0.054893643 -0.034208447 0.07056175 -0.013677244 0.030468911 0.064498976 0.015758788
-0.06086053 -0.026345352 0.026912384 -0.012403353 -0.02683668 0.037887912 -0.06452982 0.012008849
-0.053570554 -0.04019458 0.05092887 -0.013878276 0.05483421 -0.015281681 0.03312959 0.006656753
0.060681455 0.011594804 0.049374238 0.015678188 -0.056840066 0.059435263 0.065002434 -0.010655348
0.018297933 0.04661971 -0.0061821123 -0.04829115 -0.05744417 0.051688477 -0.001756132 -0.061879423
-0.0027114481 -0.03733066 -0.043067705 -0.011232739 -0.06311936 0.029155787 -0.0318316 0.010405697
0.060680404 -0.035800695 0.018756414 -0.032048386 0.039278246 -0.02314651 -0.031254973 0.05965927
0.018094964 0.07632458 0.03420664 -0.063785285 0.0642506 -0.051129304 0.012044748 0.0030128807
0.04102565 -0.0071692606 0.039094444 -0.017637948 0.023097271 0.0028742622 0.074420996 0.06381513
0.05827418 -0.05982495 0.03429572 -0.0034306094 0.0495529 -0.06366184 0.05871558 0.017651295
0.05516842 -0.038286883 -0.014996271 0.009626094 -0.036065012 0.009605753 -0.010311045 0.075355895
-0.07380757 -0.04960963 0.062364765 -0.032488402 -0.058651607 0.008781816 0.058295023 -0.069371626
0.023474649 0.040383425 -0.046730377 0.003286773 -0.037905835 -0.009094725 -0.026845535 -0.06897264
0.064080514 0.0373308 -0.068689495 0.00084811624 0.0102730775 0.042332996 0.020926073 -0.052617945
-0.017787745 -0.025207344 -0.042220656 -0.03438592 -0.06350844 0.029267259 0.04098857 -0.046359938
0.008833987 0.015192358 0.0333016 0.023524372 -0.025000077 -0.015666736 0.025689583 -0.012367266
-0.043189283 -0.04682056 -0.033315435 -0.023909938 0.034090456 0.008815709 -0.04162787 -0.038502533
0.024452206 -0.026135348 0.03385643 -0.0047840076 -0.036947392 -0.042850364 -0.055177398 -0.011059442
0.065571696 -0.0038153229 0.059479892 -0.023041751 0.048112553 -0.05426237 0.01649223 -0.049382377
0.060995013 -0.032027908 0.041644994 -0.016101154 0.021425854 -0.04781398 0.054530334 0.0025131633
-0.029138768 0.04872601 -0.001658565 0.010810261 -0.0127367135 -0.031911843 -0.048479944 -0.0057308255
-0.04733817 -0.023183586 -0.008634885 -0.012578226 -0.012850298 0.01715178 0.031155743 0.013340206
0.03634678 -0.040507615 0.025679426 0.060665365 0.066242516 -0.029174263 0.051256813 0.01758101
0.036802936 -0.017189687 0.046025984 -0.023724481 -0.058182113 -0.04448832 -0.015663765 -0.033825334
-0.048938874 0.024934625 0.061379857 0.03842794 0.057218574 0.02011432 -0.031589832 0.0735359
-0.00770995 -0.048940662 0.052530132 0.025299253 0.009158278 -0.013839459 -0.06219341 -0.020516872
0.020535907 0.0071373573 0.042840183 -0.048359513 0.06733457 0.054037787 0.06305493 0.020377459

net.2.bias f4 [200]
00000000: 121d 8e3d c400 8abd 8696 58bd 4fe0 753d
00000010: 20c9 8b3d dc8d 483d 627a 9dbc 312d 82bd
00000020: 48ba 9c3b 39a6 00bd 92ac 9bbc 219e b3bc
00000030: 5696 0d3d 3d45 763d d9c5 52bd 0913 9bbb
00000040: b03a 85bc 4d51 e73c c396 31bd 3df4 0b3d
00000050: b71d 463d a35d a93b 8cd1 413d 0dc6 2bbd
00000060: a5bf 57bd fb39 963c a5cb 443d e7a8 8b3b
00000070: 30c0 4dbc a5c4 01bc dfe6 7dbd 6d78 463d
00000080: 5323 62bd 1f87 903c 9fd0 ff3c 5ecc 593d
00000090: e7e4 ddbb 5c4d 37bc b5dd b7bc 774a 52bc
000000a0: 2254 263d 077a 653c dd51 27bd 4d5f 77bd
000000b0: 235b 333b 920d 73bd 0f7d d3bc 1b8c 9dbc
000000c0: f01a 413d 4bfe 683d 6d10 1fbd f778 583d
000000d0: 57c1 54bd 6498 4f3d 1f64 00bd 6b08 37bd
000000e0: d02b 85bd ba45 2cbd fb98 833c bc9b 1cbd
000000f0: 944f 3abd 24a9 b1bc dd97 b93c 74a4 41bc
00000100: 6ae9 11bd fe40 77bd ee80 84bd b348 033d
00000110: f955 573c c85c 84bc 2b3d dbbc 2c45 8fbd
00000120: d898 c83c 39df 4fbd ca72 ccbc 3f95 d3bc
00000130: 6e97 7cbc a774 8abc e577 1f3d 1cf8 1b3d
00000140: 3e64 12bd 7a03 4bbd b94d ecbc e127 703d
00000150: a26b 8a3d 7a2a f4bc 7499 e43c 9824 053d
00000160: e0ae 37bd 5d33 44bd 97ed 433d 3e15 7e3d
00000170: 67b6 27bc 1083 8abd 1aec 723c eaf6 013d
00000180: 8ce7 163d 8075 863c 2ec0 313d 82b6 bebc
00000190: 5caa 573d 3e34 0d3a bfb2 8bbd 95cc c4ba
000001a0: 7632 023d e3a4 d9bb 7887 50bd 1066 583d
000001b0: 3d6a 393d a42b 0f3d 5123 2a3d 03e9 cf3c
000001c0: d23f 013d 215d 00bc 2765 4bbd 87ea 87bd
000001d0: 36dd b73c 3764 2b3d 6c55 5fbd db2c 133b
000001e0: c4bd 05bd f3f1 853c ab1f 2b3d 95a9 553d
000001f0: 8306 053c 1502 673d 0cb4 103b b430 c83b
00000200: 8e45 30bd 695f 883d 5a8b 89bd af39 03bd
00000210: 0719 173d 03db 913b c495 72bd 65bc 5bbd
00000220: 1910 04bd ab2d 43bd d097 80bd f0c9 7abd
00000230: 1746 22bd fcbb 59bd 7df5 bb3c bbf3 563d
00000240: 9bef c03c 0d9c a23b 453b 3dbd 0647 51bd
00000250: 4d50 24bd 478a 523d 0063 1d3d 23a0 92bc
00000260: f16c 763d f67f c73c 2c5e 7fbd 9956 c33c
00000270: 7cf0 823d 44d4 1fbd 023b 98bc cfa2 e43c
00000280: 76bb bcba b2ef 67bd b4aa 5bbd f6bc a3bb
00000290: f63a 1cbd d6b3 bc3b f9a0 5fbd 2248 84bb
000002a0: 9775 8bbd 6b6b e1bc c3d6 6abd 306b 51bc
000002b0: f3f7 d43c 42a7 0dbd 8d7a 4a3d 9486 ea3b
000002c0: f154 433d 2f7c 793d 9f59 9bbc 53ea 82bd
000002d0: eb7c 05bd 32e7 663d 1167 1dbb bc66 77bd
000002e0: adbd 39bd 8e16 0cbd dae0 94bb 2e19 4dbd
000002f0: e423 1f3d c776 573b 7e57 7ebd 7836 833d
00000300: caf6 953d e19d 2cbd dbc3 c13c 11c2 603a
00000310: 4cd8 75bd b17b 4fbd fc01 80bd 0847 2bbd
0.069391385 -0.06738427 -0.052877925 0.06002837 0.06825471 0.048963413 -0.019223396 -0.06356276
0.0047829486 -0.031408522 -0.019003186 -0.021925988 0.0345672 0.060124625 -0.051458213 -0.004732494
-0.016263336 0.02823701 -0.04335667 0.03416847 0.048368182 0.005168633 0.04731898 -0.041936923
-0.052673 0.018338194 0.048045773 0.004262078 -0.012558028 -0.007920419 -0.061987754 0.04845469
-0.05520947 0.017642556 0.031227408 0.053173415 -0.006771672 -0.0111878775 -0.022444585 -0.012835137
0.04060758 0.014006144 -0.040849555 -0.06039362 0.0027367554 -0.059339114 -0.025816469 -0.019231847
0.04714483 0.056883138 -0.038834024 0.052849736 -0.051942196 0.05068244 -0.031345483 -0.044685762
-0.06502497 -0.042058684 0.016064158 -0.038234457 -0.045486048 -0.021687098 0.022655422 -0.011818994
-0.03562299 -0.060364716 -0.06469904 0.032051753 0.013143056 -0.016157523 -0.026762566 -0.06995615
0.024486944 -0.05074999 -0.02495708 -0.025828002 -0.015416963 -0.016901327 0.0389327 0.038078412
-0.03574013 -0.049563862 -0.028845655 0.05863178 0.067588106 -0.02980541 0.027905203 0.0325056
-0.04484451 -0.047900546 0.047834005 0.062031977 -0.010236359 -0.067632794 0.014826799 0.031729616
0.036841914 0.01641345 0.043396167 -0.023280386 0.0526527 0.0005386508 -0.068212025 -0.0015014583
0.031786405 -0.0066419705 -0.050910443 0.05283171 0.045267332 0.03495373 0.041537587 0.025379663
0.031555004 -0.007834704 -0.049657013 -0.066365294 0.022444349 0.04184362 -0.054524824 0.0022457156
-0.032651678 0.016350722 0.041778248 0.05216368 0.008119228 0.05639847 0.0022079973 0.0061093215
-0.043035083 0.06658823 -0.06716032 -0.032037433 0.036889102 0.004451157 -0.05922486 -0.053646464
-0.032241914 -0.047650974 -0.06278956 -0.06122774 -0.039617624 -0.05315779 0.022944206 0.052478533
0.023551753 0.0049624504 -0.046199102 -0.051093124 -0.040115643 0.051401403 0.038424492 -0.017898625
0.06016249 0.024353009 -0.06234567 0.023845004 0.06393525 -0.03902079 -0.018582825 0.027909664
-0.001439913 -0.056625076 -0.053629592 -0.004996891 -0.038142167 0.005758743 -0.054596875 -0.004036919
-0.06809538 -0.027517041 -0.05733372 -0.012781903 0.025997138 -0.034583338 0.04943328 0.0071571562
0.04768843 0.060909446 -0.018963633 -0.0639235 -0.032589834 0.05637283 -0.0024017731 -0.06040071
-0.045346905 -0.034201197 -0.004543406 -0.05007284 0.038852587 0.0032877193 -0.062095158 0.064068735
0.07322462 -0.042142753 0.023652961 0.000857384 -0.06002073 -0.05065507 -0.062503785 -0.041815788

net.4.weight f4 [24, 200]
00000000: 9a92 c6bc f588 e6bc 7071 d73c ceef 66bc
00000010: 89ab 5abd 76cc c5bc 1475 543d e68e 2c3d
00000020: 050b 03bd 5f19 9b3c 0da3 1cbd 9273 f13b
00000030: 8339 6b3b 446f 44bd 6691 293d 7fe7 423c
00000040: 44ba fcbc 2a7a 3abd 2b2d 9e3b 3426 a93c
00000050: 719a ce3c 7da0 253c 1e58 c83c c52d 68bc
00000060: a157 79bd 3d50 d73c c592 28bd 0b16 42bd
00000070: 8461 5a3d 3fd0 0e3d de85 fa3c a5a3 5d3d
00000080: 17f1 7abd 8a6e b43c 184d 48bc e1bf 3a3c
00000090: 97b7 adbc 10b7 003d 9ad2 933d b420 60bd
000000a0: 8a81 aa3c a0ba 73bd 1044 7f3d 69cf f43c
000000b0: a043 d03c b3b4 4d3b 311d 27bd 599a 49bd
000000c0: b005 56bd 2a91 83bc b7e8 533d 5d70 78bd
000000d0: 76f4 2dbd e41c 3a3c 8c11 3a3c 59e3 a5bd
000000e0: b0ba e23c aa25 e9bb 1158 353d e8ce 58bd
000000f0: 439f 433d 2afd 5dbc a7ed 453d 7d9c 2c3c
00000100: 2725 923c bed9 93bc 8ee9 bdbc e689 a53a
00000110: eae1 613d b813 af3c 3d9a 01bc 843a 33bd
00000120: 539f 493d 4287 88bd 12b4 80bd 74a9 0ebd
00000130: 5a08 2d3d 5efc 773d 758a 163d 2351 773d
00000140: d1c6 8fbc ed05 20bd d22e d6bc d991 123d
00000150: edbb ebbb bd04 52bd 57e8 123c 05b2 3a3d
00000160: 7752 8fbd 2712 a7ba 0043 cf3c 2f66 3d3c
00000170: 812a bebc a886 6c3d 4e19 3ebd bd6c 953c
00000180: 6ab2 96bb 3b44 46bd 3538 e9bc f5bb 773d
00000190: 434d b1bb 27f1 173d d16c 2d3d 9308 553d
000001a0: e9d6 43bd 419c 4c3d 1544 31bc ed6a 2dbc
000001b0: c1c3 7dbd 964b 6abc bbb1 6a3c 343f 36bb
000001c0: 7cf1 60bc ea60 68bd 70a9 e73c ae4c 4f3c
000001d0: 67eb bebc 7bd2 123d 9337 2f3d c4c4 4b3d
000001e0: 7bc1 19bc 6b24 45bd 8207 62bb a245 eabc
000001f0: 6a04 e7bc 4271 493c 9638 47bd 387d 70bd
00000200: 14e5 3b3d d364 24bd 8a20 fcbc 8ad9 923a
00000210: 2966 c43c e76a f03c c7f4 bcbc d7e4 9b3c
00000220: 5e9c 81bd 4ec4 973c 9561 2abd 549e 91bc
00000230: 6c14 2b3c 7530 3c3d 8119 133d 193c 96bc
00000240: c70a 01bd 18ec b73c 441c 203d 9a11 10bd
00000250: f1af 633d bf1e 40bd fd39 1c3d 3670 9c3c
00000260: 8539 c53c 6a61 48bd 444f 923b 49c3 18bd
00000270: fd6e 0e3d 33d4 673d 2747 22bb b83a 3bbd
00000280: 052a 60bc 14a3 8a3d 92d7 22bd 8c35 15bd
00000290: 5671 2cbd 66f6 0f3d 4f02 3d3d 3908 4e3d
000002a0: 1701 0a3a 526c 7ebb 3681 7cbd 4bf3 04bd
000002b0: 92a1 ea3c 134c 55bd 2a37 8e3b dd8e 0dbd
000002c0: 504e 303d eb38 8b3d a0f4 46bd 6c3d 853c
000002d0: c9d0 823d 6434 5fbd 7e57 75bc 9bae 7fbc
000002e0: 92a6 52bb 4e9f 493d 8620 5c3d afb5 233d
000002f0: 2cc7 e2bc 1902 7f3c e638 2c3d bc7b c4bc
00000300: 1b8d a43d 5fe0 c8bc 1620 cd3b 7a4c a93a
00000310: 0d4f 713d c4dc 2b3d 38f2 85bd faa7 b6bb
00000320: 34bb 843d e56f 6dbd b743 913d 1995 7bbb
00000330: a4f1 643d a5f9 e03b 64c8 193d c71e 1d3c
00000340: b57f 6ebd cbab 4a3d 81e8 4dbc 4ead 5b3d
00000350: cc3d 7f3c 3f6b 783d 93ac 5cba 7b54 d3bc
00000360: 2023 783d f517 e4bc 27ec 3dbc de2f ee3c
00000370: 00ff 5b3b 0ebe 19bd 3fa7 bd3c 2241 38bc
00000380: e3aa 1b3c c388 40bd d667 3d3c dca6 3dbd
00000390: 90b4 31bd 58ba 81bb 7ee2 f6bc 5304 813d
000003a0: 5f3b 0d3d 7aa0 423c 7e68 8abc a9f4 38bc
000003b0: 8399 b0bc 87be 02bd f457 523d a258 ec3b
000003c0: fc73 e0bc d137 54bc 9b3a 4fbd 5fc9 2c3d
000003d0: 0fee 67bc 6129 9ebb eeb4 1dbd 04cb 7e3d
000003e0: b990 80bc a371 243d 0542 9ebd 679d 0bbd
000003f0: 0067 48bd c9b0 543d 3f2a 5fbd 614a 8dbd
-0.024239827 -0.028141478 0.026299208 -0.01409526 -0.053386245 -0.024145346 0.051869467 0.042128466
-0.03199293 0.018932996 -0.038241435 0.0073685134 0.0035892434 -0.047957674 0.04139843 0.011896013
-0.030850537 -0.04552666 0.004827162 0.0206481 0.025220128 0.010109064 0.02445608 -0.014171069
-0.060874585 0.026283378 -0.041155595 -0.047384303 0.053315654 0.034866568 0.030581411 0.05411114
-0.061265077 0.022025365 -0.012225412 0.011398287 -0.021205707 0.031424582 0.072179034 -0.054718688
0.020813722 -0.05950415 0.06232077 0.029884057 0.025422871 0.0031388223 -0.040799323 -0.049219463
-0.052251518 -0.01606043 0.051735606 -0.060654033 -0.042469464 0.011359427 0.011356723 -0.08100004
0.02767691 -0.0071150856 0.04427344 -0.052931696 0.047759306 -0.013549129 0.048322346 0.010535357
0.017839981 -0.018048164 -0.023182657 0.0012629598 0.05514709 0.021371707 -0.007910308 -0.043756977
0.04922421 -0.066664234 -0.06284346 -0.03482957 0.042244293 0.06054341 0.036753137 0.060380112
-0.017550858 -0.03906815 -0.026145373 0.035783622 -0.0071940334 -0.05127405 0.008966527 0.04557993
-0.06998151 -0.0012746499 0.025300503 0.011560007 -0.023213627 0.057745606 -0.04641085 0.018240327
-0.0045989053 -0.048404913 -0.028469184 0.060481984 -0.0054108216 0.037095215 0.042340104 0.05201013
-0.047812376 0.049953703 -0.010819455 -0.010584575 -0.061954264 -0.014300248 0.014324601 -0.0027808668
-0.013729449 -0.05673305 0.028279036 0.012652559 -0.023305608 0.03584526 0.04277761 0.049748197
-0.009384508 -0.048130434 -0.0034489338 -0.028597657 -0.028200347 0.012295069 -0.04863795 -0.058713168
0.045872763 -0.040135216 -0.030777235 0.0011203748 0.023974495 0.02934785 -0.023065938 0.019030018
-0.06328653 0.018526223 -0.041596968 -0.017775692 0.010441881 0.04594465 0.035912994 -0.018339204
-0.03150442 0.022451445 0.039089456 -0.035173036 0.055587713 -0.04690432 0.03814124 0.019096475
0.024075279 -0.048921026 0.0044650156 -0.037295613 0.034773815 0.056598853 -0.0024761648 -0.045710295
-0.013681893 0.06769386 -0.039756365 -0.03642802 -0.042100273 0.035147093 0.04614478 0.05030081
0.00052644446 -0.0038821888 -0.061646663 -0.032458585 0.028641496 -0.052074503 0.004340072 -0.034560073
0.043043435 0.067979656 -0.048573136 0.01626464 0.06387479 -0.054493323 -0.014974473 -0.015605594
-0.003214274 0.04922419 0.053741954 0.03996819 -0.027682863 0.015564465 0.04204645 -0.023984782
0.08034726 -0.024521051 0.0062599285 0.0012916469 0.05891328 0.041958585 -0.0654034 -0.0055742236
0.06481019 -0.05796804 0.07092994 -0.003838843 0.05589451 0.0068656974 0.037544623 0.009589857
-0.05822726 0.04948024 -0.01256764 0.053632073 0.015578698 0.060649153 -0.00084180495 -0.02579712
0.060580373 -0.027843455 -0.011591948 0.02907556 0.003356874 -0.037534766 0.023151038 -0.011245998
0.009501192 -0.047005426 0.011560401 -0.046301708 -0.04338509 -0.0039589815 -0.030137297 0.06299653
0.03448045 0.011879081 -0.016895529 -0.0112888 -0.021557575 -0.031919982 0.05135341 0.0072127143
-0.027399056 -0.012952761 -0.050593 0.04218423 -0.014155879 -0.00482671 -0.038502626 0.06220533
-0.01569401 0.040147435 -0.07727436 -0.034085657 -0.048926353 0.051926408 -0.05448365 -0.06898952

net.4.bias f4 [24]
00000000: 2d56 8a3c 13eb 85bc a5c5 f63c 0d31 bd3b
00000010: 679d 6f3c 2c5b e9bb 8fb4 6ebd 324c 813d
00000020: 9799 073d 5dc1 04bd 38e3 97bc f530 fdbb
00000030: 00c1 2cbd 501b 3c3d 8a98 94bc 722f fcbc
00000040: 4a78 4b3d 367a 153d df77 52bd b58c 31bd
00000050: 2b11 5dbd 271e 65bd 1a61 0b3c 1a33 603b
0.016886795 -0.016347444 0.030123541 0.0057736696 0.01462493 -0.0071214642 -0.058277663 0.06313361
0.03310546 -0.032410968 -0.018540964 -0.0077267834 -0.042176247 0.045924485 -0.018139143 -0.030784342
0.049675263 0.036493503 -0.05138385 -0.04334708 -0.05397145 -0.05593696 0.008507038 0.0034210146
