electricity_problem/saved_models/model_pnet0.4.pt (torch, 326692 bytes, 15 tensors)

lin.bias f4 [24]
00000000: 1151 c73f 9008 ba3f daa6 b33f e660 ad3f
00000010: c2e3 ab3f fa78 ac3f 0bf0 b53f a636 c03f
00000020: ebf7 cc3f 8542 d23f 1052 de3f d5ea e13f
00000030: 442a e83f 2722 e93f 20f6 ec3f b14a ec3f
00000040: cd35 ea3f cc13 ed3f e1ca ef3f 9cb5 f33f
00000050: df48 ea3f 91fa e93f d158 e43f 06bb d63f
1.5571615 1.4533863 1.4035294 1.3545196 1.3428881 1.3474419 1.421388 1.5016677
1.6013159 1.642655 1.7368793 1.764979 1.8137898 1.8213547 1.8512611 1.8460294
1.8297669 1.8521667 1.8733789 1.9039798 1.8303488 1.8279592 1.7839605 1.6775825

net.0.weight f4 [200, 149]
00000000: d2b2 6d3c a9a3 b83a 36df 47bd 9b8d 933c
00000010: a51d fcbc 3a0c a93c c456 c1bc 755d 07bc
00000020: 4450 473d e206 9c3d 63c0 9a3d dd61 7dbc
00000030: 4aa7 603d 92e3 8b3d 8c74 92bd 4a52 103d
00000040: f23a 2a3d 4214 94bd a8fb 9ebb 2fee d0bc
00000050: cdcd 13bd 4390 7bbd 35a4 4e3d c27f 443d
00000060: 04ad 11bd 1415 3e3d bf3a 94bb c6f7 80bd
00000070: beff 723d 7698 ebbc 5745 1dbc 80ae 7dbd
00000080: e724 b63c 4112 803d f6b6 9bbb 6999 42bd
00000090: fb1f 9dbc 4d2d 7abc 8020 88bc c94b f03c
000000a0: 1111 52bc 2f6a 153d ae46 edbc 5ff0 17bd
000000b0: a06a c336 4b33 803d 8981 273d 32cf 04bd
000000c0: c23d dbbc 2ff5 5abd 0c49 61bb a596 693d
000000d0: 35b8 46bc 1e83 9fbc 34d4 913d 68f5 d0bb
000000e0: 59ee a53c ad74 a2bb 471f e6bc 6320 a6bd
000000f0: e6c8 8b39 6e12 883c 22db 84bb 5e9c 9c3d
00000100: c4cc f83c d196 12bd 1060 d1bc d9df 6bbd
00000110: ed8e 4e3d f235 35bd 44bc 9abc 5497 883d
00000120: 97e8 81bd 3068 2f3d 6871 28ba 58d0 1bbd
00000130: 7c0f a13d 47c1 153d f3d6 50bd 775f 833d
00000140: 3370 0d3d c0fc 58bd 58b7 ab3d 23b0 5ebb
00000150: a5e9 0d3d 33a3 023b c7e0 22bd 5baf 68bd
00000160: ecd3 2e3d dc11 093d 526e 11bd 54e4 aabd
00000170: c438 5e3d e11e bcbc b415 d43c 2ed7 1cbd
00000180: c23c 80bd 2e32 a33d b802 a73d 6240 793c
00000190: a904 873d 569c 3bbd ea10 c83c 6270 09bc
000001a0: 321e 13bc 4384 843c 4bd3 8f3d b652 273d
000001b0: 24c9 80bd 0ef3 d63c 7f03 b3bc d7d6 873d
000001c0: 8605 863d d15a 99bd a422 5e3d 5e2c afbd
000001d0: 1671 b2bd 4981 cc3a 518b 0bbc c52f 883d
000001e0: 0573 703c afe2 3abb b371 dfbb d2e1 95bc
000001f0: 65b5 093d 0e6c 52bd 99e7 b3bc 2d35 7c3d
00000200: f4e1 bfbc 8c55 f7bc 6e36 bf3c 857e 82bd
00000210: 96d6 843d 468d 2a3c 0a64 b53c f660 1d3d
00000220: ba53 52bd 761c 66bc c291 aebd 5f67 94bc
00000230: d2d2 833d 55e1 913d b093 933c 39d5 14bd
00000240: 8a09 02bd 4f53 d0bc 2475 913d e1a7 3f3a
00000250: f71b 2abd 7c17 f7bc 4ccd 94bd 62b7 debb
00000260: 42dd 92bc 1939 0c3a 041c 70bd 8797 1ebd
00000270: 6c1f 723d e915 8f3d b8e5 4a3c 7d44 cc3d
00000280: f2ff 82bd 33f4 363d f1ee 3bbd fd39 883d
00000290: 7506 c63b cf36 2a3c 7bbb 273d 3075 b2bc
000002a0: cc79 9d3d beb8 183d 9ed4 3a3d 469e 0ebd
000002b0: 73a5 2f3d ff9e 6bbc fc3e c2bc 6251 213b
000002c0: 82d9 23bd 2535 ce3c d907 82bd e557 06bd
000002d0: b12d 4d3c 5987 5a3c 3013 5dbd ebcb 9a3c
000002e0: 30d5 4c3d f65b 943b 04c4 38bd 348e 7a3c
000002f0: b3db 5e3d 950f 81bd 3fe9 0abc 3a6c 21bd
00000300: 5b39 613d 9e3b 31bd 7946 873d 77e8 d1bc
00000310: 3dc4 8ebd efce 283c e5bc 813c 0ee5 4cbd
00000320: 11d7 1ebd 4327 c6bb 9f00 353d 2c7c 11bd
00000330: bae1 223c 191f 4bbd 753a 24bb 4b08 323d
00000340: 0f73 82bd 659f 443c 10b1 353d 8ef0 223d
00000350: decc 8a3c 095a efbc c5c3 ebbc a47a f93c
00000360: 4362 7c3c af58 f03c cfba 89bc d5b7 00bd
00000370: 110a a43d 1182 2cbc 6a29 86bd 9a38 92bd
00000380: c7ff 813d b94d 183c a1e1 653d 7164 573c
00000390: 4560 5a3c f473 b73c dc38 4b3d 9312 62bd
000003a0: a198 96bb 2c6f 75bd a9ac 71bd 4576 bc3c
000003b0: 14de 1cbd 7785 40bd 747b a8bc cd5f 943d
000003c0: 20a1 173d 67f9 9b3b 99b0 5fbd bc07 753d
000003d0: 6897 f6bc 5bd5 12ba bac3 b33d cfe5 e03c
000003e0: e1e5 3c39 ec29 b0bc 3bc1 4fbc 2eed 933d
000003f0: 3692 6dbc 3a2f 32bd e264 5abd d1b9 81bd
0.014507966 0.001408686 -0.048796855 0.018011859 -0.030775854 0.020635713 -0.023600943 -0.008262028
0.04866053 0.076185 0.07556226 -0.015465227 0.05484704 0.06830515 -0.07151136 0.035234727
0.04156012 -0.07230426 -0.004851777 -0.0255042 -0.03608494 -0.061416876 0.05044957 0.0479734
-0.03556539 0.04640682 -0.0045236046 -0.06297259 0.059325926 -0.028759222 -0.009599051 -0.061933994
0.022234393 0.06253482 -0.0047520353 -0.047509585 -0.019180289 -0.01526959 -0.01661706 0.029333012
-0.012821452 0.036478218 -0.028964367 -0.03709447 5.8238656e-06 0.06259783 0.04089502 -0.03242416
-0.026762847 -0.05345648 -0.0034375815 0.05702843 -0.012128879 -0.019471701 0.07120553 -0.006376911
0.020255255 -0.0049577565 -0.028091086 -0.08111646 0.00026661827 0.01661035 -0.004054443 0.07647012
0.030371077 -0.03578836 -0.025558501 -0.057586525 0.050429273 -0.0442409 -0.0188886 0.066694885
-0.06343191 0.04282397 -0.000642559 -0.03804049 0.078642815 0.036561277 -0.05098624 0.06414693
0.03453083 -0.052975416 0.083845794 -0.0033979497 0.03464665 0.00199337 -0.039765146 -0.056807857
0.042682573 0.033464298 -0.0355056 -0.083443314 0.054253355 -0.022963943 0.025889255 -0.03829115
-0.06261589 0.079685554 0.081548154 0.015213104 0.06592686 -0.04580339 0.024422128 -0.008388611
-0.008979367 0.016176349 0.07022723 0.040850364 -0.062883645 0.026238944 -0.021852253 0.06632774
0.06544022 -0.07488025 0.054232255 -0.08553384 -0.08712976 0.0015602495 -0.008517102 0.06649736
0.01467586 -0.0028516462 -0.006818974 -0.018296156 0.033620257 -0.05137258 -0.02196102 0.06157415
-0.023423173 -0.03019216 0.023341384 -0.06371788 0.064862415 0.010409659 0.022142429 0.038422547
-0.05134938 -0.014044872 -0.08523895 -0.018115697 0.06436695 0.07123057 0.018014759 -0.036336157
-0.03174738 -0.02543035 0.07102421 0.00073110877 -0.041530576 -0.030162565 -0.0726572 -0.0067967633
-0.01792777 0.00053490844 -0.058620468 -0.038718726 0.059111997 0.06986601 0.012383871 0.099740006
-0.06396474 0.04466648 -0.04588217 0.066516854 0.00604325 0.010389044 0.04095028 -0.021784395
0.076892465 0.03728556 0.045612924 -0.03481891 0.042882394 -0.014381169 -0.023711674 0.0024615158
-0.040002353 0.025171826 -0.06349153 -0.032798667 0.012523101 0.013337933 -0.053973377 0.018896064
0.050008 0.004527564 -0.04510881 0.015292693 0.05440874 -0.063018 -0.008478462 -0.039409854
0.05498634 -0.043269746 0.066052385 -0.025623543 -0.06971023 0.010303243 0.015837142 -0.05002313
-0.038779322 -0.006047161 0.044190045 -0.03551881 0.009941513 -0.049590204 -0.0025059257 0.04346494
-0.06369602 0.012000893 0.044358313 0.039780192 0.016943391 -0.029217737 -0.028779874 0.030453987
0.015404287 0.029339163 -0.01681271 -0.031425316 0.080097325 -0.010529057 -0.06550868 -0.07139702
0.06347614 0.009295874 0.05612338 0.013146506 0.0133286165 0.022394158 0.049614772 -0.055193495
-0.0045958315 -0.059920475 -0.059002552 0.023005614 -0.038297728 -0.047002282 -0.02056668 0.07244835
0.037018895 0.0047599557 -0.054611776 0.05982183 -0.030101493 -0.00056012505 0.08777566 0.027453331
0.00018014714 -0.021504365 -0.012680347 0.07222973 -0.014500191 -0.04350207 -0.053318866 -0.0633427

net.0.bias f4 [200]
00000000: 3299 833d 330c 77bd 8097 953c 4958 e3bb
00000010: f586 0ebc 6c37 803d cd33 833d 4910 92bd
00000020: 65dd 13bd 850e 3cbc f038 40b9 775f 69bd
00000030: 412b 883b 0780 aabc d462 913d 42f1 7c3d
00000040: 4153 6a3d 7be6 c0bc 41ea 15bd 76c0 85bc
00000050: 3c5f e5ba b7f4 af3c 2b31 bbbc 4a04 91bd
00000060: 7390 abbc b7a5 6b3d fe29 a5bd ec1b 94bb
00000070: a0c6 f33c 20af 903c 77ff 623d 3ec6 a6bd
00000080: 5996 8a3d 04f7 21bd 2ddd 83bd 194f 423c
00000090: 49de 31bd 8a93 06bd d196 bcbc e939 0bbc
000000a0: febe 50bd 6137 30bd f6a7 89bd 6e36 913c
000000b0: 32a3 973b 255c a2bb bd17 873c e8e6 b23c
000000c0: f87c 2dbd faa0 3e3c d5ac 04bc f568 b23a
000000d0: 6a53 62bd 8198 36bc c1f5 093b e014 37bd
000000e0: e6f9 86bd 517b 293d 42a0 8cbd a890 283d
000000f0: d6ff 933d 3df7 7abd d5eb 193d 48fc 1d3d
00000100: 4522 6dbd 4b3b 99bd 0dad 4abd 25f9 4e3d
00000110: 601f 8f3d db8b 69bc 9d98 68bd 5ea1 d63c
00000120: 4105 503d 6cbe c4bc 0ab8 11bd 103a 97bd
00000130: 4011 cebc 75d4 10bd c1af a9bc 1693 203d
00000140: d737 ffbb 6f3a ca3c e319 98bc e9f3 f93c
00000150: 9b6e cdbc 8228 21bc 0c0e 23bd f78e c6bc
00000160: b1e8 c8bc 71ee 93bd 4dca 643b 8349 a13b
00000170: b035 9dbd 4060 b0bc 4ef7 423c 9fed 32bd
00000180: f5db 7e3d 3a00 173d 23aa 6f3d 6262 a83d
00000190: 8bfc 503d 17be 6bbd f858 203c b308 a33d
000001a0: 55bd 4a3d 8e9a a23d 71f1 aebb 14b8 e73c
000001b0: 618c 213d e7b9 b93b f45e 85bc 9427 533d
000001c0: b253 8bbd 911c 85bd 80ed 05bd 00b9 513d
000001d0: 8555 983d c642 31bd a579 303d 92c2 693c
000001e0: c958 873b a9fe 87bd aacb 863d 57d7 23bd
000001f0: 7583 30bd 84c6 9dbc fffd bdbb 143c f4bc
00000200: 8068 a53c a603 94bd e28d 4cbd d6a9 473c
00000210: d5d9 55bc 07dc 663d a1b8 653d 9e12 14bd
00000220: 7c88 36bd 6476 b3bd 8e6b 683d ed40 333d
00000230: 87e3 12bd 79e5 1f3c dc5d 043d 30c3 dfbc
00000240: 929a 9dbd 9bff 3d39 e3eb 4abd 15a1 663c
00000250: a52c 9cbd 580f f63c 3d1a 5cbc d6d0 f8bc
00000260: c726 9b3d 7098 12bd 30ab acbb d731 d53c
00000270: 4374 283d 5ae7 b9bc a211 34bd 898a ea3c
00000280: 00b7 67bd 3b8b 88bd 5404 8a3d eb49 1d3d
00000290: f0b8 053c 0ba2 8dbd f4a8 87bd 8042 a1bc
000002a0: 632b 623c c201 1e3d 2bc9 913d c95d 3abd
000002b0: 0297 eebc 98b7 5cbd 5edb 92bd 2d2b aabc
000002c0: 3af9 9b3d 4b6b 0e3c 0f61 e2bb 7d97 5c3d
000002d0: 5539 d6bc c39c 4ebd 9bf3 62bd 1644 80bd
000002e0: 4d9b 5cbd 86fe 1c3d 3fa6 96bc 151a 223d
000002f0: cdb2 9c3d fb9b 49bd b1fa f13c e1aa a2bb
00000300: 6427 1d3d 8521 a1bd 780a b33a 6253 1c3c
00000310: 4500 293d 2425 933d e7f3 883c 0fbe 82bc
0.06425704 -0.06031437 0.018260717 -0.0069380146 -0.008699168 0.06260571 0.064063646 -0.071320124
-0.03609981 -0.011478071 -0.00018331758 -0.056975808 0.004155547 -0.020813001 0.07098928 0.06175352
0.057208303 -0.023547402 -0.036600355 -0.016327124 -0.0017499696 0.021478994 -0.022850594 -0.07080896
-0.020942902 0.057531085 -0.0806465 -0.00451993 0.029757798 0.017661631 0.05541941 -0.081432804
0.06766958 -0.039542213 -0.0643867 0.011859679 -0.04342488 -0.032855548 -0.023021134 -0.008497694
-0.050963394 -0.043021563 -0.06721489 0.01772615 0.0046276087 -0.004954832 0.016490811 0.02183862
-0.042355508 0.0116350595 -0.008097847 0.0013611602 -0.05525533 -0.011144758 0.0021051022 -0.044697642
-0.06590633 0.04137737 -0.06866504 0.04115358 0.07226531 -0.06127094 0.037578423 0.038570672
-0.05789401 -0.07482012 -0.04948144 0.05053057 0.06988406 -0.014254536 -0.05678617 0.026199993
0.05078626 -0.024016581 -0.035575904 -0.073841214 -0.02515471 -0.035358865 -0.020713689 0.039202772
-0.007788639 0.024686066 -0.018567031 0.030511813 -0.025077155 -0.009836318 -0.039808318 -0.024238093
-0.024525018 -0.072232135 0.003491062 0.0049220934 -0.07676256 -0.02153027 0.011899782 -0.043683644
0.062221486 0.03686545 0.058511864 0.0822189 0.051022094 -0.05755433 0.009786837 0.079606436
0.049496967 0.07939635 -0.0053388407 0.028286017 0.039440516 0.0056679132 -0.016280629 0.051551417
-0.06803073 -0.06499589 -0.0326972 0.05120182 0.074381866 -0.04327657 0.04308476 0.014267581
0.004130457 -0.066403694 0.065818146 -0.040000286 -0.043094117 -0.019259699 -0.005798101 -0.029813804
0.020191431 -0.072272584 -0.049939997 0.012186488 -0.0130524235 0.05636218 0.05608428 -0.036150567
-0.044563755 -0.087628156 0.056743197 0.04376309 -0.03586152 0.0097593 0.032316074 -0.027314752
-0.076954976 0.00018119665 -0.049541365 0.014076491 -0.07625703 0.030036613 -0.01343399 -0.030373018
0.075757556 -0.035789907 -0.0052694306 0.026024742 0.0411265 -0.022693325 -0.04396213 0.028630512
-0.056571007 -0.06667181 0.06739107 0.03840057 0.008161768 -0.06915673 -0.06624022 -0.01968503
0.0138042895 0.038575895 0.07118448 -0.045499597 -0.02912474 -0.053886026 -0.07170747 -0.020772541
0.076158956 0.008692573 -0.006908543 0.053855408 -0.026150385 -0.05044247 -0.0554081 -0.06262986
-0.053859044 0.03832867 -0.01838982 0.039575655 0.07651291 -0.04922102 0.029538484 -0.004964218
0.038367644 -0.078677215 0.0013659736 0.009541364 0.041260023 0.071848184 0.016717864 -0.015959768

net.1.weight f4 [200]
00000000: 5a92 793f d85f 7b3f 26ea 943f 992b 7c3f
00000010: 89d4 883f d188 723f f6bc 7f3f ee34 803f
00000020: 18b7 7b3f 6df3 923f af67 7f3f 4c7a 7b3f
00000030: 93a7 803f e6d2 843f 64bb 7b3f 54cd 783f
00000040: 45f2 703f cb6b 6f3f 31ce 783f 081f 7a3f
00000050: b5c6 7b3f ea2e 913f bd28 773f ee30 783f
00000060: 41f3 773f 9e77 773f 2af2 7b3f 7afd 763f
00000070: 704f 863f a5f3 7b3f 0492 773f f6e2 7a3f
00000080: 4fc4 7d3f f46e 8b3f ac4b 743f a926 793f
00000090: fb13 7a3f dffe 743f 72a5 7d3f 463c 953f
000000a0: 27f7 853f 8935 7b3f a2fc 753f 4138 833f
000000b0: 1ce3 7d3f 6690 773f 516c 7a3f e496 743f
000000c0: 6765 7a3f f30c 723f c2aa 713f 39a9 723f
000000d0: 7791 783f 364d 853f cb7d 773f a747 753f
000000e0: be6d 813f 5ea3 743f 2a99 773f 2738 793f
000000f0: cd51 763f e1dd 843f f05c 743f bf7a 783f
00000100: 65b8 7d3f b66f 7b3f 828d 7f3f 609b 793f
00000110: cac6 763f 522a 7b3f 8ae3 773f 8abb 763f
00000120: 1633 883f e95e 8d3f f7e6 7c3f 8654 8b3f
00000130: 6c47 803f ee08 773f c9fb 6e3f 117a 713f
00000140: 4ae3 783f 9023 793f e3c6 813f 6bc4 743f
00000150: 8613 753f f2cd 763f e0dd 743f 2b1d 7b3f
00000160: e86e 763f ad52 753f c952 803f fda7 7b3f
00000170: 21c2 7b3f a27d 783f 7d4d 723f f953 7a3f
00000180: fd73 793f 1e2b 7f3f c5d0 7b3f 931c 743f
00000190: 42f3 873f 50ac 723f 1cbe 753f 2978 803f
000001a0: 7ce9 733f 8a6c 773f 5320 763f 27ab 6f3f
000001b0: 32f6 753f 10fb 763f 31b1 763f b2c8 763f
000001c0: c160 723f dbc0 843f 5d14 773f b314 7a3f
000001d0: 8cfb 7f3f b3c0 743f 242f 763f f60a 7d3f
000001e0: 3a98 763f 34ee 753f 6c1a 763f 532e 813f
000001f0: 45fc 803f 88dd 773f 47f9 723f 5784 763f
00000200: e412 713f be3e 783f 423a 7a3f 1630 753f
00000210: ec5a 7b3f 96af 793f 0d25 923f 8db1 8c3f
00000220: fc13 753f 84fc 783f 9505 7d3f 4322 773f
00000230: 8e99 8a3f 4439 8d3f 663c 773f 610b 913f
00000240: 5981 803f 0831 783f 6820 783f 4bda 823f
00000250: 2205 723f c41e 803f 80a1 723f e3cd 7a3f
00000260: 754a 713f 7c3d 833f 1220 7a3f 2ab2 803f
00000270: 23fc 743f 3c39 903f cb51 7c3f 5252 723f
00000280: 84e6 743f e0c5 7a3f 467c 813f 5cb8 7c3f
00000290: fa1e 753f 819e 833f d199 893f c077 873f
000002a0: bc33 743f 19c4 773f 7b18 7a3f 4044 7a3f
000002b0: 1a45 743f 9a0b 8a3f 7abe 803f 920e 753f
000002c0: 31a4 8b3f 85e0 853f 3491 893f a63d 773f
000002d0: 9e7b 7a3f 3856 793f 6e10 793f a29c 7c3f
000002e0: ff5f 783f bb69 923f 2245 793f 5687 7b3f
000002f0: 30cb 763f c93b 733f 7787 803f 8275 703f
00000300: 076b 793f a5d6 8b3f a153 763f 6526 773f
00000310: 18a8 853f 0824 783f c4b5 773f cd93 703f
0.9748894 0.9819312 1.1633956 0.98504025 1.068986 0.94740015 0.99897707 1.0016153
0.98326254 1.1480538 0.99767584 0.98233485 1.005114 1.0376861 0.9833281 0.97188306
0.94119674 0.93523854 0.97189623 0.977036 0.9835008 1.1342442 0.96546537 0.9694966
0.9685555 0.96666896 0.9841639 0.96480525 1.0492992 0.9841865 0.9670718 0.98002565
0.9912767 1.0893235 0.95427966 0.97324616 0.9768674 0.957014 0.99080575 1.1659019
1.046605 0.98128563 0.9608861 1.0251542 0.99174666 0.9670471 0.9782153 0.9554274
0.9781098 0.9455101 0.9440118 0.94789463 0.9709696 1.0414188 0.9667632 0.9581246
1.0111616 0.9556178 0.96718085 0.97351307 0.9621857 1.0380212 0.9545431 0.97062296
0.9910949 0.9821733 0.998253 0.9750271 0.9639708 0.9811145 0.9683157 0.9637991
1.064059 1.1044589 0.98789924 1.088517 1.0021796 0.96498 0.93352944 0.94326884
0.97221816 0.9731989 1.013882 0.9561221 0.95732915 0.96408 0.95651054 0.9809138
0.9626298 0.9582928 1.0025264 0.98303205 0.9834309 0.970667 0.9464949 0.9778438
0.9744261 0.99675167 0.9836543 0.953561 1.0621111 0.9479418 0.9599321 1.003667
0.95278144 0.9664999 0.9614307 0.9362053 0.9607879 0.9647684 0.9636412 0.96399987
0.94678885 1.0371355 0.96515447 0.97687835 0.99993205 0.95606536 0.9616568 0.9884485
0.9632603 0.96066594 0.96134067 1.0092262 1.0076987 0.96822405 0.9491162 0.96295685
0.9416945 0.96970737 0.97745144 0.957765 0.9818561 0.9753355 1.1417557 1.0991684
0.9573362 0.9726031 0.9883664 0.96536654 1.0828111 1.1033101 0.96576536 1.1331598
1.0039474 0.96949816 0.9692445 1.0222868 0.9453908 1.0009389 0.9477768 0.9797041
0.9425424 1.0253139 0.97705185 1.0054371 0.9569723 1.1267467 0.98562306 0.9465686
0.9566424 0.97958183 1.011605 0.9871881 0.9575039 1.0282747 1.0750066 1.058342
0.9539144 0.96783596 0.97693604 0.9776039 0.9541794 1.078479 1.0058129 0.9572536
1.0909482 1.0459143 1.0747437 0.96578443 0.97844875 0.97397184 0.97290695 0.986765
0.9702148 1.1438516 0.97371113 0.9825338 0.9640379 0.950131 1.004134 0.939293
0.97428936 1.0924879 0.9622136 0.9654296 1.0441923 0.9692998 0.9676173 0.93975526

net.1.bias f4 [200]
00000000: 246d 4dbd 94da 04bd e702 cc3c 52db 91bb
00000010: ee7e 0abd 0e80 40bd 6d59 d4bc a3be 7fbd
00000020: e5e5 72bd 5adc 1dbd 15ae 68bd c58f 59bd
00000030: 1305 47bd b172 21bd 0e8f 5abd 1707 85bd
00000040: 2715 9fbd 31e2 bbbd 0d59 5ebd 4c35 25bd
00000050: 7092 a8bd 10c8 673c 26be 60bd 168d 1bbd
00000060: 2811 81bd eefe 33bd 9180 a0bc 2e2e 88bd
00000070: 0333 43bd 4860 d3bd d991 7abd 0a96 493a
00000080: 46a2 0bbd 3344 f8bc 0b33 84bd 2218 52bd
00000090: 7dd0 abbd 6107 84bd 369f 58bd cd95 a1bb
000000a0: 0786 453a ba36 88bd 89e0 84bd 6ac6 91bd
000000b0: b94d 7ebd 0ea6 17bd 8c61 43bd ff38 31bd
000000c0: 687a 9dbd 20cb 67bd 0757 90bd 9480 8ebd
000000d0: 8a0b 9abd 2f0a 28bc a5d2 65bd 43b9 a6bd
000000e0: f2a5 44bd 1e51 d5bc e3e8 45bd 66d1 6fbd
000000f0: 98f8 aabd 5f23 12bd 5e1b 85bd 7cee 3dbd
00000100: 6309 8fbc 2e48 2cbd 277a 36bd 239e 4abd
00000110: 622e 2cbd 1be6 c5bd 9362 a4bd 9b71 58bd
00000120: 603a 02bd 7f5e f3bb 2e42 e2bd 0b4e cebb
00000130: 2a2a 16bd 493a 21bd 1a22 d3bd 44f2 aebd
00000140: 10c6 aebd 8019 d2bd 99d8 08bd 5b97 87bd
00000150: bf67 40bd 5374 c0bd 88f3 8dbd b9ec f4bc
00000160: 1b80 3dbd 7cfc bfbd e106 a5bd 63a0 1cbd
00000170: 550c cbbc b0a9 59bd 9087 86bd 412d a9bd
00000180: e445 9ebd f9bb 4cbd bf2f 72bd 91aa 8bbd
00000190: 5bf9 d3bc 6391 6abd 42fd bcbd 4250 2ebd
000001a0: 09a3 89bd ecff 89bd 50a4 57bd f5b6 82bd
000001b0: 707f 84bd a823 7bbd 4d92 40bd 9b32 5ebd
000001c0: 4df3 82bd c01f 1bbd 92cb 2cbd 9739 a7bd
000001d0: 60a7 74bd 9bf8 63bd 17c6 c6bc fc08 21bc
000001e0: d349 c6bd 7d6c 5cbd 5bfe bfbd a8d8 28bd
000001f0: 37af edbc 002d 8dbd a48a b1bd 48e6 42bd
00000200: 528c 04bd 790e afbc bbe4 55bd 1d89 a3bd
00000210: ddfb c1bd 12dc b5bd 3be5 d7bc 8aa6 74b9
00000220: 446f a4bd 13de 69bd bf7f 6bbd 5207 4dbd
00000230: b701 0b3c 1b70 2cbd ccda 01bd a33f 12bc
00000240: b9c5 39bd 616d a1bd 1349 09bd fe37 aabc
00000250: 7a35 d1bd 6d5f 93bc fa8e 98bd 3cee 3abd
00000260: 0f84 82bd ee59 d7bc 7e98 46bd 5eca 3bbd
00000270: a57a aebd d534 aa3c 0941 16bd fee5 a2bd
00000280: 6012 57bd 9ff6 f7bc 01cc 30bd 123e 98bc
00000290: 9cf4 75bd 8fb8 e0bc b5b3 63bd 81b0 4bbd
000002a0: f50e 84bd 20f9 bbbc 6348 55bd 92f7 eabc
000002b0: 4ae2 82bd 8f19 c6bc 4918 48bd 72cb 90bd
000002c0: 197f d5bc 2259 04bd 44fd 323c 7932 36bd
000002d0: 4572 b7bd 0890 c5bc b6be aebd ff00 94bd
000002e0: 1d23 7bbd a164 293c 6ace 42bd 49d3 4dbd
000002f0: eab8 71bd 7cf4 39bd 8488 4bbd f3e4 9bbd
00000300: 913c 5fbd eb5a 4cbc 4315 23bd d2ce 3ebd
00000310: 5961 22bd 0b1b a0bd e641 aabd 2aef 88bd
-0.050152913 -0.032435015 0.024903728 -0.004451194 -0.033812456 -0.046997122 -0.025921548 -0.062437665
-0.059301276 -0.03854022 -0.056806643 -0.053115625 -0.048588824 -0.03941602 -0.053359084 -0.06495493
-0.07767706 -0.09174002 -0.054284144 -0.04033403 -0.08231056 0.01414682 -0.05486884 -0.037976347
-0.063021004 -0.04394429 -0.019592555 -0.06649433 -0.04765607 -0.103210986 -0.061174247 0.0007689899
-0.034090303 -0.030305957 -0.06455048 -0.051292546 -0.08389375 -0.0644672 -0.05288621 -0.0049311877
0.0007534925 -0.06651063 -0.06488139 -0.071179226 -0.06208584 -0.037023596 -0.04770045 -0.043267246
-0.07689363 -0.0565902 -0.07047849 -0.06958118 -0.07521732 -0.010256334 -0.05610909 -0.081408046
-0.04800982 -0.026039656 -0.0483178 -0.058549307 -0.08348197 -0.035678264 -0.064993605 -0.046370015
-0.01746053 -0.042061023 -0.044550087 -0.049467217 -0.04203642 -0.0966303 -0.08026614 -0.052842718
-0.031793952 -0.0074270363 -0.11047779 -0.0062959245 -0.036661305 -0.039362226 -0.10309239 -0.08542302
-0.08533871 -0.1025877 -0.03340969 -0.06620666 -0.04697394 -0.09397187 -0.069312155 -0.029898034
-0.04626475 -0.093743294 -0.08057953 -0.038238894 -0.024786154 -0.053140342 -0.06568825 -0.082605846
-0.07728174 -0.049983952 -0.059127565 -0.06819642 -0.025875738 -0.057267558 -0.092279926 -0.04255701
-0.067205496 -0.06738266 -0.052646935 -0.063825525 -0.06469619 -0.0613133 -0.047014523 -0.05424748
-0.06394062 -0.037872076 -0.042186327 -0.08165281 -0.059729934 -0.05565701 -0.024264378 -0.009828802
-0.096820496 -0.0538144 -0.09374686 -0.041222245 -0.029014213 -0.06893349 -0.08669022 -0.047582895
-0.032360382 -0.021369206 -0.052220087 -0.07985137 -0.09471867 -0.08879866 -0.026354423 -0.00023331694
-0.08029035 -0.057096552 -0.057494875 -0.05005581 0.008484296 -0.0420991 -0.0317028 -0.008926305
-0.04535458 -0.078821905 -0.033516955 -0.020778652 -0.10215278 -0.017989838 -0.074491456 -0.045637354
-0.063728444 -0.026287999 -0.04848527 -0.04584729 -0.08519486 0.020777145 -0.036683116 -0.07954024
-0.05250776 -0.030268965 -0.043163303 -0.018584285 -0.06004773 -0.027431754 -0.055591304 -0.049728874
-0.06448165 -0.02294594 -0.052070986 -0.028682504 -0.063908175 -0.02418211 -0.048851285 -0.07070054
-0.026061581 -0.032311566 0.010924641 -0.04448173 -0.08957342 -0.024116531 -0.08532469 -0.072267525
-0.061312784 0.010338933 -0.047560133 -0.050250325 -0.05901424 -0.045399174 -0.04969074 -0.07612028
-0.05450112 -0.012472848 -0.0398152 -0.046583958 -0.03964362 -0.07817658 -0.083133504 -0.06686242

net.1.running_mean f4 [200]
00000000: bb22 87bc 60d0 5c3d f3d2 23bc c36f d5bd
00000010: 4435 f53c 50d3 953d bbb1 d7bd aaa2 29be
00000020: b624 d1bd 87f3 39bd 3990 fdbc 4549 5ebd
00000030: 1bc6 d4bc 8a96 bebd d631 f2bd 2926 8fbe
00000040: d17e 2bbe e8b3 e1be 968b be3f 507c 0cbe
00000050: 613e d0bd 1a54 e4bb d179 cdbe 6c43 253f
00000060: 8033 26bf 8b18 873e 2eac 693e ab0f 04be
00000070: a1b2 273d cad0 97bd 97a0 9f3e 8352 8fbe
00000080: 19f2 b53e 6bfd 27bd 4298 2cbe 82aa 9cbe
00000090: 54f1 80be da39 e7bd 864a 5ebe be8f 06bc
000000a0: 29ed 453d 3d43 bcbd d469 e3be 6f7c 533d
000000b0: 897c 563e 70df 83bd 6e2e d4be 3686 98bd
000000c0: 7554 92bd 008f 3d3e 2797 e6bd fb1b 8ebe
000000d0: 6a72 25be 7c16 bcbb d522 b93e f5db 08be
000000e0: 31ed dc3c 4c1c 253e fae5 9fbe 5004 1bbe
000000f0: 1f9c 063e ea76 50bd 7eb3 71be 0796 a1be
00000100: 16bc e53d f79f 9b3e 128a a7bd d66e 87be
00000110: cbe6 573e 46e9 0dbe 097a 35bc 06e0 6bbf
00000120: ccc1 d73d e0f1 09bd 99bf 18be bca7 29be
00000130: 6b99 e63d feec 7e3e e037 d13c 24f0 563b
00000140: f6ee 9cbe 73fa 833d 746a dc3c 3a65 52be
00000150: d04b 69be 4504 113e 2ea1 95be caad 8fbb
00000160: 635c 803e 4c53 0fbe 53b2 35bd e00d dbbd
00000170: b934 dd3e d6b0 0ebf 92ea 0b3f b551 e63d
00000180: 2f07 423f 8c41 0f3e 50f3 753e 655d f8bd
00000190: 414c 783d 8388 fdbc 18e4 8e3e bf99 823d
000001a0: 8be4 27bc 8d72 ecbd 4178 313f d7a1 15be
000001b0: 7024 e33e 8585 87be 3701 5dbd d9db bcbe
000001c0: 9fb9 10bf 1327 1fbd 406f 21be ba0e be3d
000001d0: 8537 033e 114f a43e f9e7 84be 8183 b2be
000001e0: 9f18 ad3d 2aba 1cbe ac41 ec3c dbc3 6f3d
000001f0: a54b 823d fcb0 803e 18f2 dbbd e59d e53e
00000200: 2c01 723d 1349 b4be 70a8 0a3e 8a3e 81be
00000210: dd48 b6be 85bd 5a3e db0f 6a3d 2bf4 9cbd
00000220: a161 f4bd 7cb1 ab3e 5159 473e 3f5e 94be
00000230: 2dd0 943d a60d a8bc 3ae6 483d 840f d13d
00000240: 5689 433d 17b4 59bd f81e d6bd 9552 413d
00000250: c6d4 693e 35ba 49bd 8082 da3e 7d1a fc3d
00000260: 7d04 c13d 3b63 eabd 36dc 77bc 1852 303e
00000270: 02e3 99bd 270e 04bd e488 80be dc84 773e
00000280: 312d f63d d671 7f3d 2812 c33e cb8a 8e3d
00000290: 6eee e13f 1e84 993d 7728 17be 9dc3 db3b
000002a0: 4244 38be 4f9b a23d 31c1 30be 7ec9 01bf
000002b0: e3be 0ebf 52f1 1fbc 799c d8bd 6228 d4be
000002c0: 90fd 7d3e 1ca3 c3bc f60c ec3c 19b4 263f
000002d0: d72c 3d3e 5fb5 03bd 7b1e bebe 59cd fbbc
000002e0: fe2e 613e 4357 b03d 2d3a 2bbe c10e fc3d
000002f0: ed08 10be f372 acbd 571f e1bd 7286 75be
00000300: 290e d53d c9a9 b4bd 8894 80be f7b0 a83e
00000310: 5375 163c eefb bb3d 9ca4 1bbe dcae 00bf
-0.016496053 0.05390966 -0.009999025 -0.104217075 0.029932626 0.07315695 -0.10531946 -0.16565958
-0.1021208 -0.04539826 -0.03095256 -0.054269094 -0.02597337 -0.09306057 -0.11825912 -0.279588
-0.16747595 -0.4408257 1.4886348 -0.13719296 -0.10168148 -0.0069680335 -0.40132 0.64556
-0.6492233 0.26385912 0.22819588 -0.12896602 0.04094184 -0.0741287 0.31177208 -0.2799264
0.35536268 -0.041013163 -0.16854957 -0.30598837 -0.2518412 -0.11290331 -0.21708116 -0.008212982
0.048321877 -0.09192512 -0.44416678 0.05163234 0.20945944 -0.06439102 -0.41441673 -0.07447474
-0.07145015 0.18511581 -0.11259299 -0.27755722 -0.16156927 -0.005739985 0.36159387 -0.13365157
0.02696857 0.16124076 -0.31230146 -0.15138364 0.13145493 -0.050894655 -0.23603627 -0.31559774
0.11217515 0.3039548 -0.08180632 -0.2645175 0.21084134 -0.13858518 -0.011076459 -0.9213871
0.10535011 -0.033677936 -0.14916839 -0.16567892 0.11259731 0.24895093 0.025539339 0.0032796944
-0.30651063 0.06444254 0.02690623 -0.20546427 -0.22782826 0.14161785 -0.29224533 -0.004384731
0.25070485 -0.13996619 -0.044359516 -0.10696006 0.43204287 -0.5573858 0.546548 0.11246053
0.7579221 0.13989848 0.24018598 -0.121271886 0.060619596 -0.030948883 0.27908397 0.06376981
-0.01024736 -0.11545286 0.6932412 -0.14612518 0.44363737 -0.26469055 -0.053956237 -0.3688648
-0.56533235 -0.038855623 -0.15765095 0.092801526 0.12814148 0.32091573 -0.2595823 -0.34865955
0.08451962 -0.15305391 0.028839909 0.05853639 0.06362084 0.25135028 -0.10739535 0.44847026
0.05908315 -0.35212 0.13540816 -0.25243026 -0.35602465 0.21361358 0.057144027 -0.07663759
-0.11932684 0.33533847 0.19467665 -0.28978154 0.07266269 -0.02051432 0.049047686 0.102080375
0.047738396 -0.053150263 -0.104551256 0.047197897 0.22835073 -0.049249846 0.4267769 0.1230974
0.09424684 -0.11444708 -0.015128186 0.17218816 -0.075140014 -0.03224006 -0.2510444 0.24171776
0.12020338 0.06236442 0.3809979 0.069600664 1.7650888 0.074959025 -0.1476153 0.0067066685
-0.17994788 0.07939779 -0.17261197 -0.5069808 -0.5576002 -0.009762125 -0.1057672 -0.4143706
0.24803758 -0.023881488 0.028814774 0.6511856 0.18474136 -0.03215539 -0.3713263 -0.030737566
0.21990582 0.08610394 -0.16721411 0.123075016 -0.14065905 -0.08420362 -0.10992306 -0.23977068
0.104030915 -0.088214464 -0.2511332 0.32947513 0.009183246 0.09178911 -0.15199512 -0.50266814

net.1.running_var f4 [200]
00000000: fc70 f13c 9e29 a23d c977 243d 774e 423c
00000010: e895 b33c 461a a73e 2b73 f93b b571 a03c
00000020: 6c51 a83c fd1b 173d ebe3 243c 8be1 613e
00000030: 7c76 3d3d a069 103d e7a3 043d 4a3f 003e
00000040: 6fff 743d febe 933d cb43 9d3e 0252 9d3e
00000050: f5b5 043f a91e ea3c 7901 133d 2f01 903e
00000060: f93f fa3e d508 103e 65ae dc3c 02fb 373c
00000070: 72d8 e43c 0642 963d f766 ea3d 2b72 113f
00000080: 9cbe 453d 020d 123d a3c1 a53c edba ee3e
00000090: e876 8b3e 1e50 273d 5f71 093d 68c2 253d
000000a0: 8e28 b63c ade5 7d3c bcee 803e 466a 673c
000000b0: 4d12 aa3c d45e b93c 111b 9b3d 4388 cd3c
000000c0: 901b 133c 48fd 473e 7746 db3d d670 d13c
000000d0: fd95 6b3c 4be2 9a3c a91b 163d dcc6 bb3d
000000e0: 6736 3b3d 4c3e 063f 805e 203e 8e5d 3b3d
000000f0: ef07 6c3c e07d bb3c c67c cc3d a816 513e
00000100: 5a33 f53d a3c7 d93d 6d1b bd3d 3db2 d23d
00000110: a326 af3e e8f6 483e 8eaf 2d3e fb71 233e
00000120: cdac 093d 7c59 253d 43b4 323f a865 bf3c
00000130: 707e 623d 7d61 ca3d 6b83 773c b2e5 ac3e
00000140: 7d4f f03d 44b0 de3d b578 c03c 9901 4c3d
00000150: 3e22 c93d 73b5 ea3c 2c34 943e 99fe d93c
00000160: cabc 4e3e 8668 653e a2f2 213d 425d e93d
00000170: 5119 083e cb80 bd3d a7e8 a33d 35db 873e
00000180: c3d2 763d d622 a43c eceb e53d a033 9a3d
00000190: 48dc 863c 56e4 e93c 008e 813e 9b81 813c
000001a0: 839c 423d f24f 593d 01a8 9b3d 9d88 8b3d
000001b0: d142 f03c 0a1f 1e3e 100b 783c f094 3f3d
000001c0: ac6f 223e c2fb 243c 276c e23d eeed 933d
000001d0: 2279 203c 7693 5f3e f8fa 603d 19a0 8b3d
000001e0: abcc 0b3f 8692 cc3d 5dbf 803c a017 553c
000001f0: c1b0 e53d 13f3 2c3d d4de d83d 282b ba3d
00000200: 365e 2b3d 5a8d f93c 80d0 7a3c a969 5a3d
00000210: 5b07 9a3e f094 453e ab3f 5b3d 0724 e63c
00000220: 69bf 7c3e a66b a43c 335f 923d 4601 913d
00000230: 87b6 f73c a544 133d b820 d13c 4902 f93c
00000240: b040 103d 2f43 c83d 3ef6 393d 2d68 d43c
00000250: 0de2 843d b52c b93b 46ff 643d 437e 503d
00000260: a956 bc3c a8c9 cc3c 8740 803c 72dd ad3c
00000270: b96e de3d aa02 b13c 9f01 2d3e bb75 8e3d
00000280: 43cb e63c d49c 3c3d 6323 753d 6140 173e
00000290: b6e1 a83e 9329 933c 14d5 2c3d 75d7 e53c
000002a0: 2325 ac3e 968d 093d 228d 073d a266 9d3d
000002b0: 6abf ad3e 6516 a63c d2cd 9a3b e8fc b03d
000002c0: 1aa0 cf3c 005d d73c 46f2 d13c 5cf3 4b3d
000002d0: bc88 bb3d 6204 993c 7ee0 a93d 0156 813c
000002e0: 00c4 f33c b25e c83c 5976 cf3d 8f8f a03c
000002f0: ddb2 4e3e 5473 fd3c 6ff8 5c3c 934b 653e
00000300: 4105 d63c c7e4 b53c b9c1 f63d 7264 cc3c
00000310: 964d 193d 9acb 2b3e 53af 853c 2e83 c33d
0.02947282 0.07918094 0.0401533 0.011859528 0.021922067 0.32637233 0.007612606 0.01958547
0.020546637 0.036891926 0.0100641055 0.22058694 0.046255574 0.03525698 0.032382872 0.12524143
0.059813913 0.07214163 0.30715784 0.3072663 0.51840144 0.028579073 0.035890076 0.28125903
0.48876932 0.14065869 0.026938627 0.0112292785 0.02793524 0.07336812 0.1144542 0.5681483
0.048277482 0.035656936 0.020233935 0.46626988 0.27239156 0.04084789 0.033555385 0.040468603
0.022236135 0.0154966535 0.2518214 0.014124459 0.02076068 0.022628225 0.07573522 0.025089389
0.008978739 0.19530213 0.107067995 0.0255665 0.014379022 0.018906733 0.036647473 0.09168789
0.04570618 0.5243881 0.15661049 0.045743518 0.014406188 0.02288717 0.09984736 0.20418799
0.11972685 0.10633781 0.09233747 0.102879025 0.34209165 0.19625437 0.169615 0.15961449
0.03361206 0.040368542 0.6980631 0.023363903 0.05529636 0.09881876 0.015107016 0.33768994
0.11733911 0.10873464 0.023495058 0.04980621 0.09820984 0.028650975 0.28946054 0.02661066
0.20189205 0.22403154 0.039538033 0.11394741 0.13290907 0.09253081 0.08003359 0.2653443
0.06025959 0.020036142 0.11226639 0.07529378 0.01646246 0.028551262 0.2530365 0.015808871
0.047512542 0.053054757 0.076004036 0.06813166 0.029328736 0.15441528 0.015139356 0.046772897
0.15862912 0.010069789 0.11055785 0.07223116 0.009794505 0.21833596 0.054926842 0.068176456
0.54609174 0.09988885 0.01571625 0.013006121 0.11215354 0.042224 0.10589376 0.09090263
0.041837893 0.03046291 0.015308499 0.05332342 0.30083737 0.19295096 0.053527515 0.028093351
0.24682392 0.020070862 0.07147064 0.07080321 0.030238403 0.035954136 0.025528297 0.030396597
0.03521794 0.09778439 0.04540085 0.025928581 0.06488428 0.0056510814 0.05590751 0.050901663
0.022990542 0.024998501 0.015655769 0.021223757 0.108609624 0.021607716 0.1689515 0.06956049
0.028173095 0.046048 0.0598482 0.14770652 0.32984704 0.01796416 0.042195395 0.02805684
0.33622083 0.033582292 0.03309358 0.07685591 0.339351 0.02027435 0.0047242427 0.08641988
0.025344897 0.026289463 0.02562822 0.049792632 0.091569394 0.018678848 0.082947716 0.01578808
0.029756546 0.024459217 0.10129995 0.019599704 0.20185418 0.030938782 0.013486966 0.2239211
0.026125552 0.022203816 0.120486684 0.02495024 0.037427507 0.16776887 0.016318953 0.09546505

net.4.weight f4 [200, 200]
00000000: 176f 2abd a5fd ed3c ffd6 2abc c904 05bd
00000010: 7a43 f23a cf6f 96bd 4a81 5fbc 33da 1abd
00000020: c74f 8c3b 91ea bebd c441 8bbc 5bd1 1d3d
00000030: 13d3 5a3d 6295 17bd 4b10 e9bc 6d61 863d
00000040: 363c 43bd 5cd4 133d 6f16 4e3d 0215 eebd
00000050: cba0 44bd 894e 3cbd 2490 1abd 6498 dfbc
00000060: 8dde 87bc 89a8 8dbd 1217 53bd c1cf 113d
00000070: 2fea 003d d6f0 3d3d 31cc 093d ef64 03be
00000080: 2ba7 0ebd 31ec 6cbd c137 d9bc e973 a23c
00000090: 6532 043d eef3 f23c f6db ea3c b1ab d4bb
000000a0: 3817 d23c 18a7 45bd d97a fbbb d43f 143d
000000b0: 0ddc f93c 2946 3d3d e0e2 6d3d 3b47 9abc
000000c0: 7d18 0abb 3ef1 aebd 6564 64bd b585 93bc
000000d0: a793 a2bd 32d8 90bd acee 1abd d51e ddbc
000000e0: 6045 a9b8 2782 38bd 2b55 3a3c de5a 38bd
000000f0: 63ef bf3c 1a08 00bd 3ecf 643d 9898 5bbd
00000100: d663 e83c 91b9 10bd 6413 163b 4efa d73c
00000110: 7ec1 acbd bf49 42bc 6c0e a13c f5c7 7f3b
00000120: 65bd 213d 00c2 36bd bca5 443d a60d 26bd
00000130: b63a a7bd a61f f6bc 1b43 613c dd61 7fbc
00000140: e910 893d 7550 03bc 2a81 43bd 1eac ac3c
00000150: 295f ac3c 0aba 4b3d 6b11 49bd ea70 fe3c
00000160: 2e07 b5bd 2d2c 3cbd 3848 3abb 59c2 bcbc
00000170: b3d7 133c 47b9 98bc 0666 b3bc 0dff 57bc
00000180: b59f 833d 2c7c 403d 264f d63c 3126 6f3c
00000190: a756 a0bd bc3e 513d 2a6a 68bc de29 27bd
000001a0: e0ba 223d 2c0d a1bc 534a b0bc a5b1 c5bc
000001b0: f7a8 93bb c782 59bd 2348 0f3c 34f5 1fbc
000001c0: 7303 df3c 61bb 07bd 56d5 cdba 799b 723c
000001d0: c70d 00bd 497e 5abd fb1f 0bbd e27d 33bd
000001e0: 73af 113d 4794 acbc 345b 2bbd 6026 74bc
000001f0: 873d d83b eaa4 b93c b5c2 93bc d261 04bd
00000200: 8701 40bc 8f9d e33b 18cb c4bc 843e b83c
00000210: 73e8 dfbc dfdb 75bd f2de 8bbd 3c7c 70bc
00000220: d5e5 263d eec8 873c c69b c83c 9521 03bd
00000230: 792b 383c a008 a63c 487d 533d 02d2 4bbd
00000240: a0f4 dabc a985 953c bb2b d73a 73c1 53bd
00000250: 5da9 e037 b20b bbbb a449 2fbd c392 cdbb
00000260: 05fa 323c 9d1a 993c 6ac5 12bd af58 b03c
00000270: 52ba 82bc e430 24bd 5995 95bb 4092 843c
00000280: b9fb a8bc 1b12 76bd 0341 6d3d 2144 ccbd
00000290: 889c 0a3d 7f89 93bd 6e84 63bd 23a8 8e3c
000002a0: 714d fb3c 2003 77bc 056e 7a3c 7d26 30bd
000002b0: 05ba 483a a23d 6e3c ef3c 9e3c 5fc9 853c
000002c0: 5850 b5bd 097e 75bd 9471 cabc d626 383d
000002d0: 6825 7bbd 248a f7bc 63d6 7e3c 40b4 5e3c
000002e0: 52f6 88bd 2220 17bd 3452 073d 3842 0ebd
000002f0: 69ff adbd df60 d73a b6c2 87bd 2f25 343c
00000300: aaa3 c5bc 6bef 1bbd f62a 883c 58cb 953d
00000310: 287a 26bd ccc1 88bd 69f5 89ba 51f8 ac3c
00000320: c901 3fbd 4af9 123d f6d8 2f3c b80d 683d
00000330: d998 8b3d 3486 783d 8f77 bdbc bfe9 c0bc
00000340: f87e 963c 660e 023c 812f 32bd a514 273d
00000350: 2dfe f33c c799 00bd 747f 2dbd 4704 c6bd
00000360: f56c a9bc 6043 69bc 2c3c 233d c7a8 0f3d
00000370: 8b1e 02bd 5a74 a23d 5add 49bd b6b9 dd3c
00000380: 85d5 36bd 241a 003c 9c02 34bd d7f9 9bbb
00000390: 662a 8b3b 3e8a 98bd f3f3 5a3d 6043 f6bc
000003a0: ecee e13b 1c76 fa3c 0bbf a8bd 5b11 fd3c
000003b0: 2bec e7bc bc91 1e3d b11b dbbc 1128 403d
000003c0: fb7a 833d 72f3 98bb 8d6b f43c b1af 0a3d
000003d0: 962c 8ebd 1863 043c 6297 b0ba 86d4 b33c
000003e0: b97c 0c3b 59dc 4abd 51c0 07bd 940c d1bd
000003f0: 6419 08bd 0007 96bc 633b ecbb b632 23bc
-0.04160985 0.029051611 -0.010427236 -0.032475267 0.0018483244 -0.073455445 -0.013641665 -0.037805747
0.004281971 -0.09322084 -0.016999133 0.038529735 0.053423952 -0.037007697 -0.028450152 0.06561551
-0.047664843 0.036091194 0.050314363 -0.11625101 -0.048004907 -0.045973334 -0.03773512 -0.027294345
-0.016585613 -0.06916911 -0.051535673 0.03559852 0.031473335 0.046372257 0.033641998 -0.12831472
-0.034827393 -0.057842437 -0.026515843 0.01983066 0.032274622 0.02965733 0.028669339 -0.006490194
0.025645837 -0.048255056 -0.0076745567 0.036193684 0.030500436 0.046209488 0.058077693 -0.018832793
-0.0021071725 -0.08542107 -0.055759806 -0.018008092 -0.07938319 -0.07072486 -0.03782527 -0.02699224
-8.07147e-05 -0.045045998 0.011372845 -0.045008533 0.023429578 -0.031257726 0.055861704 -0.05361232
0.028367918 -0.03533322 0.0022899741 0.026364472 -0.08435343 -0.011858403 0.019660197 0.0039029096
0.03948726 -0.044618607 0.04800962 -0.04054036 -0.08165495 -0.030044388 0.013748909 -0.015587297
0.066926785 -0.008014788 -0.047730602 0.021078166 0.02104147 0.049737968 -0.049088877 0.031059701
-0.0883926 -0.045940567 -0.0028424393 -0.023041891 0.009023595 -0.018643035 -0.021899235 -0.013183367
0.06426946 0.04699342 0.026160788 0.014596508 -0.078290276 0.05108522 -0.014185468 -0.040811412
0.039729 -0.019659601 -0.021519816 -0.02413256 -0.004506226 -0.053103235 0.008745226 -0.009763051
0.027223324 -0.033137683 -0.0015703838 0.014807575 -0.03126314 -0.05334309 -0.033966046 -0.043821223
0.035567712 -0.021066798 -0.041835025 -0.014901727 0.0065991315 0.022661645 -0.01803718 -0.03231985
-0.011719114 0.0069462727 -0.024022624 0.022490747 -0.02733252 -0.06002414 -0.06829633 -0.014678057
0.04074653 0.016575303 0.024488341 -0.03201445 0.011240833 0.020267785 0.05163315 -0.049760826
-0.026727974 0.01825221 0.0016416231 -0.05169816 2.6781747e-05 -0.0057081813 -0.04279484 -0.006273599
0.010923867 0.018689448 -0.0358328 0.021526663 -0.015957985 -0.04008569 -0.004564923 0.016183019
-0.020627843 -0.06007586 0.057923328 -0.09973932 0.033840686 -0.0720396 -0.055546217 0.017414158
0.030676575 -0.015076429 0.01528502 -0.043005455 0.00076571136 0.014541062 0.019316165 0.016331373
-0.08853215 -0.05993465 -0.024712361 0.04495891 -0.06131497 -0.030217238 0.015554043 0.01359278
-0.06687607 -0.03689588 0.03303738 -0.03473112 -0.08495981 0.0016432068 -0.06628935 0.010995193
-0.024125893 -0.038070124 0.016622048 0.07314175 -0.04064384 -0.06677589 -0.0010525408 0.0211145
-0.04663256 0.03588227 0.01073288 0.05665371 0.06816263 0.06067486 -0.023128299 -0.023548959
0.01837109 0.007938003 -0.043502335 0.040791173 0.029784286 -0.031396654 -0.042357877 -0.096687846
-0.020681838 -0.014237255 0.039852306 0.035073068 -0.03176741 0.079323485 -0.049283363 0.027066093
-0.04463722 0.007818732 -0.0439478 -0.004760008 0.0042469976 -0.074482426 0.053455304 -0.030061424
0.006894937 0.030573897 -0.082395636 0.030892065 -0.028310856 0.038713202 -0.026746603 0.04691321
0.06419941 -0.004667693 0.02983644 0.03385896 -0.06942098 0.008080266 -0.001347285 0.021951925
0.0021436645 -0.049526546 -0.03314239 -0.10207477 -0.03322734 -0.018313885 -0.007209228 -0.009960821

net.4.bias f4 [200]
00000000: 3c34 493d 7172 4b3b 31b5 393c 9b5c 10bd
00000010: 3785 9e3c 42a9 98bb 4c60 6c3d 2bf3 8d3c
00000020: 7404 6e3d 4201 0c3d 7d54 2f3b 8655 6ebd
00000030: f299 f9bc cee4 8cbd f8f3 37bd 5e47 4139
00000040: 86bd 873d 2f32 53bd 6ef2 663d c81d 1dbd
00000050: 3337 fe3b a200 8cbd c617 3a3d 5385 b03c
00000060: bcbe a8bc 31a5 b3bc dff9 5cbd d6cc 83bd
00000070: 6198 e5bc f907 703d e407 763c 3d59 1dbd
00000080: 9c71 98bd f560 623d fdf9 18bc caa0 7cbd
00000090: 606d 943d 0417 f8bc cdad a53c 3cad e63c
000000a0: d265 62bc ba5b 36bd ecb0 5ebd bf2f 6c3c
000000b0: 1aac 7c3d d893 343d edc2 233d 1850 6ebd
000000c0: 874d 05bd 1c94 7abd e340 313d 26bb 7dbd
000000d0: 9fca 45bd 02b0 4ebd 4fe1 2abd 2503 773b
000000e0: d998 34bc f9dc ae3c dd19 82bd ec0c 87bd
000000f0: a799 103d 9c65 0abc 06db 4bbd 1df1 25bd
00000100: d282 65bd a416 ea3b b5e0 e23c 7a5a 0ebc
00000110: ee11 40bd e27a 7bbd b4e4 b8bc 6223 873d
00000120: f770 743d 6ac1 7b3d 3f65 213d 0257 323d
00000130: d66c 8fbd 2825 76bd 2a01 20bb 6ddd 38ba
00000140: 1d55 20bc e40a 1c3d 0b15 393d af22 eabc
00000150: 3276 1abd 8d89 063d 3be4 f13c a032 813d
00000160: a3dc 023c e5b3 55bd 13cc 69bc ff74 ddbc
00000170: 44e8 14bd 0a32 813d 02b4 14bd 3c1f 49bd
00000180: ed58 3a3d 34e9 8b3c 6407 fabc 680f 3e3c
00000190: 11c2 743d 767b c33c d8a8 d3ba 07cb 55bd
000001a0: d871 3dbc bf25 72bc f9b2 a73c e5d3 4c3c
000001b0: f63a ff3c 6ca6 09bc 3625 57bd 8346 dcbb
000001c0: 2234 053d 104f 1bbd 344f 84bd 0518 9d3c
000001d0: 778e 2b3c 855d 88bd 4b79 1cbd 7c6b 483a
000001e0: 017f 58bc b8cc 343d 4868 e03c 3e1e 6c3d
000001f0: df9f 6fbc 78d3 62bd 1a8f c7bc beb3 a33c
00000200: 44f0 6cbd 33d6 00bb ffe1 dbbc 2d98 5e3c
00000210: 65c2 0e3d 4cd3 0f3c 09e3 69bd 0445 a13c
00000220: f6a3 013d e3c1 92bd 4753 69bc 8b00 413d
00000230: 1411 86bd ad75 4abd 7d14 5ebd ed63 26bc
00000240: 7a9b 00bd 7164 8a3c 0b7e cf3a 75e9 813c
00000250: 5f0c 84bc 3bc7 353d 74fd 77bd 6166 7bbb
00000260: da93 5b3c 51af 8fbd 7603 b9bc 2f03 3fbd
00000270: 4016 91bd bdfc 0a3c 6305 2fbd 3417 88bd
00000280: 7bfa 113d e424 a83c bf96 5cbd 2756 463d
00000290: 739e 99bc 8de9 4abc 78d5 b23b 1d5f 873d
000002a0: d1b6 5a3d 64f2 d23c bd40 81bd cec5 693d
000002b0: 6802 273d 58a0 9abc ee01 243d 833a 3f3d
000002c0: 34f2 c73b 60c5 77bd 3b4e 88bc 9c90 64bd
000002d0: e88d 91bd dbca 02bd 60b1 8abd bc44 35bd
000002e0: 1853 85bd be78 8e3d 63c0 50bd 6525 29bd
000002f0: a4ac 57bd 5956 b4bc a887 113c 8ce7 0cbd
00000300: 9620 90bd 3591 71bd 2f02 c03c 56a8 3a3d
00000310: 8458 393d 9c25 22bd bd3e 163d 6358 833d
0.04912208 0.0031043554 0.011334703 -0.035244565 0.019350631 -0.004658849 0.057709023 0.017327866
0.058109716 0.034180887 0.002675324 -0.05818703 -0.030468915 -0.068795785 -0.0449104 0.000184325
0.066279456 -0.05156153 0.056383543 -0.03835848 0.007758045 -0.06836058 0.04543283 0.021547949
-0.020598762 -0.021929355 -0.053949233 -0.06435554 -0.028026761 0.058601353 0.01501653 -0.038415182
-0.07443544 0.055268247 -0.009336946 -0.061676778 0.07247424 -0.030284412 0.020224476 0.028158776
-0.013818221 -0.04452107 -0.054367945 0.01441568 0.061687566 0.044086307 0.039980818 -0.058181852
-0.03254464 -0.061176404 0.04327477 -0.061946057 -0.048288938 -0.050460823 -0.041718777 0.0037691083
-0.01102277 0.021345602 -0.06352589 -0.065942615 0.035302784 -0.008447077 -0.049769424 -0.040513147
-0.056032963 0.0071438123 0.02769504 -0.0086885635 -0.0468921 -0.061396487 -0.022569992 0.065985456
0.059678044 0.06146375 0.039403196 0.04354001 -0.07003181 -0.06009403 -0.0024414756 -0.0007052038
-0.009785918 0.038096324 0.045186084 -0.028580992 -0.037710376 0.032846022 0.029527774 0.06308484
0.007987174 -0.052173514 -0.0142698465 -0.027033327 -0.03635432 0.06308372 -0.03630448 -0.049102053
0.045494962 0.017078973 -0.030521102 0.011600353 0.05975539 0.023862582 -0.0016148342 -0.052195575
-0.011562787 -0.014779507 0.020471083 0.0125016915 0.031156044 -0.0084014945 -0.05252572 -0.006722273
0.03252042 -0.037917197 -0.06460419 0.019176492 0.010470978 -0.066584624 -0.03820161 0.0007645411
-0.013213874 0.044140548 0.027393475 0.05764603 -0.014625519 -0.055377454 -0.024360228 0.019983169
-0.057846323 -0.0019658923 -0.026841162 0.013586086 0.034853358 0.008778404 -0.057101283 0.01968623
0.031650506 -0.07165887 -0.014241046 0.04711966 -0.06546226 -0.04942863 -0.054218758 -0.01015566
-0.031398274 0.016893597 0.001583041 0.015858391 -0.01611918 0.044379454 -0.060544446 -0.0038360583
0.01340195 -0.07015861 -0.022584658 -0.046633895 -0.07084322 0.008483109 -0.042729747 -0.06645051
0.035639267 0.020525403 -0.0538547 0.048422005 -0.018752312 -0.012384784 0.0054575764 0.06609938
0.053397004 0.025750346 -0.06311176 0.057073407 0.04077378 -0.018875286 0.040040903 0.04668666
0.006101871 -0.060490966 -0.016638866 -0.055801973 -0.071071446 -0.03193174 -0.06772113 -0.044255003
-0.065099895 0.069566235 -0.050964724 -0.041295428 -0.052654877 -0.02201383 0.008882441 -0.034400508
-0.07037465 -0.05897637 0.023438541 0.045570694 0.04525043 -0.03958665 0.036680926 0.06413343

net.5.weight f4 [200]
00000000: a6d4 6a3f 7ede 5a3f 4bd2 653f dce7 663f
00000010: bcda 663f 163f 623f bb25 6a3f 906b 603f
00000020: eb45 5e3f f411 613f 9c1d 593f f7a9 643f
00000030: 73f6 5b3f dc84 603f a9ab 633f 4ff6 5c3f
00000040: 0d74 613f 2227 663f deec 5f3f 9079 6e3f
00000050: 7b9e 653f ba62 613f e3bb 5f3f 4709 543f
00000060: 263b 5d3f b005 653f 87ea 5c3f 00ea 5f3f
00000070: f9a8 5e3f 3dc2 633f b42e 5f3f 8efa 603f
00000080: 2ca4 6f3f 7988 663f 37de 613f 82d2 663f
00000090: 047c 673f 597a 643f 1e0b 633f 38bf 5d3f
000000a0: 0713 6a3f e347 633f 30c5 663f faad 6c3f
000000b0: 50bf 673f 3ad5 643f a92e 5d3f 62e2 6a3f
000000c0: 16eb 643f d17f 5d3f 46cf 643f b99b 5c3f
000000d0: 4140 643f 5c3d 693f e667 6e3f 3ad9 503f
000000e0: 1a4a 613f 79e6 633f d59f 683f 5139 623f
000000f0: 215a 673f 3875 5c3f 92a9 5d3f 40a8 633f
00000100: 5c13 613f efc3 583f 336d 663f c367 643f
00000110: 4c46 5e3f 76d4 5e3f 55e4 5d3f 4142 5f3f
00000120: 44aa 563f 4b18 6a3f 28d9 683f 6103 6b3f
00000130: 7a82 663f cd56 663f 02f7 623f 0fc8 6d3f
00000140: d860 633f e365 5a3f 35ad 643f a86b 643f
00000150: 9b42 5e3f 1874 5e3f e64c 723f 1f2b 693f
00000160: a81d 633f 416d 6b3f ce8a 6a3f fad8 623f
00000170: ed71 663f 9857 683f e2b2 5c3f 8fae 6a3f
00000180: 00ad 5e3f f97b 613f dee2 663f 49ac 623f
00000190: 6b8a 633f d571 673f 79ab 533f cb9b 633f
000001a0: f8c8 693f fd0a 683f d41a 6d3f ce2c 633f
000001b0: 54f1 623f 16d3 683f be02 593f 5285 683f
000001c0: 1ff6 573f 3516 663f 4db9 653f c1ae 603f
000001d0: ffda 653f 3795 5a3f b078 673f 8dda 603f
000001e0: 0735 5f3f 227a 653f dede 653f 72a5 5f3f
000001f0: 8653 6b3f f805 643f 9312 593f c289 673f
00000200: 97df 603f 5a3e 663f 2037 643f daff 6d3f
00000210: d861 6d3f 6e83 6b3f 03d3 5e3f d5ce 5a3f
00000220: a11b 6c3f 2e91 5d3f 2b9d 653f aa31 643f
00000230: 0338 653f 3f9f 643f 89c3 5e3f dab0 633f
00000240: 9066 6b3f 7570 6e3f 9026 653f 8346 633f
00000250: 90c4 693f d417 653f b55c 613f ff3e 633f
00000260: ba67 543f c239 693f f83c 723f e34f 603f
00000270: a261 6a3f 8301 673f 6c18 6e3f b791 5e3f
00000280: 327a 613f 2764 6c3f 0ef8 643f 9d2a 5b3f
00000290: b01f 6a3f e094 653f 4a9b 5e3f 26a2 643f
000002a0: e50d 673f 0f63 663f f4bc 6c3f 6655 613f
000002b0: a89c 613f ea5e 653f 4113 5d3f a2ff 643f
000002c0: 670c 633f 602f 6a3f 21e9 643f b406 643f
000002d0: 0670 673f 448d 623f 0c44 6b3f 5015 6a3f
000002e0: 9990 6b3f c036 5e3f 8a8c 5d3f 48e5 653f
000002f0: 90af 663f 31dc 663f bcc3 653f 4c88 693f
00000300: 1b3a 6d3f ddc8 6d3f 4ee2 5c3f 4d87 583f
00000310: becd 663f c234 643f acbd 683f 38d2 663f
0.91730726 0.85495746 0.89774007 0.9019754 0.9017751 0.8837751 0.9146382 0.8766413
0.86825436 0.8791802 0.84810805 0.89321846 0.85922927 0.8770273 0.8893381 0.8631334
0.88067704 0.8990346 0.87470806 0.9315424 0.89694947 0.8804127 0.8739607 0.82826656
0.8641838 0.89461803 0.8629536 0.8746643 0.8697658 0.8896826 0.8718064 0.87882316
0.9360988 0.9005199 0.882297 0.9016496 0.9042361 0.8924919 0.8868884 0.866199
0.91435283 0.88781565 0.90144634 0.9245297 0.90526295 0.8938786 0.8639932 0.9175168
0.8942121 0.8652316 0.89378774 0.86175114 0.89160544 0.9110925 0.93127286 0.8158146
0.88003695 0.8902355 0.90868884 0.8836871 0.903719 0.8611636 0.8658687 0.88928604
0.87920165 0.8467397 0.90010375 0.8922083 0.86826015 0.8704294 0.8667653 0.8721047
0.83853555 0.9144332 0.90956354 0.9180203 0.9004284 0.899762 0.88658154 0.9288339
0.88819647 0.85311717 0.8932679 0.8922677 0.8682038 0.86895895 0.9464859 0.9108142
0.88717127 0.91963583 0.9161805 0.8861233 0.90017587 0.9075866 0.86210454 0.91672605
0.8698273 0.8807979 0.9018992 0.88544136 0.88883084 0.9040807 0.8268352 0.88909596
0.9132228 0.90641767 0.9261906 0.8874024 0.8864949 0.9094709 0.8476981 0.9082843
0.84359926 0.89877635 0.8973587 0.87766653 0.89787287 0.85383934 0.9041853 0.8783348
0.8719029 0.89639485 0.89793193 0.87361825 0.9192432 0.8907161 0.84793967 0.90444577
0.8784117 0.8993889 0.89146614 0.92968524 0.9272742 0.9199742 0.8704073 0.8547185
0.9222966 0.8654965 0.89692944 0.8913828 0.8953859 0.8930549 0.8701711 0.8894173
0.9195337 0.93140346 0.89511967 0.8877947 0.91315556 0.89489484 0.88032085 0.88768
0.82970774 0.91103756 0.9462428 0.876219 0.91555226 0.9023668 0.93006015 0.86941093
0.8807708 0.9234032 0.89441 0.856119 0.914546 0.8968029 0.869557 0.8930992
0.90255576 0.899949 0.9247582 0.8802093 0.88129663 0.8959795 0.86357504 0.89452565
0.886908 0.9147854 0.89418226 0.8907273 0.9040531 0.88496804 0.91900706 0.9143877
0.92017514 0.8680229 0.8654257 0.8980298 0.9011164 0.90179735 0.8975179 0.912236
0.92666787 0.9288462 0.86282814 0.8458145 0.9015769 0.89143 0.90914416 0.9016452
