electricity_problem/saved_models/model_pnet0.4.pt (torch, 326692 bytes, 15 tensors)

lin.bias f4 [24]
1.5602905 1.4635781 1.426116 1.3433044 1.3463368 1.4301583 1.4629266 1.5188944
1.6034739 1.6544784 1.6604729 1.87277 1.734162 1.8133574 1.773937 1.7870803
1.7733452 1.7924423 1.8191613 1.7934071 1.7709414 1.8799921 1.697569 1.7261227
00000000: 99b7 c73f 8756 bb3f f88a b63f 66f1 ab3f
00000010: c454 ac3f 6d0f b73f 2e41 bb3f 226b c23f
00000020: a23e cd3f f3c5 d33f 608a d43f edb6 ef3f
00000030: 05f9 dd3f 181c e83f 5e10 e33f 0cbf e43f
00000040: fafc e23f c06e e53f 47da e83f 5d8e e53f
00000050: 35ae e23f 95a3 f03f f149 d93f 97f1 dc3f

net.0.weight f4 [200, 149]
0.025241228 0.053104118 0.03325968 -0.07885704 -0.089922644 -0.054052684 0.010643677 0.037988953
0.03462064 -0.04111923 -0.008101364 0.071440354 -0.035791688 0.04305274 0.025765369 0.021553492
0.049513455 -0.022171315 0.0071921702 -0.0125910835 0.022020657 0.015403564 -0.017771421 0.078224
0.016752923 0.05288551 0.05864578 0.0006299479 0.048059154 -0.07851926 0.033175748 -0.05369138
-0.036090866 -0.03332081 0.009890262 0.04001542 0.0056040995 -0.0345478 0.027013304 -0.06012244
0.024334738 0.038784634 0.06725143 0.01067915 0.049948942 -0.058374714 0.040948898 0.052999176
0.012903988 -0.09619591 0.052106623 -0.055252034 -0.036660224 0.048980907 0.04122689 -0.03140746
0.026239667 0.045424595 -0.017160201 -0.019294772 -0.05457646 0.046524744 0.0351662 -0.020554682
-0.08460686 0.040232234 -0.00052938215 -0.086537816 -0.060614184 0.04562604 0.04787185 0.062439825
0.042182762 0.0625211 -0.012781017 0.087315455 -0.045241065 0.009372315 0.0613262 0.053050585
0.06605143 -0.023910243 -0.06366256 0.05628536 -0.01728772 0.0026511834 0.005509012 0.061561245
-0.0131863095 -0.01884574 0.051822633 -0.068254486 0.06541519 0.032102775 0.06330997 0.031001613
-0.0312475 -0.026036017 -0.026852692 -0.058540355 -0.022316344 0.0031869097 -0.035384603 -0.019366475
0.048529074 0.057223167 0.060376715 -0.08275709 0.01889872 -0.044653233 0.017913591 0.06662146
0.039356872 0.062915936 -0.0357666 -0.022785475 0.08163904 -0.028766232 -0.05660856 -0.009291376
0.026711725 0.033955205 -0.004700832 -0.034931682 0.03891028 -0.048844032 -0.022658156 0.032508954
0.06334574 -0.048744205 0.0069930363 -0.042924017 -0.018181358 -0.08353804 0.051540595 -0.043396886
-0.01691089 0.023358056 0.03323541 0.022412851 0.046626605 0.07783717 -0.03674882 -0.030641733
-0.07548112 0.053002752 0.049566414 -0.080889694 0.014187557 -0.05136017 0.017505571 0.059361413
-0.048516784 -0.0771234 0.046313778 -0.06891646 -0.00016079597 0.07687835 -0.0048686042 -0.01336924
0.017477727 -0.0012455101 0.022002304 -0.06468213 0.08461512 -0.06257054 0.048634347 0.012693955
0.017283257 0.006345578 -0.026761418 -0.07793493 -0.04964957 -0.0056235967 -0.049511746 -0.038045347
-0.069465525 -0.061664525 -0.06788431 0.046455204 -0.049036678 -0.022526689 0.052397795 0.06939608
-0.029996308 -0.02993168 -0.039899126 -0.07317886 -0.019307438 -0.021117948 0.022857288 -0.04498413
-0.06491445 0.04628593 0.08312712 0.063161 0.011735974 -0.02799939 -0.07785333 0.083870985
-0.031205961 -0.055019602 -0.038787816 -0.028681127 -0.046628635 0.034987472 0.05979411 -0.06712283
-0.05076678 -0.051139012 0.006576043 0.05372997 -0.06611845 -0.02744875 -0.013787515 0.021322157
-0.021438105 0.06294633 0.04013412 0.08315745 0.00064445066 -0.0674638 -0.004690237 0.038901042
-0.035275947 -0.028874414 -0.047963157 0.0028735846 -0.02948801 0.0423625 0.033754133 0.06743412
0.079210766 0.059894707 -0.065743014 0.029081894 0.01999337 0.039145734 0.040633302 -0.044352
0.08020573 -0.017361103 0.054985087 0.04958243 -0.029104957 -0.04347415 0.011541422 -0.015460879
-0.06366309 -0.04589817 0.01673254 -0.025042586 0.020145135 -0.04937324 0.05046435 0.026306873
00000000: b1c6 ce3c b483 593d 4d3b 083d cd7f a1bd
00000010: 5d29 b8bd 5966 5dbd d162 2e3c 4e9a 1b3d
00000020: 5fce 0d3d a36c 28bd 95bb 04bc 524f 923d
00000030: 4e9a 12bd 1258 303d e511 d33c f390 b03c
00000040: 9fce 4a3d 9ea0 b5bc 4cac eb3b d54a 4ebc
00000050: aa64 b43c 3b5f 7c3c 5f95 91bc e833 a03d
00000060: 6d3d 893c 7a9e 583d 8f36 703d 1723 253a
00000070: add9 443d b5ce a0bd 4be3 073d 7eeb 5bbd
00000080: 04d4 13bd 677b 08bd c40a 223c 36e7 233d
00000090: 98a2 b73b fe81 0dbd 014b dd3c f342 76bd
000000a0: a559 c73c a3dc 1e3d 1ebb 893d 9af7 2e3c
000000b0: 4397 4c3d 531a 6fbd 08ba 273d aa15 593d
000000c0: 406b 533c 5c02 c5bd c16d 553d f54f 62bd
000000d0: 0829 16bd 34a0 483d 87dd 283d 1ca5 00bd
000000e0: 92f4 d63c 240f 3a3d 8d93 8cbc 1210 9ebc
000000f0: 918b 5fbd bb90 3e3d 6f0a 103d 4b62 a8bc
00000100: 5d46 adbd 8eca 243d 3cc6 0aba bd3a b1bd
00000110: 9446 78bd 5fe2 3a3d 4615 443d e7c0 7f3d
00000120: d5c7 2c3d 100b 803d 7967 51bc 72d2 b23d
00000130: b24e 39bd 578e 193c 2e31 7b3d 924b 593d
00000140: f945 873d 6adf c3bc 8461 82bd 7a8b 663d
00000150: fa9e 8dbc 7abf 2d3b f184 b43b a527 7c3d
00000160: 640b 58bc 6262 9abc f843 543d 02c9 8bbd
00000170: 66f8 853d 337e 033d a8a8 813d 18f7 fd3c
00000180: c2fa ffbc 7c49 d5bc 2dfa dbbc 03c8 6fbd
00000190: c4d0 b6bc 79db 503b 72ef 10bd 71a6 9ebc
000001a0: 6cc6 463d d762 6a3d 934d 773d 8d7c a9bd
000001b0: 7dd1 9a3c 4fe6 36bd 86bf 923c d570 883d
000001c0: ac34 213d 12da 803d 0080 12bd 9ba8 babc
000001d0: 5e32 a73d 29a7 ebbc 61de 67bd db3a 18bc
000001e0: 8cd2 da3c 9d14 0b3d 7009 9abb 8614 0fbd
000001f0: 6360 1f3d ae10 48bd 999d b9bc 1c28 053d
00000200: 69bb 813d 01a8 47bd d725 e53b 18d1 2fbd
00000210: 12f1 94bc fe15 abbd 3b1c 533d efc0 31bd
00000220: b588 8abc 6559 bf3c da21 083d 289b b73c
00000230: 8afb 3e3d 1869 9f3d ee85 16bd 5f04 fbbc
00000240: d895 9abd 6a19 593d 2706 4b3d 7fa9 a5bd
00000250: ed72 683c 0b5f 52bd d867 8f3c f424 733d
00000260: 89b9 46bd e0f2 9dbd 84b3 3d3d 1324 8dbd
00000270: 579b 28b9 6572 9d3d d088 9fbb a80a 5bbc
00000280: 732d 8f3c 6240 a3ba 2d3e b43c 1178 84bd
00000290: b14a ad3d fc24 80bd cf34 473d 4efa 4f3c
000002a0: 9e95 8d3c 91ee cf3b c33a dbbc 599c 9fbd
000002b0: 595d 4bbd 2646 b8bb d4cc 4abd 70d5 1bbd
000002c0: f143 8ebd f193 7cbd ee06 8bbd d047 3e3d
000002d0: afda 48bd e489 b8bc 129f 563d 881f 8e3d
000002e0: d1ba f5bc 4833 f5bc 446d 23bd ccde 95bd
000002f0: a22a 9ebc 8cff acbc 353f bb3c 4741 38bd
00000300: def1 84bd 5196 3d3d 8d3e aa3d 8e5a 813d
00000310: 3e48 403c fa5e e5bc 9171 9fbd 8dc4 ab3d
00000320: a5a3 ffbc 3c5c 61bd f9df 1ebd aff4 eabc
00000330: abfd 3ebd 064f 0f3d abea 743d b277 89bd
00000340: d4f0 4fbd 2477 51bd d97b d73b f513 5c3d
00000350: 1c69 87bd 33dc e0bc 08e5 61bc ceab ae3c
00000360: f79e afbc 01ea 803d ad63 243d 744e aa3d
00000370: 5af0 283a 762a 8abd 8fb0 99bb b356 1f3d
00000380: 837d 10bd 098a ecbc 0475 44bd c052 3c3b
00000390: d790 f1bc 4d84 2d3d c641 0a3d e61a 8a3d
000003a0: 4139 a23d 2754 753d 46a4 86bd 273d ee3c
000003b0: 23c9 a33c 4757 203d 1b6f 263d 71aa 35bd
000003c0: e742 a43d df38 8ebc 0b38 613d f216 4b3d
000003d0: 856d eebc f311 32bd 3c18 3d3c a04f 7dbc
000003e0: cb61 82bd b8ff 3bbd ae12 893c 1c26 cdbc
000003f0: 6907 a53c 983b 4abd b5b3 4e3d 8381 d73c

net.0.bias f4 [200]
0.057509918 0.042106252 -0.07096409 -0.060733132 -0.06894544 -0.018617779 -0.029559791 0.042789135
-0.014382597 -0.026386028 0.032340545 0.07410217 -0.031918053 0.036804315 0.018344821 0.002464364
0.038190804 -0.067430444 -0.062407225 -0.035422057 -0.03931045 -0.05310621 -0.0051164245 -0.022357803
-0.038112327 0.06752725 0.05592338 0.08327954 0.07793301 0.06625804 -0.053952012 0.07196112
-0.040463205 0.03408571 -0.07663158 -0.012884784 -0.01939463 0.00625752 0.010771487 -0.078319624
0.03907857 -0.07452935 0.07096524 -0.031268094 -0.021017574 0.04489249 -0.021684077 0.06462394
0.015318068 -0.05137559 0.02840874 -0.056546018 0.06949358 -0.0033419265 0.05865449 0.01158378
-0.008099109 -0.016783249 0.001146763 0.011197274 -0.006434495 0.005805286 0.04714916 0.035146575
0.029548502 -0.06346425 0.068191014 -0.06170107 0.03453394 -0.07655925 -0.04542254 -0.024718484
-0.010601814 -0.074416995 0.047799673 -0.08661382 0.07972618 -0.07996716 0.028847327 -0.0065570883
0.016404947 -0.07599834 0.058559913 -0.04039302 0.077008985 -0.059666853 0.007652173 0.0029728387
0.036839876 -0.034889754 0.0027261819 -0.05336419 -0.026738195 0.06641964 -0.010368376 0.0723076
0.053513713 -0.011132799 0.059837963 -0.04436833 -0.033276603 -0.032910462 -0.0074348445 -0.045910988
0.027467472 0.07390533 -0.023634799 0.056950293 0.025685549 -0.07438711 0.07351331 -0.044607908
-0.03310539 -0.0515793 -0.035895716 -0.05748891 0.059150252 -0.020127336 -0.058042303 0.04941479
0.06967288 -0.055404514 0.034442265 -0.05705914 -0.0072058337 0.043256655 0.0022242677 -0.046581816
-0.043434113 0.017589597 -0.069581226 -0.011133029 0.052310105 -0.036677618 -0.051370572 -0.06982386
0.040424615 -0.058062136 -0.050426956 0.054002833 -0.0032320828 0.04760005 -0.057676133 -0.0050680046
0.07803591 -0.032215387 0.045286424 -0.046166 -0.040162075 0.009787493 -0.07931567 -0.020134859
0.002113927 0.017444074 0.030238679 0.06858746 -0.021763403 -0.07324156 -0.014496896 -0.06600646
0.03266986 -0.0041585253 0.062320873 -0.053696185 -0.020938175 -0.027848383 0.027482843 0.06838448
-0.071829945 0.073225066 -0.040406004 0.04664062 0.019481864 -0.028490787 0.010886936 0.011637137
-0.025443077 -0.041411914 0.08068714 -0.0061063403 0.060648687 -0.07430423 -0.03028566 0.058237955
0.04856379 -0.084895246 -0.07297416 -0.07787972 0.05548496 -0.06006787 0.040343102 -0.02570523
0.0576696 0.07514725 0.07452742 -0.05887531 -0.0024264033 0.009648494 0.07655853 0.011327917
00000000: 858f 6b3d 9b77 2c3d 9f55 91bd 4ec3 78bd
00000010: 4433 8dbd 5084 98bc 6027 f2bc a943 2f3d
00000020: fca4 6bbc 8327 d8bc 8577 043d e1c2 973d
00000030: 81bc 02bd 1fc0 163d e147 963c 2b81 213b
00000040: f66d 1c3d f918 8abd b89e 7fbd b816 11bd
00000050: ff03 21bd e685 59bd aea7 a7bb b627 b7bc
00000060: ac1b 1cbd ba4b 8a3d ea0f 653d 778e aa3d
00000070: 589b 9f3d 4cb2 873d c9fc 5cbd 5a60 933d
00000080: bfbc 25bd 759d 0b3d 05f1 9cbd b31a 53bc
00000090: 7de1 9ebc e20b cd3b e47a 303c 0a66 a0bd
000000a0: da10 203d d8a2 98bd 3956 913d f912 00bd
000000b0: 0c2d acbc 30e1 373d cea2 b1bc 8e59 843d
000000c0: a2f8 7a3c 366f 52bd 72b9 e83c cc9c 67bd
000000d0: a652 8e3d 3904 5bbb b13f 703d e5c9 3d3c
000000e0: 20b2 04bc 067d 89bc fb4e 963a c574 373c
000000f0: 75d8 d2bb 453a be3b 7a1f 413d dbf5 0f3d
00000100: b30f f23c 8bf9 81bd bba7 8b3d 43ba 7cbd
00000110: 7673 0d3d 19cb 9cbd fc0c 3abd 6b7e cabc
00000120: 3bb3 2dbc f067 98bd 97c9 433d 9662 b1bd
00000130: 7b47 a33d d3c5 a3bd 3b51 ec3c d8dc d6bb
00000140: ab63 863c 05a5 9bbd 85dc 6f3d 2773 25bd
00000150: e3b6 9d3d 3b65 74bd 14bf fa3b f5d3 423b
00000160: 69e5 163d 8fe8 0ebd bea9 323b 6994 5abd
00000170: 0f0a dbbc 0507 883d 1fe0 29bc 0216 943d
00000180: 3231 5b3d 5866 36bc a718 753d 91bb 35bd
00000190: 0c4d 08bd 1fcd 06bd ff9f f3bb 290d 3cbd
000001a0: 7703 e13c ad5b 973d c49d c1bc b644 693d
000001b0: 806a d23c 4558 98bd 258e 963d c8b6 36bd
000001c0: 8499 07bd d144 53bd 6307 13bd 7e79 6bbd
000001d0: 8947 723d 15e2 a4bc c4bd 6dbd 2a67 4a3d
000001e0: a8b0 8e3d d8ef 62bd 5513 0d3d d8b6 69bd
000001f0: ea1e ecbb e42d 313d 05c5 113b 93cc 3ebd
00000200: f8e7 31bd 0f18 903c 9a80 8ebd 4f67 36bc
00000210: 1f43 563d 453b 16bd f369 52bd d0ff 8ebd
00000220: 4894 253d 90d2 6dbd 7f8c 4ebd 1332 5d3d
00000230: 5ad1 53bb 45f8 423d cf3d 6cbd 8111 a6bb
00000240: 4bd1 9f3d 48f4 03bd 427e 393d 8f18 3dbd
00000250: fd80 24bd b95b 203c 4170 a2bd dcf1 a4bc
00000260: cf89 0a3b e0e6 8e3c 1bb7 f73c 9577 8c3d
00000270: 2a49 b2bc acff 95bd 6484 6dbc 652e 87bd
00000280: d5d0 053d 3d44 88bb 2c44 7f3d 88f0 5bbd
00000290: 8986 abbc 4b22 e4bc b323 e13c 2a0d 8c3d
000002a0: 941b 93bd 06f7 953d c480 25bd 3c0a 3f3d
000002b0: 6e98 9f3c 8365 e9bc 1f5f 323c b1a9 3e3c
000002c0: 006e d0bc 8a9f 29bd 4d3f a53d b217 c8bb
000002d0: c26a 783d d12c 98bd a219 f8bc ec8a 6e3d
000002e0: d3ea 463d 8fdd adbd 7a73 95bd 677f 9fbd
000002f0: 3344 633d ba09 76bd cf3e 253d c693 d2bc
00000300: f536 6c3d cde6 993d d5a1 983d 3d27 71bd
00000310: 4b04 1fbb b814 1e3c b8ca 9c3d ba98 393c

net.1.weight f4 [200]
0.9888553 1.0136248 0.96824205 0.98458993 1.0035554 0.98719513 0.9877063 0.9902559
0.9781161 1.009261 0.99554795 0.9858629 1.0097959 0.9944716 1.004854 1.004278
1.0084021 0.9768337 0.99101454 1.0036924 1.0183321 0.9935316 0.99161726 0.97755957
0.98030543 1.0010874 0.99158937 1.0051925 1.006302 0.9989847 1.0133226 0.99180686
0.97207624 1.0176592 0.98394054 1.0063176 0.98565817 0.9956892 1.0096877 0.9911851
1.012948 1.017344 0.9783569 0.97992676 1.0259705 1.0214343 1.0126494 1.0068274
1.0035039 1.0204304 0.98398334 0.9752583 1.0135106 1.0272529 1.0040715 1.0001655
1.0029341 1.020851 0.9946621 1.0250715 0.97642076 0.99140227 1.0134172 1.0206232
0.9890288 0.99176794 0.9916202 1.0202296 1.0066987 0.993498 1.0145925 0.99201643
1.021069 1.0170771 1.003627 1.0127466 1.0120202 0.9835653 0.99712676 1.0080321
1.0057032 0.99040866 0.98440176 1.0017447 1.006835 1.017714 1.0160295 1.0196285
0.9873113 1.0087584 1.0038742 0.99235296 1.0014277 1.0163668 1.0064412 0.98761135
1.014494 1.0029627 0.98732746 0.9954338 0.9846535 1.0250552 0.9958287 0.9996695
0.99403644 0.9798114 1.0013639 0.98895025 1.0032996 1.0096791 0.9996111 1.0089139
0.9916767 0.9936487 1.0101149 1.0130297 0.997581 1.013144 0.99132675 1.0099591
0.9826412 0.9763353 1.0129907 1.0025953 1.0121858 1.0170592 0.9937019 1.0097187
0.99949884 1.0171671 1.0174478 0.9943051 1.0162679 1.0053656 0.9758004 1.0079672
0.996397 1.0011224 1.01682 0.99331003 1.0127609 1.0060669 0.9837371 0.9998018
1.0033866 0.9902173 1.0037968 1.007095 1.0015773 1.0162641 0.984174 1.0134166
0.9898838 1.0106748 1.0009853 1.0071373 1.013147 0.9719172 1.0135963 1.012282
1.0086087 0.9938905 1.0058993 1.014315 1.0214281 0.9950384 0.99844426 0.9953239
0.98628014 0.97576207 0.96792406 0.97486246 0.9844737 1.027133 0.98343164 1.0009302
0.99796087 0.99738044 0.99130774 1.0121019 1.0048862 1.0011102 1.0141562 0.9967253
0.9933771 0.99665135 0.98247945 1.0079612 1.0117793 1.0053172 0.9970072 0.98717964
1.0224916 0.99644893 1.0072644 0.99521416 1.0054269 0.977824 1.008672 1.0268053
00000000: 9f25 7d3f 75be 813f b6de 773f 160e 7c3f
00000010: 8174 803f d2b8 7c3f 52da 7c3f 6981 7d3f
00000020: d165 7a3f 772f 813f 3bdc 7e3f 8361 7c3f
00000030: fe40 813f b195 7e3f 0e9f 803f 2e8c 803f
00000040: 5213 813f c611 7a3f 21b3 7d3f fe78 803f
00000050: b558 823f 1658 7e3f a1da 7d3f 5841 7a3f
00000060: 4cf5 7a3f a223 803f cdd8 7d3f 26aa 803f
00000070: 81ce 803f 76bd 7f3f 8eb4 813f 0ee7 7d3f
00000080: fdd9 783f a842 823f 87e3 7b3f 04cf 803f
00000090: 1854 7c3f 7de5 7e3f 723d 813f 4fbe 7d3f
000000a0: 48a8 813f 5438 823f 9975 7a3f 7bdc 7a3f
000000b0: 0053 833f 5cbe 823f 7f9e 813f b8df 803f
000000c0: d172 803f 779d 823f 55e6 7b3f 87aa 793f
000000d0: b7ba 813f 067d 833f 6a85 803f 6c05 803f
000000e0: 2560 803f 3fab 823f 2da2 7e3f 8b35 833f
000000f0: b6f6 793f 8acc 7d3f a8b7 813f c8a3 823f
00000100: fe30 7d3f 81e4 7d3f d2da 7d3f e296 823f
00000110: 81db 803f e355 7e3f 2bde 813f caf4 7d3f
00000120: 64b2 823f 952f 823f d976 803f aea1 813f
00000130: e189 813f efca 7b3f b343 7f3f 3207 813f
00000140: e2ba 803f 6c8b 7d3f c101 7c3f 2c39 803f
00000150: f8df 803f 7444 823f 410d 823f 3083 823f
00000160: 6fc0 7c3f ff1e 813f f37e 803f d80a 7e3f
00000170: c82e 803f 4f18 823f 11d3 803f 19d4 7c3f
00000180: f0da 813f 1561 803f 7ec1 7c3f c0d4 7e3f
00000190: 4012 7c3f 0235 833f a1ee 7e3f 57ea 7f3f
000001a0: 2c79 7e3f ebd4 7a3f b12c 803f d82b 7d3f
000001b0: 1f6c 803f 2a3d 813f 83e6 7f3f 1724 813f
000001c0: 86de 7d3f c35f 7e3f 724b 813f f5aa 813f
000001d0: 7861 7f3f b4ae 813f 97c7 7d3f 5746 813f
000001e0: 608e 7b3f 1cf1 793f aea9 813f 0b55 803f
000001f0: 4e8f 813f ff2e 823f 3f63 7e3f 763e 813f
00000200: 28df 7f3f 8832 823f bb3b 823f c78a 7e3f
00000210: 1115 823f d2af 803f 0ece 793f 1205 813f
00000220: e013 7f3f c724 803f 2827 823f 9149 7e3f
00000230: 26a2 813f cdc6 803f 32d6 7b3f 03f3 7f3f
00000240: f96e 803f e27e 7d3f 6a7c 803f 7de8 803f
00000250: af33 803f f114 823f d4f2 7b3f a3b7 813f
00000260: 0669 7d3f cb5d 813f 4920 803f e0e9 803f
00000270: cdae 813f 91cf 783f 86bd 813f 7592 813f
00000280: 171a 813f 9c6f 7e3f 4fc1 803f 13d5 813f
00000290: 28be 823f d6ba 7e3f 0b9a 7f3f 8ccd 7e3f
000002a0: db7c 7c3f 8bcb 793f dfc9 773f 9690 793f
000002b0: 7806 7c3f 1879 833f 2dc2 7b3f 7b1e 803f
000002c0: 5d7a 7f3f 5354 7f3f 58c6 7d3f 8e8c 813f
000002d0: 1ca0 803f 6124 803f dfcf 813f 6429 7f3f
000002e0: f64d 7e3f 8b24 7f3f c683 7b3f df04 813f
000002f0: fc81 813f 3cae 803f dd3b 7f3f ceb7 7c3f
00000300: 01e1 823f 4717 7f3f 0aee 803f 5bc6 7e3f
00000310: d4b1 803f ac52 7a3f 2a1c 813f 5b6e 833f

net.1.bias f4 [200]
0.008086498 0.0061134333 -0.033561617 -0.00050795794 -0.026352158 0.0007511943 -0.0020750149 0.018800152
0.002927373 0.023986246 -0.013560136 0.0025294777 0.002198951 -0.04014166 0.022841796 -0.009615157
0.01645895 -0.023217762 -0.02263729 0.0031240094 -0.00062860956 0.020023165 -0.010885227 0.0024263554
0.010504583 -0.009727307 -0.03441233 -0.004446666 0.042645667 0.0052476013 -0.023013942 -0.05201328
-0.019263789 -0.009414903 0.014602555 0.008559331 -0.0017348421 -0.012874735 0.029072762 -0.017493
0.020850934 0.019472841 -0.016719049 -0.058808684 0.001188212 0.036882974 -0.006731075 -0.03591525
0.019905098 0.008868583 0.017958745 0.0226859 0.052845594 0.039235096 0.029166784 -0.043032948
0.002578636 -0.0025419171 0.016708706 0.018591966 -0.0136470115 0.014793239 0.009231839 0.034649715
-0.007865862 0.008340883 -0.006132166 -0.002407802 0.026418602 0.0021549857 -1.4052665e-05 -0.003179618
-0.01343538 0.022382407 -0.0148712965 -0.0134856105 0.03235533 -0.00052358664 0.0013807265 -0.004831686
0.023765396 -0.0073680948 0.014243012 -0.032066096 -0.017461186 0.019246185 0.013088512 0.046766907
0.019138874 -0.0015696422 0.023904452 0.025919003 -0.004731784 0.014519666 0.03155692 0.013190542
-0.004415976 -0.012795865 0.0022600542 0.021755839 -0.011697164 0.017000955 0.009301365 0.009711328
-0.0092052445 0.0060771443 0.017433528 0.014800223 -0.0035602013 -0.01764655 -0.012458974 0.0058360617
-0.004812171 -0.02125592 0.013865452 0.005570692 -0.0025438457 0.031882424 -0.00074660435 -0.018364158
-0.006794212 0.0030008135 -0.00021548395 0.007362502 -0.020685151 0.014092955 -0.012542879 -0.009626085
-0.01338199 -0.010607715 0.015494902 -0.0128364945 0.00013544853 0.0112925945 -0.0004426296 0.0036864132
0.03690546 0.0136889955 0.0005502757 -0.006547173 0.0106865 0.033304915 0.005297 0.006638374
0.015503111 -0.017585624 0.008418514 0.011201872 -0.026606686 0.0047689457 0.02088555 0.0032643029
0.022398768 0.0047319806 0.027130142 -0.02169544 0.038278278 0.007974536 0.0071147135 -0.038973626
0.011542089 0.000550205 0.026195802 0.02718932 0.003913117 0.010900008 -0.0042286813 0.009101649
-0.0027467303 -0.034391433 0.013979547 -0.009017931 -0.008784437 0.004865831 0.006168157 0.006375098
-0.023415297 -0.016378408 -0.0038293144 -0.036032233 -0.002613276 -0.035679866 0.035219304 -0.030015126
0.008667089 -0.0038471664 -0.016892808 3.498123e-05 0.0002442409 0.009423469 -0.020884164 0.015989762
-0.006502614 -0.0052043204 -0.0029905057 -0.032355994 0.0083538415 -0.007629625 -0.009619613 0.019521462
00000000: 3b7d 043c 3253 c83b e877 09bd 7b28 05ba
00000010: 7be0 d7bc cceb 443a f9fc 07bb c702 9a3c
00000020: 2bd9 3f3b ce7e c43c 552b 5ebc 98c5 253b
00000030: 471c 103b 956b 24bd b81e bb3c e488 1dbc
00000040: ebd4 863c 2d33 bebc d771 b9bc 2ebc 4c3b
00000050: 46c9 24ba 9f07 a43c f357 32bc 7d03 1f3b
00000060: 6a1b 2c3c 485f 1fbc f1f3 0cbd 57b5 91bb
00000070: 39ad 2e3d 12f4 ab3b bc87 bcbc e10b 55bd
00000080: 18cf 9dbc f740 1abc 8e3f 6f3c 703c 0c3c
00000090: a463 e3ba 8df0 52bc 002a ee3c 7b4d 8fbc
000000a0: 94cf aa3c 8285 9f3c 63f6 88bc 60e1 70bd
000000b0: c7bd 9b3a 9a12 173d 5990 dcbb df1b 13bd
000000c0: 0410 a33c 884d 113c 381e 933c c8d7 b93c
000000d0: 9f74 583d fbb4 203d 2eef ee3c 5143 30bd
000000e0: 55fe 283b 4b96 26bb b2e0 883c 2e4e 983c
000000f0: b797 5fbc 575f 723c 2441 173c dcec 0d3d
00000100: d1df 00bc 33a8 083c 56f0 c8bb 37cc 1dbb
00000110: d36b d83c a93a 0d3b bdc3 6bb7 2361 50bb
00000120: 1120 5cbc 4f5b b73c bda6 73bc c0f2 5cbc
00000130: 0687 043d 4e41 09ba 7ef9 b43a 1f53 9ebb
00000140: a6af c23c 0f70 f1bb 865b 693c bd57 03bd
00000150: c30a 8fbc 2daa 9d3c 3371 563c a88e 3f3d
00000160: 21c9 9c3c 74bc cdba 45d3 c33c 1754 d43c
00000170: 150d 9bbb e5e3 6d3c d441 013d 251d 583c
00000180: e4b3 90bb bfa5 51bc 6b1d 143b 4d39 b23c
00000190: 76a5 3fbc 9645 8b3c c164 183c 431c 1f3c
000001a0: 98d1 16bc c822 c73b c2d0 8e3c a27c 723c
000001b0: 4452 69bb 7f8f 90bc b920 4cbc 6f3c bf3b
000001c0: 6baf 9dbb e520 aebc ec2b 633c 5a8a b63b
000001d0: a6b6 26bb 2597 023d c5b7 43ba 6e70 96bc
000001e0: fba1 debb 4ca9 443b 88f3 61b9 2541 f13b
000001f0: e873 a9bc 23e6 663c a680 4dbc bab6 1dbc
00000200: 2240 5bbc fbcb 2dbc 54de 7d3c 2950 52bc
00000210: 3007 0e39 9304 393c bd10 e8b9 c097 713b
00000220: 2e2a 173d cf47 603c 6140 103a ab89 d6bb
00000230: 6e16 2f3c bc6a 083d 7592 ad3b b886 d93b
00000240: c300 7e3c ba0f 90bc cfed 093c 0e88 373c
00000250: 44f6 d9bc d144 9c3b 2c18 ab3c eaed 553b
00000260: 9f7d b73c bb0e 9b3b 0840 de3c a3ba b1bc
00000270: afc9 1c3d a1a7 023c 8b22 e93b cfa2 1fbd
00000280: 081b 3d3c a23b 103a 9498 d63c 23bc de3c
00000290: 9b39 803b f295 323c c090 8abb 151f 153c
000002a0: 7d02 34bb 08de 0cbd 780a 653c f2bf 13bc
000002b0: 99ec 0fbc 8d71 9f3b 401e ca3b 33e6 d03b
000002c0: 70d1 bfbc 032c 86bc 3cf5 7abb 8996 13bd
000002d0: 7f43 2bbb 0d25 12bd 1e42 103d 48e2 f5bc
000002e0: 6800 0e3c be20 7cbb c962 8abc cfb8 1238
000002f0: 750d 8039 e564 1a3c 4415 abbc f6fc 823c
00000300: e113 d5bb 0189 aabb 5cfc 43bb b887 04bd
00000310: 8dde 083c ef01 fabb 959b 1dbc 79eb 9f3c

net.1.running_mean f4 [200]
-0.4555996 0.2647668 -0.15998615 -0.1657897 -0.23291267 1.3486716 0.0958119 -0.6933457
-0.093052156 -0.1142027 -0.4171706 0.20682402 0.10415327 0.30505288 -0.31548807 -0.46092528
0.24194248 -0.039713446 0.9327074 0.029764371 0.03760291 -0.27301654 -0.24783453 -0.15949689
-0.45312962 -0.33143714 -0.16701226 0.21973854 -0.2791386 -0.45728207 0.6023541 -0.11723149
0.5292528 -0.35950306 -0.054368682 -0.39984012 -0.4700369 -0.1349025 -0.7231227 -0.06730305
-0.1824582 -0.15603836 0.07743267 0.040575724 -0.21630473 0.22942846 -0.039889265 0.35103628
-0.1025319 0.041230176 -0.8986349 -0.109617166 -0.95960313 0.045168534 0.047844294 -0.15330327
0.16853611 0.38645127 -0.20344396 0.24184607 -0.3044264 -0.5497903 0.66266835 0.57463616
0.027726792 0.11363792 -0.09437647 0.2689542 0.15010071 -0.29117548 -0.2591198 0.26050878
0.05228758 0.042727835 -0.06502808 -0.22740003 0.07082886 -0.48445463 -0.4536395 0.32937455
0.21050918 -0.47778022 -0.033612303 -0.4417712 0.005796088 -0.0054163565 1.0850506 0.15909648
-0.14903146 0.06264129 0.83425534 -0.40405363 -0.05084682 0.26585796 0.25800973 -0.32006344
0.6757675 0.23434749 -0.27919543 -0.26983854 -0.08840135 0.071221225 -0.008661847 -0.29602158
-0.058776185 -0.27882323 0.013230593 0.27077726 0.14806029 -0.3614811 -0.072315 0.24341902
0.18127684 0.27374262 -0.20480971 0.0634496 -0.043145932 0.6361343 0.23360813 -0.032328855
-0.14653833 -0.41199392 -0.1679987 0.5113529 0.25335076 0.43701297 0.330431 0.10578451
0.13151513 -0.22080229 -0.12521796 -0.16874315 0.44885474 -0.009571643 0.08296325 0.3755598
0.43834156 0.34350958 0.03362394 -0.21922085 0.119799815 0.3491166 -0.13404395 -0.08706157
0.14339142 -0.0849887 0.0901157 0.022116475 0.09182796 -0.18938293 0.4023571 0.13735144
-0.7391425 1.2492731 0.14414416 0.20032786 -0.2997348 0.36456206 -0.21093522 -0.06650144
-0.22118604 -0.46300772 0.1470979 -0.15357831 0.48629078 -0.10914728 0.5757161 -0.6925748
-0.23302235 0.07882881 -0.9387039 0.1341591 0.2956196 0.5295872 0.5490354 -0.060266625
0.036881026 0.031259153 0.14140137 0.08632643 0.20948188 0.5360164 0.57155824 0.96712434
0.19146977 -0.74416673 -0.01744594 0.012145496 -0.05569852 0.14927723 -0.37504584 -0.004482062
0.4476299 0.31973514 0.10005114 0.18816908 0.20760319 0.56294173 0.14082772 0.11942647
00000000: 5a44 e9be 848f 873e 69d3 23be c6c4 29be
00000010: a980 6ebe 45a1 ac3f 0839 c43d 1b7f 31bf
00000020: 2192 bebd 1be3 e9bd 6397 d5be adc9 533e
00000030: 4f4e d53d e42f 9c3e a787 a1be 66fe ebbe
00000040: c5bf 773e 91aa 22bd eac5 6e3f 69d4 f33c
00000050: 8205 1a3d d3c8 8bbe 56c8 7dbe 2753 23be
00000060: 9b00 e8be 21b2 a9be 4305 2bbe 2403 613e
00000070: 41eb 8ebe e020 eabe e133 1a3f 1017 f0bd
00000080: 1d7d 073f c910 b8be b2b1 5ebd d8b7 ccbe
00000090: ada8 f0be e223 0abe 921e 39bf 2ed6 89bd
000000a0: 53d6 3abe 85c8 1fbe 0595 9e3d bb32 263d
000000b0: fd7e 5dbe 4bef 6a3e ed62 23bd 07bb b33e
000000c0: 3ffc d1bd f9e0 283d f00c 66bf f77e e0bd
000000d0: 8da8 75bf a402 393d 61f8 433d 88fb 1cbe
000000e0: bb94 2c3e f1dc c53e 9d53 50be 7fa6 773e
000000f0: c7dd 9bbe 0fbf 0cbf a2a4 293f 5b1b 133f
00000100: 4c23 e33c ffba e83d 7348 c1bd 5db4 893e
00000110: 00b4 193e f414 95be 5aab 84be 6861 853e
00000120: 802b 563d 6203 2f3d 712d 85bd 8edb 68be
00000130: b90e 913d 700a f8be 7043 e8be c8a3 a83e
00000140: b88f 573e 9c9f f4be 0ead 09bd d62f e2be
00000150: 1ced bd3b b17b b1bb f0e2 8a3f 30ea 223e
00000160: b49b 18be 144a 803d c291 553f 1ee0 cebe
00000170: c144 50bd 891e 883e da19 843e 5bdf a3be
00000180: 19ff 2c3f caf8 6f3e b4f2 8ebe 4728 8abe
00000190: c40b b5bd 6fdc 913d 6bea 0dbc 2490 97be
000001a0: 4cbf 70bd ebc1 8ebe 21c5 583c 51a3 8a3e
000001b0: 1e9d 173e 0d14 b9be e319 94bd d642 793e
000001c0: a3a0 393e fe27 8c3e a3b9 51be ddf1 813d
000001d0: cab9 30bd b3d9 223f f836 6f3e 436b 04bd
000001e0: 250e 16be def0 d2be da07 2cbe 06e8 023f
000001f0: 31b7 813e 2ac0 df3e 412e a93e 8da5 d83d
00000200: e7ab 063e ff19 62be 2339 00be 01cb 2cbe
00000210: 4ad0 e53e 61d2 1cbc a3e8 a93d 6049 c03e
00000220: 4e6e e03e 7de0 af3e 42b9 093d 6e7b 60be
00000230: 9b59 f53d 69bf b23e d142 09be 564d b2bd
00000240: 33d5 123e 8e0e aebd 958e b83d 9c2d b53c
00000250: 4c10 bc3d 99ed 41be c001 ce3e dba5 0c3e
00000260: 7138 3dbf 2ee8 9f3f 879a 133e bf22 4d3e
00000270: d776 99be e1a7 ba3e 67ff 57be e831 88bd
00000280: 987e 62be 590f edbe d5a0 163e a243 1dbe
00000290: 1bfb f83e 9c88 dfbd 2162 133f 954c 31bf
000002a0: 699d 6ebe 0071 a13d e64e 70bf 0161 093e
000002b0: 745b 973e 0793 073f 958d 0c3f 23da 76bd
000002c0: 8f10 173d 9909 003d 85cb 103e e9cb b03d
000002d0: 6b82 563e 5f38 093f a451 123f 7695 773f
000002e0: a710 443e b681 3ebf caea 8ebc e7fd 463c
000002f0: 2224 64bd 21dc 183e 0206 c0be 43de 92bb
00000300: bf2f e53e 53b4 a33e 9de7 cc3d 65af 403e
00000310: ee95 543e f31c 103f 2435 103e dd95 f43d

net.1.running_var f4 [200]
0.052257337 0.04150084 0.024918362 0.012884746 0.0125299785 0.26271304 0.119677596 0.050533053
0.088448435 0.030471537 0.03083156 0.1739063 0.02696834 0.022527676 0.040244944 0.05492994
0.023995757 0.05215017 0.15501763 0.17435776 0.065701425 0.07386247 0.024327269 0.22866611
0.21658266 0.058887675 0.03560385 0.011442243 0.037640415 0.120779954 0.047276556 0.0151746245
0.15598872 0.014557449 0.0750635 0.047310848 0.049422428 0.03118448 0.09362269 0.021180974
0.1007184 0.036831044 0.016470298 0.018094456 0.017187716 0.015208562 0.015431727 0.051184226
0.018514622 0.029622348 0.06876011 0.13798498 0.09331106 0.04955105 0.03646589 0.009596355
0.081828766 0.03899075 0.07368147 0.011023746 0.037746295 0.052244674 0.056774892 0.10896819
0.12278863 0.034771025 0.011129205 0.11020656 0.02552046 0.02438776 0.043227192 0.08039548
0.04580011 0.021077303 0.122887 0.015153284 0.019008102 0.3447947 0.045770086 0.028758934
0.017348226 0.032240085 0.04269441 0.09866867 0.06170287 0.020793665 0.1558978 0.030462615
0.029920744 0.021204237 0.1529899 0.05659112 0.051516995 0.030340677 0.0690063 0.042084005
0.042553045 0.019392667 0.12541959 0.011617489 0.26060143 0.009820955 0.063897565 0.046954654
0.052249283 0.12715247 0.015729425 0.05306152 0.118863784 0.03773378 0.027775919 0.10179112
0.10979493 0.02843144 0.008869978 0.016575051 0.01780572 0.06410872 0.056628715 0.038735505
0.054740187 0.032904778 0.055996403 0.09092087 0.023785077 0.036955897 0.13673541 0.015310787
0.06563987 0.08505166 0.021785095 0.019722568 0.027789865 0.020213105 0.0721873 0.08097864
0.078952 0.034948774 0.01702078 0.045889176 0.024668034 0.04205935 0.020032631 0.043521196
0.018286664 0.047461852 0.022675721 0.022198524 0.0934321 0.013727969 0.13129258 0.026534013
0.18894035 0.18016472 0.03911542 0.0076239863 0.062136944 0.09561469 0.018049782 0.05790598
0.022111041 0.05065787 0.01958093 0.053546328 0.041270982 0.034675647 0.08854701 0.110951185
0.16441923 0.21966425 0.14021455 0.06429344 0.025860973 0.11445475 0.19368787 0.011186309
0.0223725 0.016495345 0.12688993 0.027290257 0.01570052 0.058163937 0.10475058 0.0860956
0.028237714 0.09109249 0.021706376 0.014233494 0.025540687 0.02474409 0.04983704 0.046039306
0.024281284 0.06168056 0.016906397 0.03989747 0.016137572 0.049255703 0.09986313 0.021009617
00000000: ca0b 563d c9fc 293d 9821 cc3c 8b1a 533c
00000010: 8a4a 4d3c 5382 863e 8719 f53d bffb 4e3d
00000020: 7424 b53d 729f f93c 7892 fc3c 7e14 323e
00000030: b5ec dc3c f68b b83c e2d7 243d 37fe 603d
00000040: c092 c43c 6b9b 553d f1bc 1e3e d78a 323e
00000050: 788e 863d 3545 973d fb49 c73c 7327 6a3e
00000060: d8c7 5d3e 3434 713d 58d5 113d 3f78 3b3c
00000070: d62c 1a3d 7b5b f73d 10a5 413d fd9e 783c
00000080: 82bb 1f3e 5e82 6e3c e4ba 993d 05c9 413d
00000090: 2c6f 4a3d 9876 ff3c 41bd bf3d b983 ad3c
000000a0: 7345 ce3d 26dc 163d b8ec 863c d33a 943c
000000b0: 41cd 8c3c 552d 793c 5bd5 7c3c 8da6 513d
000000c0: faab 973c 91aa f23c 1ad2 8c3d ef4b 0d3e
000000d0: de19 bf3d 0bf6 4a3d 425d 153d 083a 1d3c
000000e0: d795 a73d c4b4 1f3d 4fe6 963d f19c 343c
000000f0: dc9b 1a3d 83fe 553d ca8c 683d b72a df3d
00000100: 9b78 fb3d 106c 0e3d 4557 363c fab3 e13d
00000110: 4910 d13c d7c8 c73c ff0e 313d 63a6 a43d
00000120: e598 3b3d 4faa ac3c 2eac fb3d 7b45 783c
00000130: e1b6 9b3c ee88 b03e 6a79 3b3d db97 eb3c
00000140: de1d 8e3c 2e0e 043d 55e0 2e3d cd12 ca3d
00000150: 26bc 7c3d 7a57 aa3c aca3 1f3e bc8c f93c
00000160: 591c f53c 82b4 ad3c 62a9 1c3e 17cc 673d
00000170: 7c03 533d 038d f83c 2d53 8d3d 4760 2c3d
00000180: 1a4c 2e3d 5fdd 9e3c fe6d 003e 4857 3e3c
00000190: 8d6d 853e 12e8 203c badc 823d 8653 403d
000001a0: 5803 563d 4234 023e ffda 803c 0957 593d
000001b0: db6e f33d bc8e 1a3d 538a e33c dd77 d03d
000001c0: 2adc e03d 0de9 e83c 6253 113c 67c8 873c
000001d0: 4ddd 913c 6f4b 833d 83f3 673d 1fa9 1e3d
000001e0: 3f37 603d 29c7 063d 7c5c 653d b934 ba3d
000001f0: ecd8 c23c 115f 173d 5e04 0c3e 18da 7a3c
00000200: 326e 863d 912f ae3d a876 b23c 3991 a13c
00000210: 92a7 e33c f495 a53c efd6 933d 21d8 a53d
00000220: 96b1 a13d 7226 0f3d 2a6f 8b3c 4af6 3b3d
00000230: 9e14 ca3c 6d46 2c3d 791b a43c 4843 323d
00000240: eacd 953c 5c67 423d 6fc2 b93c aed9 b53c
00000250: 5459 bf3d 46eb 603c 9071 063e dc5d d93c
00000260: 9479 413e 1a7d 383e 7e37 203d a2d2 f93b
00000270: 4f83 7e3d a2d1 c33d 23dd 933c d22e 6d3d
00000280: 3722 b53c a07e 4f3d 3068 a03c 6553 5b3d
00000290: c30b 293d 0d08 0e3d 2358 b53d 603a e33d
000002a0: 845d 283e aaef 603e 6794 0f3e 47ac 833d
000002b0: 64da d33c 4167 ea3d 1d56 463e c846 373c
000002c0: 8846 b73c 3f21 873c 6fef 013e d18f df3c
000002d0: 609e 803c 4f3d 6e3d 7987 d63d e452 b03d
000002e0: c752 e73c b38e ba3d 92d1 b13c 9a33 693c
000002f0: b43a d13c 1eb4 ca3c ed21 4c3d b693 3c3d
00000300: 8be9 c63c c1a4 7c3d 497f 8a3c 886b 233d
00000310: f132 843c 59c0 493d 0a85 cc3d 5c1c ac3c

net.4.weight f4 [200, 200]
0.039319124 0.056024358 0.04715806 0.042350877 0.08031304 -0.06760234 0.022977209 -0.0430816
0.05328512 0.00759546 0.06484289 0.008137326 0.07913464 -0.04853841 -0.027319832 -0.0032006067
0.058216646 -0.026627533 -0.0074205073 -0.03455323 -0.03598826 0.024020543 -0.06398107 -0.02936302
-0.0395721 0.049473926 0.08318908 -0.061042547 -0.01665077 0.005743729 -0.058444504 0.0069196485
-0.009911371 0.031368267 0.046224095 -0.0057604127 -0.052768957 0.048403002 0.060155403 0.011207195
0.0064681647 0.046199284 0.007433408 -0.059383024 0.049311284 -0.086306594 -0.050825514 -0.027998324
-0.029194208 -0.015111615 -0.05349219 -0.031245438 -0.056701943 0.031016387 0.06089786 -0.039978545
0.0054917345 0.009392283 0.033143528 0.044719428 0.04627677 0.022950783 0.057140835 -0.039473847
0.043947257 -0.023087809 0.032344438 0.037628 -0.0672895 -0.033931024 0.0022319392 0.05526094
-0.015011843 -0.031083293 -0.045020167 -0.031381994 -0.026814736 -0.0124674635 0.045240052 -0.021404639
-0.05153364 -0.034836534 -0.03731737 0.045459613 -0.005390315 0.05165486 -0.094138786 -0.04833926
-0.011542495 -0.026881456 0.0004547045 -0.06719011 -0.017009437 0.050806098 -0.039751846 -8.525961e-05
-0.078086734 0.022533244 -0.0040379637 -0.011834944 0.058523346 0.08322361 0.025146587 -0.047545582
-0.07782808 0.054724433 -0.029369662 0.0072578164 -0.0011792363 0.03270199 -0.010479454 -0.03589976
-0.06322064 -0.015595353 0.051914785 -0.042416856 0.023493154 0.024629543 -0.0773088 0.025942817
0.059601437 0.010643241 0.023810795 -0.023181768 -0.051710084 -0.04069188 0.041346796 0.005440239
0.023746965 -0.005648498 -0.054288924 0.04972285 -0.016997654 -0.056289896 0.060038984 -0.036671903
-0.08480141 -0.06701146 0.050731756 0.04077487 -0.008759038 -0.016419949 0.03213208 0.04696943
0.019990556 0.04545882 -0.017926436 -0.044905633 -0.06359263 -0.021641077 0.003279504 -0.0371178
0.039787382 -0.010556884 0.02772389 -0.007901034 0.06312755 -0.049540147 -0.0075780232 -0.02874486
0.03978844 0.036579877 0.047680322 -0.033806648 -0.0698814 0.014304541 -0.04573354 0.05757165
0.029863574 0.053076975 -0.026540618 -0.039867487 -0.04217024 -0.013524894 0.05469727 0.07404818
-0.067621574 0.015270261 -0.068708934 -0.06264913 0.02274277 -0.036813986 -0.016887713 -0.07142451
0.040319845 -0.041421555 0.016589262 -0.041561987 0.028152285 -0.0096530225 0.04905495 0.065415226
-0.0009936447 -0.045901287 -0.001380711 -0.03180871 0.04611533 -0.01007409 -0.0038785913 0.033842575
0.047868192 -0.04487115 -0.01851451 -0.050948426 -0.042133994 0.013842409 -0.005556558 0.020328127
0.0530786 -0.021806167 0.048055325 -0.105109245 0.014225873 0.0142023815 0.036084957 0.012179508
0.02386818 -0.054719627 0.036906626 -0.084257446 -0.052087177 -0.010148115 0.040220708 0.012640602
0.05370276 -0.0780912 0.043783326 0.04107851 0.04738473 -0.07283566 0.000883003 0.027842818
-0.029276116 -0.011906247 0.041621733 0.036557842 -0.015328055 -0.046730872 -0.05555531 0.022300033
-0.008085449 0.01922096 -0.019672584 -0.034971923 -0.053049546 -0.022971977 0.010200271 0.047457356
0.026931122 0.033369042 -0.059040185 -0.046716604 -0.006202303 0.027437111 0.01547205 0.04861242
00000000: 170d 213d cc79 653d cf28 413d 1d78 2d3d
00000010: 2a7b a43d 1873 8abd b33a bc3c 5576 30bd
00000020: 7f41 5a3d 56e3 f83b 59cc 843d 6b52 053c
00000030: 5811 a23d 36d0 46bd d7cd dfbc 45c1 51bb
00000040: 9474 6e3d fc21 dabc ba27 f3bb b087 0dbd
00000050: 6d68 13bd bbc6 c43c 8208 83bd b78a f0bc
00000060: 5b16 22bd 2ca5 4a3d 095f aa3d c007 7abd
00000070: 3267 88bc e435 bc3b 8163 6fbd 38be e23b
00000080: 4e63 22bc 037c 003d 7a55 3d3d d8c1 bcbb
00000090: 4324 58bd 3a42 463d 8365 763d 629e 373c
000000a0: e6f2 d33b 763b 3d3d f293 f33b 9d3b 73bd
000000b0: a1fa 493d 83c1 b0bd 6a2e 50bd be5c e5bc
000000c0: b128 efbc b596 77bc a01a 5bbd 6ff6 ffbc
000000d0: 4c40 68bd 1416 fe3c 0970 793d 8bc0 23bd
000000e0: 02f4 b33b 17e2 193c 82c1 073d b82b 373d
000000f0: b68c 3d3d 4803 bc3c 820c 6a3d 54af 21bd
00000100: 0a02 343d a522 bdbc 9a7b 043d d11f 1a3d
00000110: 14cf 89bd 42fb 0abd ba45 123b 4c59 623d
00000120: 3cf4 75bc 64a2 febc 1167 38bd 688a 00bd
00000130: 94aa dbbc 5544 4cbc a24d 393d c858 afbc
00000140: f014 53bd c1b0 0ebd 19da 18bd dc33 3a3d
00000150: 3da1 b0bb 0c94 533d d6cb c0bd 63ff 45bd
00000160: bc1c 3dbc 8036 dcbc 6865 ee39 f89a 89bd
00000170: 6057 8bbc 0e1a 503d d5d2 22bd 68cd b2b8
00000180: f0eb 9fbd a397 b83c e550 84bb 5ae7 41bc
00000190: 2db6 6f3d 2471 aa3d 3700 ce3c 28bf 42bd
000001a0: 5464 9fbd ba26 603d a598 f0bc fad2 ed3b
000001b0: 9b90 9aba 86f2 053d 04b2 2bbc a00b 13bd
000001c0: d379 81bd a783 7fbc 99a4 543d 4cbd 2dbd
000001d0: b774 c03c e5c3 c93c 1354 9ebd 0886 d43c
000001e0: a320 743d fd60 2e3c db0e c33c b1e7 bdbc
000001f0: f4cd 53bd 87ac 26bd 425b 293d 0844 b23b
00000200: ff88 c23c 0917 b9bb 105e 5ebd 30aa 4b3d
00000210: aa3e 8bbc 3c90 66bd 70eb 753d 4735 16bd
00000220: 5dac adbd 4e3d 89bd 1acc 4f3d 8d03 273d
00000230: 1182 0fbc 2183 86bc ee9c 033d 0463 403d
00000240: 3cc3 a33c 0733 3a3d 76da 92bc f8ee 37bd
00000250: da3c 82bd a148 b1bc f2ec 563b d608 18bd
00000260: 18f8 223d c8f6 2cbc 361d e33c 5773 01bc
00000270: 0449 813d 9cea 4abd 1151 f8bb 577a ebbc
00000280: 34f9 223d c8d4 153d 714c 433d d778 0abd
00000290: fb1d 8fbd 985d 6a3c 1853 3bbd 40d0 6b3d
000002a0: 74a4 f43c 3e67 593d b66b d9bc 174c 23bd
000002b0: b4ba 2cbd 8497 5dbc 3f0a 603d 92a6 973d
000002c0: 2e7d 8abd 1e30 7a3c 45b7 8cbd 304e 80bd
000002d0: 0c4f ba3c 43ca 16bd 1a58 8abc 0347 92bd
000002e0: 6c26 253d a6a9 29bd 34e6 873c e73c 2abd
000002f0: 9f9f e63c b627 1ebc d8ed 483d 6bf8 853d
00000300: 2f3d 82ba fd02 3cbd f9f8 b4ba da49 02bd
00000310: 6ee3 3c3d cc0d 25bc f72f 7ebb 839e 0a3d
00000320: 7011 443d d0ca 37bd beab 97bc 4caf 50bd
00000330: b294 2cbd 45cb 623c c913 b6bb 2c87 a63c
00000340: f268 593d d9a2 b2bc a9d5 443d 8443 d7bd
00000350: a313 693c 1bb1 683c d2cd 133d 8f8c 473c
00000360: 3487 c33c b021 60bd 672b 173d 2b8f acbd
00000370: 5d59 55bd 4844 26bc 78be 243d 871a 4f3c
00000380: 6df7 5b3d 47ee 9fbd 2556 333d f141 283d
00000390: 7e16 423d dd2a 95bd 5479 673a 9f16 e43c
000003a0: 77d4 efbc 6b12 43bc 8d7b 2a3d adbd 153d
000003b0: 8622 7bbc df68 3fbd f78d 63bd 8fae b63c
000003c0: d578 04bc 4675 9d3c 6628 a1bc b83e 0fbd
000003d0: 7b4a 59bd ba2f bcbc 0a1f 273c a562 423d
000003e0: a89e dc3c faad 083d 1fd4 71bd e959 3fbd
000003f0: b03c cbbb cbc3 e03c 7b7e 7d3c d11d 473d

net.4.bias f4 [200]
0.062112354 -0.07054993 0.050014187 -0.010909517 0.063765645 0.01776349 -0.057638522 0.06111236
-0.053247593 -0.026403503 0.030876096 -0.03150942 -0.030481894 -0.0353922 0.02225475 -0.06397274
0.05210558 -0.041797165 -0.028617414 -0.050617237 -0.002290322 -0.041799918 0.0053698597 0.04148823
0.050735783 -0.021769725 0.0097021535 0.0014131425 -0.019768998 0.047672488 -0.06082487 0.06033558
-0.05784957 -0.05793976 0.054531932 -0.025449371 -0.002238477 -0.0035631247 0.024398407 -0.0642255
0.009652603 -0.04368793 -0.0027858429 -0.0012517142 0.026849648 0.046019234 0.026888516 -0.049793404
-0.037750207 -0.01910433 -0.0512491 -0.008821795 -0.04437017 0.030869003 -0.062093128 0.063592725
-0.0020851742 -0.024889061 0.03184388 0.027880024 0.044182707 -0.045205466 -0.05459825 -0.04980515
0.027896823 0.024126867 -0.034462146 0.042074237 0.026405055 0.067719385 0.034316175 -0.044097222
0.013160693 0.01325302 -0.06661995 -0.040539034 -0.002869611 -0.024997795 0.04160746 0.037160758
-0.05724196 -0.06618752 0.01030567 0.005089946 0.05539827 -0.0079492675 -0.008423864 -0.06628612
-0.023458442 -0.0072123026 -0.04723548 0.03119306 0.015381763 0.03451738 -0.01107155 0.04537984
-0.068978 0.03301038 0.008495271 -0.03707231 -0.028780218 0.023308236 0.041261673 0.056086447
0.017604861 -0.06465832 0.035193913 -0.04816221 -0.010598409 -0.060009822 -0.059252188 0.053110965
0.018646223 -0.02760162 -0.037987832 0.0050737574 0.058721453 0.028520027 0.016199538 -0.06337817
-0.04375541 0.019367317 -0.018657504 -0.027121147 -0.029650602 -0.0008098722 -0.00013450385 -0.0664373
-0.048993986 0.03569878 0.061956692 0.034511853 -0.030407552 -0.048721354 0.00019938746 -0.012781748
0.045176297 -0.054223772 -0.03316013 -0.026189307 0.050745867 -0.04417177 0.051691107 0.06080892
0.028226573 0.035741862 0.038863484 0.03350612 0.05985176 0.02978305 0.03387005 0.03144973
0.0344038 -0.0069151213 0.04507294 -0.01629875 -0.04517291 0.06789247 0.0031593046 -0.06252498
-0.032911003 0.04767089 -0.06178823 0.031095622 0.04805745 -0.007360225 0.047794707 0.01872105
-0.0013002325 -0.061351363 0.049639218 -0.04367754 0.03431553 0.05069596 -0.020627784 -0.007891127
-0.0036320356 0.03278646 0.019894456 0.04396734 -0.024114326 0.016853658 0.003629831 -0.009224255
-0.019345779 0.012916204 -0.06891283 -0.06558303 -0.037099704 0.036784384 -0.057173207 0.0010470087
0.0313921 -0.05713582 -0.05727541 -0.020067379 -0.010307199 -0.020572653 0.045852512 0.04791458
00000000: 8669 7e3d 7b7c 90bd addb 4c3d d5bd 32bc
00000010: 9097 823d bd84 913c 5f16 6cbd f450 7a3d
00000020: 261a 5abd 294c d8bc deef fc3c 0610 01bd
00000030: 2ab5 f9bc 69f7 10bd 984f b63c 2404 83bd
00000040: a96c 553d 8133 2bbd 116f eabc 0554 4fbd
00000050: 3a19 16bb 6436 2bbd a6f5 af3b 90ef 293d
00000060: 53d0 4f3d 6c56 b2bc c8f5 1e3c 3239 b93a
00000070: 98f2 a1bc 3a44 433d 8023 79bd 7122 773d
00000080: acf3 6cbd 3e52 6dbd e05c 5f3d 337b d0bc
00000090: 6ab3 12bb 5083 69bb 2bdf c73c a988 83bd
000000a0: f425 1e3c 1df2 32bd b092 36bb 8f10 a4ba
000000b0: cbf3 db3c aa7e 3c3d 4e45 dc3c 2bf4 4bbd
000000c0: f69f 1abd af80 9cbc 94ea 51bd 4a89 10bc
000000d0: 7fbd 35bd fee0 fc3c 5d55 7ebd e73c 823d
000000e0: 6ba7 08bb 25e4 cbbc ba6e 023d a664 e43c
000000f0: edf8 343d 5e29 39bd 6aa2 5fbd 7c00 4cbd
00000100: e187 e43c b5a5 c53c 2e28 0dbd 0956 2c3d
00000110: 6a4f d83c 76b0 8a3d 1e8f 0c3d 4a9f 34bd
00000120: f39f 573c 3223 593c 0a70 88bd 420c 26bd
00000130: 1510 3cbb 2dc8 ccbc 956c 2a3d e135 183d
00000140: 8c76 6abd 538d 87bd 1dd9 283c 90c9 a63b
00000150: 4ce9 623d a53d 02bc 3f04 0abc 04c1 87bd
00000160: eb2b c0bc 2e55 ecbb fe79 41bd 9788 ff3c
00000170: ca03 7c3c 1962 0d3d 7265 35bc 36e0 393d
00000180: 5644 8dbd e435 073d c02f 0b3c 22d9 17bd
00000190: 7ec4 ebbc eaf0 be3c 0002 293d e7ba 653d
000001a0: 1238 903c 956b 84bd 7e27 103d bd45 45bd
000001b0: f3a4 2dbc dccc 75bd 6cb2 72bd e28a 593d
000001c0: f7bf 983c cb1c e2bc 2199 1bbd c341 a63b
000001d0: e885 703d d5a2 e93c e5b4 843c 6acc 81bd
000001e0: df38 33bd 35a8 9e3c 9fd7 98bc 2b2d debc
000001f0: d2e5 f2bc 9a4d 54ba 9a09 0db9 4710 88bd
00000200: ebad 48bd e238 123d 4dc6 7d3d 4d5c 0d3d
00000210: 4219 f9bc 0b90 47bd aa12 5139 896a 51bc
00000220: c80a 393d bf19 5ebd ebd2 07bd f58a d6bc
00000230: e6da 4f3d 75ed 34bd 0eba 533d c612 793d
00000240: 6a3b e73c 0f66 123d 512f 1f3d b73d 093d
00000250: 1e27 753d 95fb f33c 52bb 0a3d 6fd1 003d
00000260: 00eb 0c3d 3e98 e2bb 679e 383d f584 85bc
00000270: 3b07 39bd 350b 8b3d 560c 4f3b 190d 80bd
00000280: b0cd 06bd 8d42 433d a815 7dbd 3fbc fe3c
00000290: e4d7 443d 0b2e f1bb 62c4 433d e35c 993c
000002a0: 906c aaba 914b 7bbd 7e52 4b3d 38e7 32bd
000002b0: 718e 0c3d 91a6 4f3d 99fb a8bc c949 01bc
000002c0: 7207 6ebb 184b 063d b3f9 a23c 1917 343d
000002d0: 688b c5bc af10 8a3c 75e2 6d3b 5421 17bc
000002e0: 0a7b 9ebc 7c9e 533c 2b22 8dbd 6550 86bd
000002f0: dcf5 17bd 39ab 163d 742e 6abd c83b 893a
00000300: 0195 003d 4007 6abd 9f99 6abd 5864 a4bc
00000310: 87df 28bc fb87 a8bc d8cf 3b3d 1442 443d

net.5.weight f4 [200]
1.0020189 0.9375574 1.0062524 0.97790134 1.0168118 0.97928315 0.98530036 1.0183794
0.94182855 1.0011941 0.98723245 0.9283485 1.0456342 0.97868574 0.9599307 1.0092055
0.98698616 0.95672494 0.9468226 1.0141702 1.0314958 0.9464343 1.0338254 0.95708895
0.9905783 0.935822 1.0045226 0.9663416 0.9736833 0.98490095 0.944776 0.99849296
0.9571713 0.9820605 0.98464936 0.9594532 0.98551273 0.9563895 0.977478 0.9471552
0.95743155 0.95303714 0.9842408 0.9955064 0.93647236 0.9570251 0.98953253 0.92323834
0.97223103 0.96475106 0.97452676 0.98278904 0.96218836 0.9468733 1.044171 0.9732366
0.97693735 0.9689074 1.0285801 0.9777521 1.0530608 0.9768966 0.94370306 1.0168724
0.9872436 1.0050607 1.0197097 0.9705957 0.9621475 1.0113195 0.99469995 0.9514401
0.985309 0.9515764 0.9778628 0.9345249 1.0362507 1.0196012 0.9805752 1.0008966
0.9483673 0.9591809 0.9259161 0.9290123 0.9607732 0.9451832 0.98371226 1.0881429
0.96478885 0.9910079 0.96454173 0.96932846 1.0170684 0.98617786 0.9535299 0.95654345
0.99659383 0.9920542 0.9738961 1.0005387 1.0209228 0.9400598 0.9903363 1.0980085
0.99778044 0.9546135 0.9477502 0.9516999 1.0412465 0.99751735 1.0101914 0.9560934
0.95843977 1.020669 0.9555474 0.94594496 1.005852 1.0362517 0.9647658 1.010033
1.0402659 0.9284927 1.0713375 0.99110717 0.9748236 1.0181315 0.95927787 1.0017139
1.0192311 0.972088 0.98431814 0.9954923 0.96267986 0.96486163 1.0191109 1.1013591
1.006919 1.0298257 0.95555043 0.97020984 0.9562717 0.99258506 0.9750363 0.9513331
0.9201761 0.9611928 0.9903484 1.0081835 0.9573443 0.9790551 0.96105826 0.9594998
1.0218799 1.0095917 0.99757236 0.9419377 0.97439265 0.97584915 0.9869502 1.0780442
1.0061649 0.9792793 0.98818576 0.99687266 0.9981734 0.99424106 0.9689003 0.97191256
0.97679055 0.98965305 1.0228103 0.98238546 1.0164849 1.0135703 0.9933936 0.9807534
0.92943895 0.9502083 0.9809881 1.0517068 0.9825828 0.9814615 0.97791404 1.0032779
0.97205806 0.9861338 1.0256519 0.99857837 1.001062 0.9615692 0.9772317 0.9376394
1.0072198 0.9438231 0.9479438 0.93764585 0.9946355 0.97313815 1.0375885 0.9980927
00000000: 2842 803f c303 703f e1cc 803f be57 7a3f
00000010: e426 823f 4db2 7a3f a53c 7c3f 425a 823f
00000020: ad1b 713f 2127 803f 44bb 7c3f 3fa8 6d3f
00000030: 57d7 853f 268b 7a3f 05be 753f a52d 813f
00000040: 20ab 7c3f edeb 743f f762 723f 54d0 813f
00000050: 0e08 843f 8549 723f 6454 843f c803 753f
00000060: 8a96 7d3f 0892 6f3f 3294 803f 2a62 773f
00000070: 4f43 793f 7822 7c3f d7dc 713f 3c9d 7f3f
00000080: 2e09 753f 5168 7b3f fb11 7c3f ba9e 753f
00000090: 904a 7c3f f1d5 743f 003c 7a3f c378 723f
000000a0: 3c1a 753f 3efa 733f 34f7 7b3f 82d9 7e3f
000000b0: a7bc 6f3f 99ff 743f 0152 7d3f 5959 6c3f
000000c0: 22e4 783f edf9 763f 967a 793f 1098 7b3f
000000d0: fa51 763f 4a66 723f 65a7 853f 0926 793f
000000e0: 9118 7a3f 510a 783f 83a8 833f f64d 7a3f
000000f0: b2ca 863f e515 7a3f 8696 713f e028 823f
00000100: ffbb 7c3f d4a5 803f d985 823f f678 783f
00000110: 4c4f 763f eb72 813f a8a4 7e3f 9491 733f
00000120: 363d 7c3f 839a 733f 3755 7a3f 063d 6f3f
00000130: dda3 843f 4b82 823f fa06 7b3f 611d 803f
00000140: 33c8 723f e18c 753f d608 6d3f c0d3 6d3f
00000150: 3cf5 753f 87f7 713f 91d4 7b3f 4448 8b3f
00000160: 67fc 763f b2b2 7d3f 35ec 763f e925 783f
00000170: 4c2f 823f 2776 7c3f 891a 743f 08e0 743f
00000180: c620 7f3f 44f7 7d3f 4151 793f a711 803f
00000190: 99ad 823f c2a7 703f ae86 7d3f 8b8b 8c3f
000001a0: 8a6e 7f3f 8d61 743f c29f 723f 9ba2 733f
000001b0: 9147 853f 4c5d 7f3f f44d 813f 89c2 743f
000001c0: 4f5c 753f 48a5 823f c19e 743f 7329 723f
000001d0: c2bf 803f e5a3 843f e4fa 763f c348 813f
000001e0: 6f27 853f b3b1 6d3f 9621 893f 33b9 7d3f
000001f0: 0a8e 793f 2252 823f 3c93 753f 2938 803f
00000200: 2a76 823f c2da 783f 46fc 7b3f 95d8 7e3f
00000210: 3072 763f 2c01 773f 3a72 823f 56f9 8c3f
00000220: b9e2 803f 54d1 833f f49e 743f ac5f 783f
00000230: 39ce 743f 0e1a 7e3f fb9b 793f 918a 733f
00000240: a990 6b3f bb10 763f 7987 7d3f 280c 813f
00000250: 8414 753f 5ba3 7a3f ea07 763f c7a1 753f
00000260: f6cc 823f 4d3a 813f e760 7f3f d422 713f
00000270: cc71 793f 40d1 793f c5a8 7c3f 5afd 893f
00000280: 03ca 803f 0cb2 7a3f bef9 7c3f 0c33 7f3f
00000290: 4b88 7f3f 9586 7e3f da09 783f 43cf 783f
000002a0: f20e 7a3f e759 7d3f 73eb 823f 9d7d 7b3f
000002b0: 2d1c 823f acbc 813f 0b4f 7e3f a812 7b3f
000002c0: b6ef 6d3f da40 733f 0922 7b3f 549e 863f
000002d0: 8c8a 7b3f 1041 7b3f 9358 7a3f 696b 803f
000002e0: ccd8 783f 4473 7c3f 9048 833f d5a2 7f3f
000002f0: cd22 803f 6629 763f db2b 7a3f 2309 703f
00000300: 94ec 803f 649e 713f 72ac 723f 8f09 703f
00000310: 6fa0 7e3f 951f 793f b3cf 843f 0183 7f3f
