electricity_problem/saved_models/pnet-data-parameters.pt (torch, 65162 bytes, 6 tensors)

MM.weight f4 [576, 24]
00000000: 6140 133f 7043 63be f0de 9fbe 89ae 613c
00000010: 5a41 61be 78ce 9fbd 0859 163e 6fe5 78be
00000020: 8f4e 67bd 0b60 43bd e1d4 053e 3241 153e
00000030: 7ab0 833d 2f58 3b3a c42f d53d 9529 13bc
00000040: 2725 56be 494e f1bd b6b9 133e 398e 1c3d
00000050: d43a 443d 6695 9dbd fa85 c03d 53ac f2bc
00000060: eb3d 4f3e 3d72 7e3d 8e94 67bc 07d8 abbd
00000070: b94f 403d fe0f 563e a4f7 993d f9ad 72be
00000080: 3bfe c4bd 5526 e03d 0232 7fbd 9de2 89bd
00000090: bbf7 3fbe 73dd f6bc fdaa 38bd 3235 fb3d
000000a0: 431f 853c 8fb0 c5bd 2ddc e1bd 48f1 7fbe
000000b0: 7cfe 20be 2672 2ebe 18ff b73d e9ce da3d
000000c0: 190f b93e d456 6ebe a553 1fbb 98a6 ad3d
000000d0: 7ec4 363e b4b4 bc3d ab2a c6bd daca 573d
000000e0: a63a 2abe 3701 d3bd 0741 703d b795 79be
000000f0: 4dc1 ff3d acf1 2dbe cbb4 05be 2e6c 69bd
00000100: f34b d03d 496e d03b 176f 2abe 5b3a 4cbe
00000110: e936 02bd 89a2 f33d d4b6 123c eb68 9a3c
00000120: 7575 0f3f 0d3b 8bbe 5ed6 2e3d 9fb4 323d
00000130: 5362 40be a9cf 45bd 1b76 993d d9ce 3c3a
00000140: 0a0e f7bd 8b87 0bbe 6e47 533d 344a afbd
00000150: 00f7 b23c 661c 41be eb2b bb3d 3ad5 4abe
00000160: 5be5 6bbc 7c66 acbd e590 97bd a1d9 48be
00000170: e954 34be fc60 5dbe a8d5 573d 631a 96bd
00000180: f8eb df3e 9b95 9f3d 47a3 0abe d537 e0bc
00000190: 2ec8 f9bd 99ec cd3d a080 19be 6e66 42be
000001a0: ccd4 ee3c 1a5f 39be 8416 2fbe b209 073e
000001b0: a3e5 a2bd ceee 68be d132 423d 8870 813d
000001c0: b0bd 893d 895b 193e eb83 923d ad4b 033d
000001d0: 0333 19be b3df 4c3d 6871 363d fe94 653d
000001e0: e381 e43e 134d 4c3d e5c5 2cbe 9031 c5bd
000001f0: 31a4 34be e8fa 8d3d ea15 59bd a93c dcbd
00000200: c00a 873d 5ead f7bd 1ab3 363e 6a43 27be
00000210: 989e 2abc 0d39 16be 97a3 813d adf3 dc3d
00000220: f235 263e 001f 713e 2442 bf3d 9ee8 243e
00000230: bfc5 c23d a3dc 733a d280 5e3e b477 4bbd
00000240: 4510 1e3f 2030 a3bd 6f10 d83d 47bf 61bd
00000250: 4353 ce3d f010 ed3d b62f a53b c73b 3cbe
00000260: 4f81 803d e5a5 77bd 1da7 e5bd cf08 43be
00000270: 5006 423e 64e1 0cbe aa36 ccbc 0436 ecbd
00000280: ee35 82bd 96b7 f6bc c49c bcbd 9e84 2f3e
00000290: 5908 da3d 3973 abbd 9210 bf3d 1337 aabc
000002a0: 6e5a cf3e 9dd6 913d acc1 bc3d 7163 493d
000002b0: a873 243e 6da2 633e 0137 fdb9 3e7e 0bbd
000002c0: 09bd 063e da22 b13c cb25 6b3e b126 80bd
000002d0: f1e9 fe3d c4db 3a3b cac2 53bd 343e 30be
000002e0: 4067 d1bc 8b8b 383e 3f87 293e 7fce 36be
000002f0: a36f 1a3e 3e9f 093c 0069 cc3d 754e 18bd
00000300: 9361 153f a86a aa3c 6957 4abe 88df 13be
00000310: 7ece 313e 6e9c 00be 06eb abbd 0e22 a83d
00000320: 4d56 f83d 0801 2b3e 7b8e 033e 648c 61bd
00000330: 85e5 55bd 8af8 0e3e 89e6 47be f729 393e
00000340: 6e94 003e c5dc e6bd 5afb 84bd 42db 27bd
00000350: cfdd e8bd aed3 263e 5e44 7a3e 022b 71bc
00000360: 25f6 d13e 6b4f c93d 3073 13be 3650 e7bd
00000370: f603 6bbb 8f65 513d b74a 8fbd 3a98 98bc
00000380: f4d4 613d 1b3f 11be 00f0 983d 203f 3fbe
00000390: ac5d 173e d8fa 2dbe e081 5bbe 0084 fa3d
000003a0: 1a6a 06be 5424 463e 2df5 e3bd eaf8 28be
000003b0: d18f 00be 8d48 1f3e f847 763e 1026 edbc
000003c0: 5400 203f 5390 72bd 481f 2fbe 58b2 a9bd
000003d0: 2179 373d faea b23d 8534 6c3b 0301 bc3d
000003e0: 04af 1a3b 752e 4b3e 81ff 4b3e f3ed 223d
000003f0: 3dbb 3abe b816 9b3d 8a2e 01be 263a 45be
0.5752011 -0.22193694 -0.31224775 0.013774523 -0.21997586 -0.07803053 0.146824 -0.24306272
-0.056471404 -0.047699016 0.13069488 0.14575651 0.064301446 0.0007146624 0.10409501 -0.008982082
-0.2091261 -0.1178251 0.14426312 0.03822157 0.047907665 -0.07694511 0.09400554 -0.029623186
0.20238464 0.062120665 -0.014134539 -0.08390813 0.04695103 0.20904538 0.07517937 -0.23699178
-0.09618803 0.10944811 -0.06230355 -0.06732676 -0.18746845 -0.030134892 -0.045084942 0.122660056
0.016250258 -0.096528165 -0.11028323 -0.24994385 -0.15722078 -0.17035732 0.08984202 0.10683996
0.3614433 -0.2327531 -0.002431133 0.08479041 0.17848393 0.09214154 -0.09676107 0.05268369
-0.16623935 -0.10302966 0.058655765 -0.24373518 0.12488041 -0.16986722 -0.13057248 -0.056987934
0.10170736 0.0063608033 -0.1664394 -0.19944136 -0.031790648 0.118962355 0.008954722 0.018848857
0.560386 -0.2719349 0.042684905 0.043629285 -0.18787508 -0.048293743 0.0749323 0.00072024536
-0.120632246 -0.13625924 0.051581793 -0.08559075 0.021846294 -0.1885849 0.09139236 -0.19807902
-0.014397944 -0.08417985 -0.07400683 -0.19614269 -0.17610516 -0.21619028 0.052693993 -0.073292516
0.43734717 0.07792207 -0.13538848 -0.027370373 -0.12196384 0.10054893 -0.14990473 -0.18984386
0.029154204 -0.18102685 -0.17098433 0.13187292 -0.07953956 -0.22747347 0.047411744 0.06320292
0.06725633 0.14976324 0.071540676 0.032054592 -0.14960866 0.050018024 0.044541746 0.056050293
0.44630346 0.04987819 -0.16872366 -0.09628594 -0.17640759 0.06932622 -0.052999415 -0.107537575
0.06593847 -0.12093614 0.1784176 -0.1633431 -0.010413788 -0.146702 0.063300304 0.10788665
0.16231516 0.23546982 0.09338787 0.16104361 0.09510373 0.0009302592 0.21728829 -0.049674705
0.61743575 -0.079681635 0.105500095 -0.055114057 0.10074475 0.11575496 0.005041088 -0.18382178
0.06274664 -0.060460944 -0.11213515 -0.19046329 0.1894772 -0.13757855 -0.02492841 -0.1153374
-0.063579425 -0.030116837 -0.09209588 0.17140433 0.106461234 -0.08371586 0.093293324 -0.020778215
0.4049868 0.07121012 0.092166275 0.0491671 0.16059744 0.2222993 -0.00048296902 -0.03405594
0.13158049 0.021623064 0.22963636 -0.0625738 0.124469645 0.0028512338 -0.051699437 -0.17211229
-0.025561929 0.18021981 0.16555499 -0.1785221 0.15081649 0.008399783 0.09980965 -0.037184197
0.5835201 0.02080281 -0.19759907 -0.14440739 0.17363927 -0.12559673 -0.083944365 0.082096204
0.121258356 0.16699612 0.1284732 -0.055065528 -0.05222084 0.13961998 -0.19521536 0.18082415
0.12556621 -0.11272577 -0.06493254 -0.040980585 -0.11370432 0.16291687 0.24440143 -0.0147197265
0.41008106 0.09829601 -0.1439941 -0.11294596 -0.0035860515 0.051122244 -0.069966726 -0.018627275
0.05513473 -0.14184229 0.07467651 -0.18676424 0.14781827 -0.1699022 -0.21436262 0.12232208
-0.13126412 0.19349796 -0.11130748 -0.16501203 -0.12554862 0.1555502 0.24050891 -0.028948814
0.625005 -0.05921967 -0.17101777 -0.082859695 0.044793252 0.087362245 0.0036042046 0.091798805
0.0023602853 0.1984194 0.19921686 0.039777707 -0.18235488 0.07572693 -0.1261541 -0.19260463

MM.bias f4 [576]
00000000: 39e1 823c 5ea3 9abd c0dd 81be 19bd c93a
00000010: 83a9 71be 4d83 5dbe fab5 a8bb ad5c d93d
00000020: 4f29 1fbd e088 a6bd d82d babb 5527 233e
00000030: 347b fd3d eccb 5abe 2686 84bd 69a8 b93c
00000040: 84a6 fbbb adac d13d 7fa1 7abd f48d 40be
00000050: d157 eebd 90d9 ecbd 5a4a 8dbb 304b e93d
00000060: 8866 04be 40ac 06bc b7ed 6fbd df3b 01bd
00000070: d737 063e f1c2 3e3e fb8c 30bd b213 30be
00000080: 006b 0ebe 3744 21b9 3e50 363e 8e92 33be
00000090: 7d03 393d 15f6 993d 8640 093e db87 d93d
000000a0: bbf5 92bd d50b 8b3c b0dc 29bd 5dcf a83d
000000b0: d57b cd3d 0066 123e a653 7ebd f305 8abd
000000c0: 6ea9 a23c 5df9 853d 50de 0a3e 2a54 cabb
000000d0: e829 14be 8a04 24be 91dd 163c 14be 883d
000000e0: a4c9 a43c 4867 c03d 5735 5f3d 72af f23c
000000f0: 041d 3f3e 79fa ae3d 4bb0 b1bd f00e cc3d
00000100: 5b20 1fbd e68a 4abe 3307 1cbd e748 3abe
00000110: 9f41 5dbc 110d 043e e955 8a3d bb5f acbd
00000120: ab18 a8bd b8d1 58be d950 693d 1ce5 30be
00000130: 5e8d 41be 8970 333e fab0 b1bc 2d6a 30be
00000140: 4f85 9d3c e4f8 ea3d 31b2 3f3e dab0 233e
00000150: 251f 67bd 570c 8bbd a1b5 1f3e d697 2f3e
00000160: bf2c debc 77f6 cdbd 4781 b8bb 4f53 593d
00000170: 5093 293c fa6d 1abd a508 0e3e 44b2 cfbd
00000180: 68f3 e3bd 0273 fabd 95d8 193e 8dd8 4abe
00000190: b355 c0bd 4138 bf3c 72d8 f8bd e827 bc3d
000001a0: ceca 063e c396 b1bd c2d1 d83d 313a 093d
000001b0: 3075 383e e15f 9d3d 69a0 073e 7f0d 06bd
000001c0: a878 7e3e aedf a33d 3686 ae3d 7842 f93d
000001d0: 410d 8d3b e24c acbd 5ed1 f6bd 2bde 38be
000001e0: 66c3 29be b1e7 313d c77a c63d 616e c73d
000001f0: dc27 4ebe e441 d3bd 8c76 903d 014e 293e
00000200: 58e9 f9bd 14e9 47bc 357d 403e da1e 5f3c
00000210: 8411 d1bd 258a c93d 8f8c 7fbd ab50 1a3c
00000220: cdeb 3c3e 2b95 c7bd a791 a93d 5298 c9bd
00000230: 8b47 c53d f7dc 493d 8255 403e b208 d3bd
00000240: e02d 203e e58f 1ebe cb17 a5bc a09c 2cbe
00000250: 8fc3 69be e6c9 a43d 0529 1c3d e46a 983d
00000260: 24d8 0fbe fa23 38be b4c2 1e3e 51c5 033e
00000270: a74e 0fbe 5a54 ea3d 891c 41bd 32eb 0c3e
00000280: 1646 39bd 90af cbbc da38 1d3e a84d cb3d
00000290: d372 293e 2df5 d03d 9b40 fcbd e5f2 41be
000002a0: 83a4 6d3d f896 783c 1c8e 593d 2b2f 343e
000002b0: 7e93 dabd b409 cf3d 6d92 89be 936c b4bd
000002c0: 8e79 073b cf62 d8bd c7ed 5abe c85c 40be
000002d0: 1599 31bd 7f64 143e eb28 03be 3578 00bc
000002e0: e04d f33d 382e a3bc 781f 4fbd f866 0a3e
000002f0: 73bc d33d d698 0f3e 787a e03d e12a 2ebd
00000300: 48b3 a03d a5f3 1f3e 65c8 c23b 93d2 da3d
00000310: d291 7abe f3b2 343d ccac 033d c8a5 fdbd
00000320: 09c3 723d a4b6 933d d200 85be 23fe 90be
00000330: 686c 70bd 7147 6fbc e644 413c 6130 51b8
00000340: 1c23 aebd c2b0 11bd 465e b43d ec7c 093e
00000350: da05 17be 0f4a 19be 27d4 933d bdb4 ed3d
00000360: f4e4 113c f820 0c3d 762a db3d ff6f 9dbc
00000370: 41e3 403d 5630 62be 516a 77be 6767 713d
00000380: 1d4b 85bd 608b a43d b4eb 0bbe 8154 ce3d
00000390: d229 3ebe 44f5 393e ecf2 cb3c c3c4 0bbe
000003a0: dd09 4d3d 3d38 f6bd a643 033d 4467 4e3e
000003b0: 4ba0 853c eff1 f23d fe19 e1bd f44f ccbd
000003c0: d32c 54bd 7dc3 20be 4d12 1bbe 398a d3bd
000003d0: cbd3 31be e281 f93d f59b 42be 7aee 223e
000003e0: 7a3d c5bd cde0 e3bd b9ac afbd 07e7 453d
000003f0: 9df4 e93d 3ae9 963d 2cde 0dbd 8f9e a83c
0.015976535 -0.07550691 -0.25364494 0.0015391439 -0.2359982 -0.21632119 -0.0051486464 0.106133796
-0.038857754 -0.081315756 -0.0056817345 0.15932973 0.12377015 -0.21366853 -0.06470899 0.022663312
-0.0076797623 0.102380134 -0.06118917 -0.18804151 -0.116378434 -0.11564934 -0.004311842 0.11391294
-0.12929738 -0.008219779 -0.058576312 -0.03155124 0.13107239 0.18629052 -0.0431032 -0.17195013
-0.13908005 -0.00015379569 0.17804047 -0.17536375 0.045169342 0.075176395 0.1340352 0.106216155
-0.071757756 0.016973415 -0.04147023 0.082426764 0.10033385 0.14296722 -0.062091492 -0.06739416
0.019856181 0.06541703 0.13561368 -0.006174584 -0.14469111 -0.16017357 0.009208099 0.066768795
0.020115681 0.09394699 0.05449423 0.029624674 0.18663412 0.085438676 -0.08676203 0.099637866
-0.038849216 -0.19779548 -0.038092803 -0.18191873 -0.013504415 0.1289561 0.06754667 -0.08416697
-0.0820783 -0.21173751 0.056961868 -0.17274898 -0.18901584 0.17523398 -0.021690834 -0.17228003
0.019228606 0.11473253 0.18720318 0.15985432 -0.056426186 -0.06789463 0.1559663 0.17147765
-0.027120946 -0.10056775 -0.0056306454 0.053057965 0.010350063 -0.037702538 0.13870485 -0.10141423
-0.111304104 -0.12228967 0.15024026 -0.1980917 -0.09391346 0.023342254 -0.12150659 0.09187299
0.13163301 -0.08671334 0.10586883 0.03350276 0.18013453 0.07684303 0.13244785 -0.032727715
0.24850714 0.08001648 0.085216925 0.12170881 0.0043045585 -0.08413102 -0.12051652 -0.180535
-0.16578445 0.04343385 0.09691387 0.0973785 -0.20132393 -0.10315302 0.07053861 0.16533662
-0.1220271 -0.012201566 0.18797763 0.013618195 -0.10208419 0.09840802 -0.062389906 0.009418647
0.18449326 -0.097452484 0.08279734 -0.09843506 0.09632786 0.049282994 0.18782619 -0.10304393
0.156425 -0.15484579 -0.020152947 -0.16856623 -0.22828506 0.080463216 0.038125057 0.07442263
-0.14047295 -0.17982474 0.15503961 0.12868239 -0.13994847 0.1144187 -0.047146354 0.13761595
-0.045232855 -0.024863988 0.15353718 0.09926921 0.16547708 0.102030136 -0.1231701 -0.18940313
0.05801822 0.0151727125 0.05311404 0.17596118 -0.10672663 0.101092726 -0.26869527 -0.088097714
0.0020671817 -0.10565721 -0.21379767 -0.18785393 -0.04335888 0.14491461 -0.12808578 -0.00784116
0.11880088 -0.0199195 -0.05056712 0.13515842 0.10338678 0.14023146 0.10960859 -0.04252136
0.07846695 0.15620287 0.005944299 0.10684695 -0.24469689 0.04411597 0.032147214 -0.12385136
0.05926803 0.0721257 -0.25977188 -0.2831889 -0.058697134 -0.014604435 0.011796212 -4.987454e-05
-0.0850279 -0.03556896 0.08807044 0.1342656 -0.14748326 -0.14969657 0.07218199 0.11606739
0.008904684 0.03421113 0.10701458 -0.019218443 0.047091726 -0.22088751 -0.2416165 0.058936503
-0.06508467 0.08034396 -0.13664132 0.100747116 -0.1857064 0.18159968 0.024896108 -0.13649277
0.050058234 -0.12022445 0.032046936 0.2015658 0.016311785 0.118625514 -0.10991286 -0.09976187
-0.05180056 -0.15699573 -0.151437 -0.10329098 -0.17365949 0.12182976 -0.19004805 0.15911284
-0.09630866 -0.11126862 -0.08577866 0.048316028 0.114236094 0.07368703 -0.034635708 0.02058342

linear.weight f4 [24, 24]
00000000: eede 36be 0fd2 1fbd 4628 ce3d 4d8d 133d
00000010: 43a6 3ebe af3a 52bd 902a e3bd 075b 0bbe
00000020: ea26 a3bd 0002 dcbd 2625 47be 1bdc b43d
00000030: b045 07bd f1da 0b3d ac99 a2bd cac3 94bd
00000040: 5ef6 21be fd5f 073e 4fe4 2f3d 6a70 203e
00000050: 1127 a3bc c694 093e 11f6 163e 3fa7 0c3e
00000060: a293 89bd a20e 32be e6ce b93d e695 cabd
00000070: 86c8 38bd dba3 ca3c 5bff 1c3d 390e aa3d
00000080: 60f4 b6bd b6ed 4fbd e79a 8a3c f139 0bbe
00000090: 011d 42bd b3ca 313e 420d 043e 6299 4f3e
000000a0: d115 b23d 920d d83d 3a0b 64bd 942a 053e
000000b0: 8439 03be abb8 203d 61b4 a139 4fcc 353b
000000c0: 0b62 a4bd f581 583d 9a6a c0bd 8481 6e3c
000000d0: 55cb 3d3e 8fb0 45be d10c 213e f683 f8bd
000000e0: bb75 213e 5208 f63d 0fb0 a3bd db3b 06be
000000f0: a854 28be 1076 ff3c 6ed3 3dbd 45be 3f3d
00000100: ddba 393e e400 37bd 3d47 223e 2826 d7bd
00000110: a56d e73d 3b52 09be 7cc5 823c 5730 69bd
00000120: 5c89 063c 0dad f53c 7a59 07be ea4b 3d3e
00000130: ff7a a93c 943e 333e 45ef 2a3d e546 fbbd
00000140: 360f 3a3e 4940 ce3d 1777 14be c59e 9bbd
00000150: 29d6 03be 091e d0bc 4c4e 0dbe 4d9e b6bd
00000160: 3ade 42be 4e84 d03d 379d 84bc fcc1 95bd
00000170: 4e7d aebc ec57 a63c 59ad 943d 4b85 2b3e
00000180: 0134 7ebc af65 8cbd c361 103e b68b adbd
00000190: b769 59bc e6f9 40be d1fd c4bd dc2e 3b3c
000001a0: 7edb ebbd 9e88 cbbd e793 b1bd 88b6 343e
000001b0: 3f51 743d b408 7f3b 3081 413e 5000 3fbe
000001c0: 507b 78bc 8293 363d 6ff2 3e3e 7f28 b53c
000001d0: 253a 6fbd 08b8 bf3d 4494 38bd ad50 443e
000001e0: 8d19 25be 592c 1d3e 14bd b83d 3f05 84bc
000001f0: f667 1cbe 9327 cdbd 13de 1dbe 8fa4 463d
00000200: b32a 853d 8b97 473e 12bc 2c3e 04d8 4bbe
00000210: 3bbc f13d 4ebc 193e 0f86 2f3e 0687 0a3d
00000220: ba82 2c3e 8e2c 1c3e 4a68 943d 1cbb 9a3c
00000230: c2c2 d23c 7a90 d8bd a8db d4bc a0ea 863d
00000240: 5f52 d43d 83a2 e7bd 59be 3d3e 08d4 dc3d
00000250: 64fd 213e 5b21 263e 5ff2 323e 38c0 c53d
00000260: c433 81bc 4c68 3c3e 8f18 8e3c ecc6 353d
00000270: 43d2 a93c 0d5f 9ebd 8163 c6bd bfaf f8bd
00000280: 3f99 e93d 4120 08bd 8d34 f1bd a635 f13c
00000290: 5c1f 003e fe11 47be f1fd 333d a5a5 43be
000002a0: f332 e6bd 8d04 333d 63d0 3bbe 9d63 64bd
000002b0: b389 54ba 6d5a bc3d 85b3 823d bdb1 f3bd
000002c0: ffd5 383d 2c00 00be b005 d33d f872 78bd
000002d0: 27d5 78bd 5970 28be 1355 de3d 7ad6 8b3d
000002e0: 6a9f 82bd 49bc 9dbd 0f01 b7bd ee2e 223d
000002f0: d4c8 a6bd 8355 15be 7f0e fa3d dd64 88bd
00000300: fded 373e 9534 41be d663 e63d 8402 d6bb
00000310: 64b7 3cbc 31d5 aa3b 36e3 13bd e236 033e
00000320: 163a 16bd 32cd 1ebe ab4f dcbd 2bbc d93d
00000330: 6059 343e 0aee d9bc 3639 19bc 385a 3d3e
00000340: 191a 1b3e 9993 1fbd 2cce 443e c556 003e
00000350: ea64 d23d 918b 93bd f619 15be 9b91 b23b
00000360: fd7b 263e 038d 02be e35d 4cbe 8d34 21be
00000370: 389c e03d 10d4 11bd 7664 19be d60b 38bc
00000380: 58ca b5bd 7f3d 51bd 928b 40be ec37 e7bc
00000390: 87ce f5bc f0c0 e43d 8b02 e3bd 10d2 3e3e
000003a0: 954e 94bc d407 04be cf93 45be a285 4f3e
000003b0: bf77 5a3d 882e 913d 4d37 af3d f2b8 16be
000003c0: 141f 8dbd dec5 d9bd dd94 f9bd 6eee 29bd
000003d0: 6e58 b0bd fc8b 193c c06d aa3d f1e3 2ebe
000003e0: dbcb 1cbe a8c8 0bbe d108 a83d e27e 2fbd
000003f0: ed3d 803d cd00 313e ec26 453d 0920 193e
-0.17858478 -0.039018687 0.10066275 0.036023427 -0.18618111 -0.051325496 -0.110921025 -0.13608943
-0.07966407 -0.10742569 -0.19447765 0.08831044 -0.033025444 0.034144346 -0.07939467 -0.07263906
-0.15816638 0.1322021 0.04294234 0.15667883 -0.01991609 0.13435659 0.14742304 0.13735674
-0.06717612 -0.17388394 0.09072666 -0.09891872 -0.04511311 0.024736336 0.038329463 0.08303494
-0.089333296 -0.05076381 0.016919566 -0.13596322 -0.04739094 0.1736248 0.12895682 0.20273355
0.086955674 0.10549463 -0.05567477 0.13004524 -0.12814909 0.039238613 0.00030842706 0.0027740186
-0.08026513 0.05285831 -0.09395333 0.014557246 0.18534596 -0.19305633 0.15727545 -0.121345446
0.15767567 0.12013306 -0.07992565 -0.1310877 -0.16438544 0.031184226 -0.046344213 0.046812315
0.18137689 -0.044678584 0.15847488 -0.105053246 0.1130021 -0.13410275 0.015963309 -0.056930866
0.00821146 0.029989744 -0.13217726 0.1848599 0.020688532 0.1750434 0.04173209 -0.122693814
0.18169865 0.10070855 -0.14498554 -0.07598642 -0.12874664 -0.025404947 -0.13799399 -0.08916912
-0.19030085 0.10181485 -0.016188247 -0.0731239 -0.021299984 0.020305596 0.07259626 0.16750066
-0.015515328 -0.06855332 0.14099793 -0.08473913 -0.013269833 -0.18845329 -0.09618724 0.011424746
-0.11516474 -0.09938167 -0.08670788 0.17647755 0.059647795 0.00389151 0.18896937 -0.18652463
-0.015166119 0.04457427 0.18647169 0.022114037 -0.05840506 0.09361273 -0.045063272 0.191714
-0.16123028 0.15348949 0.09020439 -0.016115783 -0.15274033 -0.10017314 -0.15416746 0.04849678
0.06502285 0.19491403 0.16868618 -0.19906622 0.1180348 0.15013239 0.17140983 0.033820175
0.16846743 0.15251371 0.07246454 0.018888049 0.025727633 -0.10574432 -0.025983647 0.0658772
0.103672735 -0.113102935 0.18529643 0.10782629 0.15819317 0.16223662 0.1747527 0.096558034
-0.015771754 0.18399161 0.017345695 0.04437916 0.020730143 -0.07732973 -0.096869476 -0.12142896
0.114061825 -0.033233885 -0.117776014 0.029444527 0.12511963 -0.19440457 0.04394335 -0.19106157
-0.112401865 0.04370551 -0.18341212 -0.05575906 -0.0008107677 0.09196935 0.06381897 -0.11899135
0.045125958 -0.12500066 0.10303819 -0.060656518 -0.060750153 -0.16449107 0.1085607 0.068280175
-0.06378062 -0.07701928 -0.08935749 0.039595537 -0.08143774 -0.14583401 0.12209796 -0.06659863
0.17961879 -0.18867715 0.11249511 -0.0065310616 -0.011518333 0.0052134027 -0.036105357 0.12813905
-0.03667649 -0.15507963 -0.10757383 0.10631593 0.17612219 -0.026602764 -0.009352019 0.18491447
0.15146674 -0.03895912 0.19219273 0.125331 0.10273154 -0.072043546 -0.14560685 0.0054494864
0.16258235 -0.12749104 -0.1995769 -0.15742703 0.10967296 -0.03560263 -0.14979729 -0.011233291
-0.08876485 -0.051084038 -0.18803242 -0.028224908 -0.030005706 0.111696124 -0.110844694 0.1863482
-0.018103877 -0.12893611 -0.19294666 0.2026582 0.053336855 0.07088953 0.0855547 -0.14718989
-0.06890693 -0.10633443 -0.121865965 -0.04148715 -0.086106166 0.009371754 0.083217144 -0.1707914
-0.1531214 -0.13650763 0.082048066 -0.042845614 0.062618114 0.17285462 0.048132822 0.14953627

linear.bias f4 [24]
00000000: edea 9abd 8395 713d a961 4ebc fcf6 87bd
00000010: 3774 313d 0b8b cebc 954f 3dbe 9f44 23be
00000020: 2e9a b6bd 1881 293d 7e8c 913d 36e1 81bd
00000030: ea3b da3c 8eb5 17bd 9563 ef3d 15f8 36be
00000040: 7dcf 153e 44c4 0f3e 99a0 483e 2938 883b
00000050: 25af 903b dff4 5b3c f1bb 383d 7e1f 223d
-0.0756434 0.058980476 -0.012596526 -0.066389054 0.04332372 -0.025212785 -0.1848739 -0.15944146
-0.08916126 0.04138288 0.07106875 -0.06341784 0.026639897 -0.03703838 0.11688916 -0.17868073
0.14629932 0.14039713 0.19592513 0.0041570854 0.00441541 0.013425081 0.04510111 0.039580815

linearx.weight f4 [24, 24]
00000000: 6b54 3b3d 2501 513e 8133 d63d f835 91bd
00000010: 3572 ee3c e3f6 e9bd 84f6 373e a123 45be
00000020: 9a34 9f3d 1ed9 1c3e 96bd 023e bbaa 063c
00000030: 8958 a5bd f9a2 eb3d 0c16 5bbd 9f1f 243e
00000040: 700d 103e 7b56 d4bd 51a1 e2bd 52cb 053c
00000050: 2585 6b3d 3ab2 123d a5f7 ba3c 11dc 783c
00000060: 182a 1d3e 87e8 03be 8350 45be 8839 303d
00000070: ca3d 4abe 3f17 33be def1 34be 08cd 92bd
00000080: c735 b13b 8092 163d e38d 0dbe 265d 183e
00000090: 33d2 4dbe d380 3a3e dce0 c83d 9952 47bd
000000a0: 0525 0c3e a55b 1d3e 84dd 3abe 71c4 03be
000000b0: 929b 44be 4333 1dbe 8773 273d 11e8 5a3d
000000c0: 3fcf 3e3e 3090 36bd 5a58 253e b1df c53d
000000d0: 998c 0d3e bd11 133e 7ea7 ab3c 8bde e53b
000000e0: d82f e3bd 16da 453e 3f33 3cbe aaf3 b5bd
000000f0: 6da8 25bd 0d7b f53d 901f c9bd 4c0d 073d
00000100: a652 a73d b257 6e3d 77ac 7d3c 2ce2 51bc
00000110: 187d 1c3e fbcb 4f3b 2385 133e 2a67 87bd
00000120: bbc5 0cbe 9418 94bd 3ece 763d 64f7 67bc
00000130: d351 253d 26f1 c3bd 8499 3b3d c675 38bc
00000140: 73a7 283e 5315 263c 45ae 1c3e bf1f abbd
00000150: e2a5 423e 3b20 debd 76e9 a6bc ff45 0f3e
00000160: c7e0 573d cb30 c2bd 9c1d 453d ae6a d7bd
00000170: 6ccd 063e 2ff3 2fbe 6ed1 29be 74eb bc3d
00000180: 241b 443e 7f65 413e 074b 04bd ace0 fcbd
00000190: b319 233e ec16 0fbe d8fc cabd 46ee 47be
000001a0: 7641 713d 0dde f13d 171c 4e3e 10eb 263e
000001b0: 0ce7 51bd a115 3abe 33c1 4a3c f5dd 41bd
000001c0: 633e 4fbe 31e7 2a3e bcf7 b1bd a523 b23d
000001d0: 705e 5a3d f230 f03d 28a0 543d 270d 0e3e
000001e0: 135b 4ebe df7f 5f3d aa50 273e 9f87 86bd
000001f0: 2614 3abe e74b d4bd b117 47be 2033 4cbd
00000200: 88be 263e 2b8d b53d f3db 123e 8bdf 88bc
00000210: e2c3 36bd 867d 1dbe 3dc4 d3bd ebf1 d0bd
00000220: b7ea 373e b89f 90bd f8ec e23c 638d 62bc
00000230: 5f12 a93d fe54 2ebd b029 1dba 6ba9 42be
00000240: 36eb 41be 56c7 86bd 16ac 433e b34b b4bd
00000250: 1485 3bbe 2ef8 4c3e b6fe 0c3e 62e1 503c
00000260: 02b3 673c 5770 443e 2088 423e e19c ca3d
00000270: 0852 12be 212c 0ebd 2d9d 323e 4944 febc
00000280: 8f28 dbbd 03d4 9abb 7d8e 93bd 57ad adbd
00000290: 79f3 38be 70e6 98bb 3d32 00bd 074a 0dbe
000002a0: 4a9a 483e 2da9 323e b3ed f73c bcb5 3b3e
000002b0: 664f 3b3e 73d1 cbbd 1287 fa3d 8b9b cd3d
000002c0: 40e4 263e c013 4d3e 2ec3 e03c 6388 86bd
000002d0: f026 8dbd 0f99 17be a8e5 373e 5c2c 143e
000002e0: e1bc 323d 62f6 d53d e99b 973d 6217 85bc
000002f0: 07bd b3bd e0f4 113d a8f2 9fbd e286 c1bd
00000300: 2f4f 8abd 367d 0dbe 666c 23be bf45 a43d
00000310: 7fb1 e1bc d053 023d 0fbe 9ebc 94c3 2f3e
00000320: c475 123e 3423 0a3e 58ae 2fbe 5de4 2e3e
00000330: 7ca1 3cbe 65a6 0bbe d9a6 ccbd f9c4 a2bd
00000340: 9dd4 45be 93f5 483e e5bd 0a3e 5b2b 3e3e
00000350: 9cba edbd 6c53 17bd aead 433e 1798 1ebd
00000360: e31f c23d a660 33be e15d 7d3d 017b 023e
00000370: fc3b a93d 0e3e cd3d 0c54 473e 055b b4bd
00000380: 75e1 43be 2793 b53a 5d67 093d e583 123e
00000390: 4484 94bc 05ca 693b 91ae f13d b15d 443e
000003a0: 692c 393e 5375 07be 64f7 1b3e 241f 0e3e
000003b0: c818 7d3d 8648 2f3e 166a a33d 0339 73bd
000003c0: 72ae 1c3e 9e08 c2bd e04d d1bc acc9 2fbd
000003d0: 8a3c 063e c96f 2fbe 6e08 81bd b72b d9bd
000003e0: 71a3 f1bd 5129 e63d 0cfe 413e 2184 983d
000003f0: 300f 35bc 3901 6ebc 8f1f a53c 3de0 1a3e
0.045734804 0.20410593 0.10459042 -0.07090372 0.029107193 -0.11424043 0.17965132 -0.19251873
0.07773705 0.15317199 0.12767634 0.008219416 -0.08073527 0.11505694 -0.053487822 0.16027687
0.14067626 -0.10368057 -0.11065925 0.008166151 0.057500023 0.0358145 0.022823164 0.015189187
0.15348089 -0.12881671 -0.19268994 0.043023616 -0.19750133 -0.17489336 -0.1767039 -0.07168013
0.005408022 0.036760807 -0.13823657 0.14879283 -0.20099716 0.18213205 0.098085135 -0.048662756
0.13685997 0.15366991 -0.18248564 -0.12867905 -0.1919997 -0.15351586 0.04088166 0.053443972
0.18633746 -0.0445711 0.16146985 0.096618064 0.13823165 0.14362235 0.02095389 0.0070150546
-0.1109311 0.19321474 -0.18378924 -0.08884366 -0.040443826 0.11986361 -0.09820473 0.032971665
0.08170061 0.0581891 0.015483013 -0.012810271 0.15282094 0.0031707275 0.14406256 -0.06611474
-0.13747303 -0.072312504 0.06025528 -0.014158104 0.040361237 -0.0956748 0.0458007 -0.011258548
0.16470127 0.01013692 0.15300854 -0.083556645 0.19008592 -0.10845991 -0.020374995 0.13991545
0.0527046 -0.09481963 0.04812394 -0.105183944 0.131643 -0.17182611 -0.16583797 0.092245966
0.19150978 0.18886374 -0.032298114 -0.1234754 0.15927772 -0.13973588 -0.09911507 -0.19524488
0.05890032 0.11809931 0.20127903 0.16300607 -0.051245734 -0.18172313 0.012375164 -0.047330815
-0.20238642 0.16689755 -0.0868983 0.08698205 0.05331272 0.117280856 0.05191055 0.13872205
-0.2015193 0.054565307 0.16339365 -0.065688364 -0.18171749 -0.1036604 -0.19442631 -0.049853444
0.1628362 0.08864816 0.14341716 -0.016708156 -0.044620402 -0.15379915 -0.10340164 -0.10202392
0.1796063 -0.07061714 0.027700886 -0.0138276545 0.08255457 -0.042561524 -0.00059952866 -0.1900994
-0.18937382 -0.06580989 0.19108614 -0.08803501 -0.18312484 0.20016548 0.1376904 0.012749048
0.0141418 0.19183479 0.1899724 0.098932035 -0.14289105 -0.034710053 0.1744277 -0.03103842
-0.10701095 -0.004724981 -0.07204912 -0.084803276 -0.18061627 -0.004666142 -0.03129791 -0.1379777
0.19590107 0.17447348 0.030264711 0.18331045 0.18292007 -0.09952059 0.12232794 0.10039433
0.16298008 0.20027065 0.027436819 -0.065689825 -0.06892192 -0.14804481 0.179587 0.14470047
0.04363716 0.104473844 0.074027844 -0.016246501 -0.087762885 0.03563392 -0.07809955 -0.09449555
-0.06753384 -0.13817295 -0.1595932 0.080211155 -0.027550457 0.03181821 -0.019377736 0.17164451
0.14302737 0.13489991 -0.1715635 0.17079301 -0.18420976 -0.13637693 -0.09992761 -0.07947726
-0.19319387 0.19624929 0.13549002 0.18571226 -0.116078585 -0.03694479 0.19109222 -0.038719263
0.09478738 -0.17517337 0.061857108 0.12742235 0.08263394 0.100216016 0.19465655 -0.08806423
-0.19128974 0.0013853059 0.03354584 0.14308126 -0.018129475 0.0035673392 0.11800874 0.19176365
0.18083347 -0.1322835 0.15231091 0.13879067 0.06179121 0.17117509 0.07979219 -0.059380542
0.1530092 -0.094743 -0.025549829 -0.04291694 0.13109031 -0.17132486 -0.06300436 -0.10604041
-0.11798752 0.11238349 0.18944567 0.074470766 -0.011050984 -0.014526659 0.02015665 0.15124603

linearx.bias f4 [24]
00000000: b740 8bbd 9417 2dbc 37ed f8bc 9ce2 2ebe
00000010: 0f2e 38be e602 4e3e 2641 2d3e fddf f6bd
00000020: f693 8ebd 6bca 31be a3fd 00be 1aca c2bd
00000030: f8c9 ffbd 8b4e 90bc ab81 aabd 7a88 d4bb
00000040: 0b2f 45be 5a4f e4bd d05e f8bd ff6c c6bd
00000050: 53de 313e 0663 e0bd 3d29 7ebd 506a c4bc
-0.06799453 -0.0105647035 -0.03038655 -0.17078632 -0.1798632 0.20118293 0.16919383 -0.12054441
-0.06961815 -0.17362373 -0.12596755 -0.09511204 -0.12489694 -0.017615577 -0.083255135 -0.006485996
-0.19256227 -0.111479476 -0.12127459 -0.09688758 0.17369966 -0.10956387 -0.062051047 -0.023976475
