electricity_problem/saved_models/projectnet0.4.pt (torch, 65092 bytes, 6 tensors)

MM.weight f4 [576, 24]
0	0xbb8f6f14	-0.004377255
1	0x3a1e38c4	0.00060356804
2	0xbe4bdd1e	-0.19908568
3	0x3da7b242	0.08188297
4	0xbd45645d	-0.048191417
5	0x3e394351	0.18092085
6	0x3c0494a4	0.008092079
7	0x3e211cd3	0.15733652
8	0x3da67216	0.08127229
9	0xbe00f84f	-0.12594722
10	0xbdbbd3c7	-0.09171253
11	0xbe0bd823	-0.13656668
12	0xbdef4045	-0.1168218
13	0xbbd08a05	-0.0063641095
14	0x3e039afa	0.12852088
15	0x3d9e6670	0.07734382
16	0xbdef933b	-0.11698004
17	0x3e32b9a5	0.1745363
18	0x3ddef457	0.10886448
19	0x3d946115	0.072450794
20	0xbe3b5939	-0.18295754
21	0x3e078873	0.13235645
22	0xbe0676f9	-0.13131322
23	0x3de35ae4	0.111013204
24	0xbe0b37cc	-0.13595504
25	0x3ddf8e8b	0.1091586
26	0xbdde032b	-0.10840448
27	0xbe4cd15d	-0.20001741
28	0xbdf1f34e	-0.11813985
29	0xbde094c1	-0.109658726
30	0x3d7c9680	0.061666965
31	0xbe041280	-0.12897682
32	0x3de279f2	0.110584155
33	0x3ce1f0b9	0.027580606
34	0x3e49eb3a	0.19718638
35	0x3c840947	0.016117705
36	0x3d4fe227	0.050752785
37	0x3e46667c	0.19375032
38	0x3e3a1abd	0.18174262
39	0x3c9c73dd	0.019098217
40	0xbd67b844	-0.056572214
41	0x3dd8565e	0.10563348
42	0xbe346e61	-0.17620231
43	0x3db589b0	0.088641524
44	0x3d167817	0.03673562
45	0x3d9af566	0.07566337
46	0x3e426a4c	0.18985862
47	0x3d28bd02	0.041195877
48	0xbddf117e	-0.10892008
49	0x3e441a52	0.19150665
50	0xbda2dd13	-0.07952323
51	0x3d2616ef	0.040549215
52	0xbdd355fc	-0.103191346
53	0x3d9ad1f5	0.075595774
54	0xbe2b4847	-0.1672679
55	0xbdb26f49	-0.08712632
56	0xbe4b1d04	-0.19835287
57	0xbe40f64a	-0.18843952
58	0x3d87a477	0.06623166
59	0xbe4a0206	-0.19727334
60	0x3e07d346	0.13264188
61	0x3dcf8f88	0.10134798
62	0x3cc07d34	0.023497202
63	0x3e47fddf	0.19530438
64	0xbe28fc8b	-0.16502587
65	0xbd4563a6	-0.048190735
66	0x3da5978c	0.08085546
67	0x3db7721b	0.08957311
68	0x3c07751f	0.00826767
69	0xbdd3d640	-0.10343599
70	0x3e05b320	0.13056612
71	0xbc9f7f84	-0.019469984
72	0xbd1bffd8	-0.03808579
73	0xbd9160a1	-0.070985086
74	0x3d8e652b	0.0695289
75	0x3e3fb516	0.18721423
76	0xbc03ed5d	-0.008052197
77	0x3d0daff8	0.034591645
78	0xbcefb5cb	-0.02926149
79	0x3e2ccd80	0.16875267
80	0x3d64af58	0.055831283
81	0xbe465502	-0.19368365
82	0x3dad11f3	0.08450689
83	0xbe21e08c	-0.15808314
84	0xbe00c89c	-0.12576526
85	0xbd0d9e56	-0.03457483
86	0xbe262acc	-0.16227263
87	0xbe423990	-0.18967271
88	0x3de00ff2	0.10940541
89	0x3e035862	0.12826684
90	0x3d8392cf	0.06424486
91	0x3d0baa2f	0.034097847
92	0xbd6fbb34	-0.05852814
93	0x3d7614b2	0.06007833
94	0xbde2796c	-0.11058316
95	0xbe4a3175	-0.19745429
96	0xbe20de99	-0.15709914
97	0xbca36180	-0.019943953
98	0x3e41d701	0.18929674
99	0x3d089f66	0.03335514
100	0x3c465245	0.0121045755
101	0x3e1ddb8e	0.15415785
102	0x3e442127	0.19153272
103	0xbd538c27	-0.05164733
104	0x3e072b05	0.13200004
105	0x3cb6364c	0.022242688
106	0x3d26d31c	0.040728673
107	0x3e35f4d0	0.1776917
108	0x3e3f625d	0.18689866
109	0x3e0611b6	0.13092694
110	0x3da6b9e0	0.081409216
111	0x3caa05b3	0.02075467
112	0xbd877b9a	-0.06615372
113	0x3dc98da3	0.09841468
114	0x3e188983	0.14896207
115	0x3e3d40ba	0.18481722
116	0x3e4c7e8f	0.19970153
117	0xbdeb87cd	-0.11500511
118	0xbe035ced	-0.12828417
119	0xbdd3c1f7	-0.1033973
120	0xbcabb3fe	-0.02095985
121	0x3e0560d6	0.13025221
122	0x3e0a8c2e	0.13530037
123	0xbcadbb70	-0.021207541
124	0x3d525199	0.05134735
125	0xbd3f99fd	-0.046777714
126	0xbe0c5e54	-0.13707858
127	0xbe285b2f	-0.16441034
128	0x3cd67bb7	0.026182039
129	0xbd8dc42d	-0.06922183
130	0xbe065662	-0.1311889
131	0x3ca3b128	0.019981936
132	0xbe195da9	-0.14977135
133	0xbdbf181d	-0.09330771
134	0x3d4927d4	0.04911025
135	0xbddb57b2	-0.10710086
136	0x3e361d6c	0.17784661
137	0x3e3701e6	0.17871818
138	0xbe4ce53c	-0.20009321
139	0xbdc1c8bd	-0.09462116
140	0xbe151b56	-0.14561209
141	0x3db59651	0.08866561
142	0x3e26d3a7	0.16291676
143	0x3d07d7f8	0.03316495
144	0xbe39c096	-0.18139872
145	0xbd9a26af	-0.075269096
146	0xbdc3eaed	-0.09566293
147	0x3e27fe82	0.16405681
148	0xbc30958a	-0.01077784
149	0xbdd6d8e2	-0.10490586
150	0x3e1b3ea4	0.15160614
151	0x3e05f028	0.13079894
152	0xbd20644a	-0.039158143
153	0xba33fae7	-0.00068656955
154	0xbccb5748	-0.024821892
155	0x3d97fb0f	0.074209325
156	0xbe25ef93	-0.16204672
157	0xbe2ef3fc	-0.1708526
158	0xbe073377	-0.13203226
159	0xbda2d72a	-0.079511955
160	0x3e2a3626	0.16622218
161	0x3d485aaf	0.048914608
162	0x3d0892a4	0.033342972
163	0x3e032deb	0.12810485
164	0x3e1c2dd1	0.15251853
165	0x3da1e994	0.079058796
166	0xbd0e37f1	-0.03472132
167	0xbddb6855	-0.10713259
168	0xbe4d10c5	-0.20025928
169	0x3ddad0e3	0.10684373
170	0x3d8e3a16	0.06944673
171	0xbe362f9d	-0.177916
172	0x3d2b622a	0.041841663
173	0xbd8dc9c7	-0.069232516
174	0xbcf7e0d7	-0.03025858
175	0xbdba53ae	-0.09097992
176	0x3e3e0a6a	0.1855866
177	0x3d7f1780	0.06227827
178	0xbe3f11ce	-0.18659136
179	0xbd1b387e	-0.037895672
180	0x3dd1871f	0.102308504
181	0x3dd4de42	0.10393955
182	0xbda6b2e9	-0.08139593
183	0x3e1dd5c0	0.1541357
184	0xbe4b9632	-0.19881514
185	0xbe2c0c3a	-0.16801539
186	0xbe02be2c	-0.12767857
187	0xbe1779de	-0.14792582
188	0xbddda961	-0.10823322
189	0x3d9423ae	0.07233368
190	0xbda9d069	-0.08291704
191	0xbe29359c	-0.16524357
192	0xbe505abf	-0.20347117
193	0xbdcffe17	-0.10155886
194	0x3e1c56c5	0.15267475
195	0x3ded8238	0.11597103
196	0x3d8d5186	0.06900315
197	0xbe21cf1d	-0.15801664
198	0xbe297b9f	-0.16551064
199	0xbd27a613	-0.040929865
200	0xbdc88586	-0.097910926
201	0x3d6f6fa0	0.058456063
202	0xbcf77347	-0.030206336
203	0xbe23f303	-0.1601067
204	0x3d84a572	0.06476869
205	0xbd919a6c	-0.07109532
206	0x3dc0927f	0.09402942
207	0xbdd54ae1	-0.10414673
208	0x3cf2f289	0.029656665
209	0xbe3db4ee	-0.1852605
210	0xbc9471cb	-0.018120667
211	0x3b127791	0.00223491
212	0x3de9bb4c	0.11412677
213	0xbe13f40f	-0.1444857
214	0x3cd9a49b	0.026567748
215	0x3cc4c145	0.02401794
216	0x3c0f8e01	0.008761884
217	0x3e0b5589	0.13606848
218	0x3d9d89ce	0.076923
219	0x3e4f17b1	0.20223881
220	0x3d6034db	0.054737907
221	0xbe0cebb6	-0.13761792
222	0x3e350fac	0.1768176
223	0xbe1b7e75	-0.15184958
224	0x3dda8834	0.1067051
225	0xbd913de7	-0.07091885
226	0x3d4b59d5	0.049646217
227	0x3bb1c0fd	0.0054246173
228	0xbe2a3e67	-0.16625367
229	0xbddad7f4	-0.10685721
230	0x3e4b67e3	0.19863848
231	0x3e1f9056	0.15582404
232	0x3dfbd0e8	0.12295705
233	0xbd489701	-0.048972134
234	0x3d90c33a	0.070684865
235	0x3dfd69dc	0.12373707
236	0x3c8a5d90	0.016890317
237	0xbe4fc7cd	-0.20291062
238	0x3e3cafec	0.18426484
239	0xbe2efaf0	-0.17087913
240	0x3d8c2ec3	0.068448566
241	0xbe070d2f	-0.13188623
242	0x3e363dc6	0.17797002
243	0x3dc0812c	0.093996376
244	0xbd04c060	-0.032410026
245	0xbe3aa427	-0.18226682
246	0x3c3f4fb6	0.011676719
247	0x3d2a2775	0.041541535
248	0x3ce2fbf9	0.02770804
249	0x3e0a1a73	0.13486652
250	0xbd9236ec	-0.07139382
251	0xbd63b5ee	-0.055593424
252	0xbd8fcc39	-0.07021374
253	0x3d426200	0.04745674
254	0xbe4569d1	-0.19278647
255	0xbc659700	-0.014013052

MM.bias f4 [576]
0	0xbdfd1bae	-0.12358795
1	0xbd231195	-0.03981169
2	0xbe19990e	-0.14999792
3	0x3c293c06	0.010329252
4	0xbd66a811	-0.056312624
5	0x3e4e7788	0.20162785
6	0x3da6ba7a	0.08141036
7	0x3d670638	0.056402415
8	0x3d5e0d7d	0.054212082
9	0x3b9d91ff	0.004808664
10	0x3deed74c	0.11662158
11	0x3e13c1cd	0.14429398
12	0x3e01a184	0.1265927
13	0xbdb2d880	-0.087327
14	0xbd886b00	-0.06661034
15	0x3e256375	0.16151221
16	0x3d67a4e6	0.056553744
17	0xbd8f1114	-0.06985679
18	0xbe0b5e60	-0.1361022
19	0xbc66ec31	-0.014094398
20	0x3e3bcd65	0.1834007
21	0x3d0afd1c	0.03393279
22	0x3ce9292b	0.028462013
23	0x3c9fb4b1	0.01949534
24	0xbe4f13fe	-0.2022247
25	0xbc536494	-0.012902398
26	0xbe21e8e7	-0.15811501
27	0x3b439c8e	0.0029847953
28	0x3e271f96	0.16320643
29	0xbe2a12a9	-0.16608681
30	0xbe284dc1	-0.16435911
31	0x3de98d92	0.114039555
32	0xbe1fb3c1	-0.15595914
33	0xbe1dde00	-0.15416718
34	0x3aa5c498	0.001264709
35	0xbe33c223	-0.17554526
36	0xbdc6dae1	-0.097097166
37	0xbccf9307	-0.025338663
38	0x3c25c416	0.010117551
39	0x3c22e2ca	0.009941766
40	0x3d091b12	0.033473082
41	0x3d30e9eb	0.04319183
42	0xbe1aa631	-0.1510246
43	0xbcfe665f	-0.031054674
44	0x3d23be59	0.03997645
45	0xbe20eb5b	-0.15714781
46	0xbd98072a	-0.074232414
47	0x3cccc2e1	0.02499527
48	0x3d141add	0.03615843
49	0x3e38d838	0.18051231
50	0x3d45b2c6	0.048266195
51	0x3e09f7ec	0.13473481
52	0xbdabc0cd	-0.08386383
53	0x3e27abe9	0.16374172
54	0x3de79b68	0.11308938
55	0x3e350ade	0.17679927
56	0x3e3c1acd	0.18369599
57	0xbe13414e	-0.1438038
58	0xbe18eaf6	-0.1493338
59	0x3e36ce55	0.17852147
60	0xbe0030d4	-0.12518626
61	0xbdbc1506	-0.091836974
62	0x3d8b708e	0.068085775
63	0x3d28a371	0.041171495
64	0x3de6d833	0.112717055
65	0xbcd133bf	-0.02553737
66	0x3d852bf6	0.065025255
67	0x3e02b558	0.1276449
68	0xbe20c721	-0.15700962
69	0x3e02825a	0.12745038
70	0x3e3f8095	0.18701394
71	0xbde64c53	-0.112450264
72	0x3e4b4ddc	0.1985392
73	0xbd925e51	-0.07146896
74	0xbd31b898	-0.043388933
75	0x3e2fdd5e	0.17174289
76	0x3d839154	0.064242035
77	0x3c18019e	0.009277729
78	0x3e32000a	0.17382827
79	0xbe1e884d	-0.15481682
80	0x3b097079	0.002097158
81	0xbe1e95f7	-0.15486895
82	0xbd8a7e3c	-0.067623585
83	0x3e283508	0.1642648
84	0x3e2c0a1a	0.16800728
85	0xbe1f41bc	-0.1555242
86	0xbdb53b30	-0.0884918
87	0xbd7ed366	-0.062213324
88	0xbc25aac6	-0.010111516
89	0xbe323573	-0.17403202
90	0xbda298b4	-0.07939282
91	0xbdd6511d	-0.1046469
92	0x3e14f19f	0.14545296
93	0xbe09da80	-0.13462257
94	0xbe4835e2	-0.19551805
95	0x3c8846c2	0.016635302
96	0xbcd34f3f	-0.025794623
97	0x3e0061a1	0.12537242
98	0xbe1d271e	-0.15346953
99	0x3e32af4c	0.17449683
100	0x3e311799	0.17294158
101	0xbe056012	-0.13024929
102	0x3d50e029	0.050995026
103	0x3b91c9a7	0.0044490877
104	0x3d04abf6	0.032390557
105	0x3ddfb483	0.10923102
106	0xbe0a0d99	-0.1348175
107	0xbdb70b2d	-0.089376785
108	0xbde151bf	-0.1100192
109	0xbe143f09	-0.14477171
110	0xbd5ac9db	-0.05341516
111	0xbb5605c8	-0.0032657254
112	0xbd03c21d	-0.032167543
113	0x3af8b80a	0.0018975746
114	0x3bb09ce3	0.005389796
115	0xbe0f4393	-0.13990621
116	0x3c33c7ab	0.0109728975
117	0xbe3ad6a5	-0.18245943
118	0xbe1028ef	-0.14078115
119	0x3e2ddf05	0.16979606
120	0xbe36347e	-0.17793462
121	0xbdf317ba	-0.1186976
122	0xbe2f5d55	-0.17125447
123	0x3d46591c	0.048424825
124	0xbd699159	-0.05702338
125	0x3e097a36	0.13425526
126	0x3dee8b5d	0.11647675
127	0xbc22a7cc	-0.009927701
128	0x3e25438b	0.16139047
129	0x3dc039e5	0.093860425
130	0x3e10bb76	0.1413401
131	0xbc87661e	-0.016528185
132	0x3d7eca51	0.062204663
133	0xbd95ce53	-0.07314744
134	0xbcbf7f12	-0.023376022
135	0xbe37abfe	-0.17936704
136	0xbb51e056	-0.0032024584
137	0x3db58d4c	0.08864841
138	0xbd9a04c0	-0.07520437
139	0xbdfae4a9	-0.12250645
140	0xbe49d94c	-0.19711798
141	0x3d224dc0	0.03962493
142	0x3dce0d82	0.1006117
143	0x3cb01383	0.021493679
144	0x3d33bf8e	0.043883853
145	0xbe24e4fd	-0.16102977
146	0xbe25fed4	-0.1621049
147	0xbe07a54a	-0.13246647
148	0xbc820652	-0.015872154
149	0xbd8f9a39	-0.070118375
150	0x3d3722da	0.04471097
151	0xbde57752	-0.11204399
152	0x3e498cc5	0.19682606
153	0xbd763de7	-0.06011763
154	0x3e279975	0.16367133
155	0x3e4f2d89	0.20232214
156	0xbe2948fb	-0.16531746
157	0x3e1ba2e1	0.15198852
158	0xbdb34059	-0.08752508
159	0x3de869a9	0.11348278
160	0x3dd652d0	0.10465014
161	0xbd192baa	-0.037395157
162	0xbe0ebdf3	-0.13939647
163	0xbdce45c5	-0.10071901
164	0xbd2ffd7e	-0.04296636
165	0xbe2e9e33	-0.17052536
166	0xbc07dceb	-0.008292417
167	0x3ddb7e67	0.10717469
168	0xbe13f646	-0.14449415
169	0x3d94fa95	0.07274357
170	0xbdbba424	-0.09162167
171	0xbe342700	-0.17593002
172	0xbd22e077	-0.039764848
173	0x3d4e46c4	0.050360456
174	0xbdf56cba	-0.119836286
175	0xbd17a237	-0.037019935
176	0xbdbe1ffd	-0.09283445
177	0x3c940f82	0.018073801
178	0xbd994c77	-0.07485288
179	0x3d741f98	0.059600443
180	0x3d93809f	0.07202267
181	0xbe3217e5	-0.17391928
182	0x3d965a6a	0.07341464
183	0xbdf03494	-0.117287785
184	0x3daa28a8	0.08308536
185	0x3d930aee	0.07179819
186	0xbe313215	-0.17304261
187	0x3c9f924c	0.01947894
188	0x3d9fd3e5	0.078040875
189	0x3d3d02d7	0.046145286
190	0x3c3ff781	0.011716724
191	0xbcc4fda3	-0.024046725
192	0xbd5366fa	-0.051611878
193	0xbc80a8b5	-0.015705446
194	0x3e2550c1	0.16144086
195	0x3e3dd8ae	0.18539688
196	0x3d48feda	0.04907117
197	0xbdb32d12	-0.08748831
198	0x3c2caa93	0.010538715
199	0xbc1cd619	-0.009572529
200	0x3dd8f1d5	0.10593001
201	0xbddfa6fa	-0.1092052
202	0x3d21798a	0.03942255
203	0x3d864a5c	0.06557152
204	0xbcc23215	-0.023705522
205	0xbdefc429	-0.117073365
206	0x3cd37ecf	0.025817303
207	0xbe17fa2e	-0.1484153
208	0x3d3ef8e9	0.046624098
209	0xbc95fd49	-0.018309252
210	0xbdec8352	-0.11548485
211	0x3e230b19	0.15922202
212	0xbbaa2881	-0.0051928167
213	0x3d6c72b2	0.05772657
214	0xbe1cb649	-0.15303911
215	0x3deb7972	0.11497773
216	0x3e41db8f	0.18931411
217	0x3e213f67	0.15746842
218	0x3d104055	0.0352176
219	0x3e12658c	0.1429655
220	0x3e18d48f	0.14924835
221	0xbca69719	-0.02033572
222	0xbdf191e3	-0.11795404
223	0xbe293644	-0.16524607
224	0xbe01f0c0	-0.12689495
225	0x3d6e2cd4	0.05814822
226	0xbd965e58	-0.073422134
227	0xbc7a1327	-0.015263355
228	0x3c2ab84f	0.010419919
229	0x3d2674ce	0.040638737
230	0x3b821b59	0.0039705453
231	0xbd23b741	-0.039969686
232	0x3e3f4d3d	0.18681808
233	0x3e1c7935	0.15280612
234	0x3e08bf06	0.1335412
235	0x3e3a8050	0.1821301
236	0xbe26a9b1	-0.1627567
237	0x3e183523	0.1486402
238	0xbd1fb653	-0.038992237
239	0xbe1b0161	-0.15137245
240	0xbcc4f6f4	-0.024043538
241	0xbde1416b	-0.109988056
242	0xbe251bf5	-0.16123946
243	0xbd5b7770	-0.0535807
244	0x3e29b190	0.16571641
245	0x3d0f93b8	0.035052985
246	0x3df8b7f0	0.12144458
247	0xbd4498e0	-0.047997355
248	0x3db657a6	0.08903436
249	0x3dc4532b	0.095861755
250	0xbe457543	-0.19283013
251	0xbe0f41ea	-0.13989988
252	0x3c879658	0.016551182
253	0xbe387b74	-0.18015844
254	0xbe380ee9	-0.17974438
255	0x3d73106a	0.059341826

linear.weight f4 [24, 24]
0	0x404befc1	3.1865084
1	0x3fe51df1	1.7899762
2	0x3e4e5162	0.20148233
3	0x3eb2529f	0.3482866
4	0x3d89af5c	0.067229
5	0x3e8d0f15	0.2755057
6	0xbed702f4	-0.4199444
7	0xbfcbbb25	-1.5916487
8	0xc00ef007	-2.2334
9	0xbf9d30fc	-1.2280574
10	0xbe70993a	-0.23495951
11	0xbf607a9f	-0.87687105
12	0xbef62480	-0.48074722
13	0x3d52e068	0.05148354
14	0x3edb72d6	0.4286105
15	0x3d7957f4	0.060874894
16	0x3e9000cd	0.2812561
17	0xbd80190e	-0.06254779
18	0x3ee9bc7d	0.45651618
19	0x3f30af18	0.6901717
20	0x3ec67e73	0.38768348
21	0x3d965767	0.073408894
22	0xbe49a670	-0.19692397
23	0x3f2ef113	0.683366
24	0x3fec1014	1.8442407
25	0x40268918	2.6021175
26	0x3f1538d3	0.5828983
27	0x3f6e2e0a	0.93039
28	0x3ecfdc05	0.4059755
29	0x3e382eb4	0.17986566
30	0xbe49bab8	-0.19700134
31	0xbfc590be	-1.5434797
32	0xc002a701	-2.041443
33	0xbf2a99da	-0.6664101
34	0xbe76f113	-0.241154
35	0xbf2ece51	-0.68283564
36	0xbe77cc41	-0.2419901
37	0x3e4f2258	0.20227945
38	0x3f3205a5	0.6953986
39	0x3e01ea58	0.12687051
40	0x3e513381	0.20429803
41	0x3d7032d6	0.05864223
42	0x3f5d2305	0.8638156
43	0x3ed599e8	0.41718984
44	0x3eeacd95	0.45859972
45	0x3ed913be	0.42397875
46	0x3e55e422	0.20887807
47	0x3f21fdeb	0.63278073
48	0x3f8226b1	1.0168058
49	0x4001c905	2.0278943
50	0x3ff95d6b	1.9481634
51	0x3fcc1045	1.5942465
52	0x3f5793ba	0.8420979
53	0x3d983bb2	0.07433261
54	0x3ea7f94b	0.32807383
55	0xbfa9a126	-1.3252304
56	0xbfb3032d	-1.3985344
57	0xbec26ba5	-0.3797275
58	0xbea98f38	-0.3311708
59	0xbf1cb812	-0.6121837
60	0xbe63a619	-0.2223133
61	0x3e8284b9	0.25491884
62	0x3f14a34e	0.58061683
63	0xbea4a743	-0.3215886
64	0x3e81fca9	0.25388077
65	0xbce7335b	-0.02822273
66	0x3f214e44	0.6301005
67	0x3f06d6bb	0.526714
68	0x3ee211a1	0.44154075
69	0x3f4fcb84	0.81169915
70	0x3d00bd21	0.031430367
71	0x3f3e3dde	0.7431315
72	0x3f57ed73	0.84346694
73	0x3fc88116	1.5664394
74	0x3f8653ec	1.0494361
75	0x404046dd	3.0043252
76	0x3fb2e50b	1.3976148
77	0x3e96dc9d	0.2946519
78	0x3f2c618c	0.67336345
79	0xbfaedf85	-1.3661963
80	0xbfb28530	-1.3946896
81	0xbdde0d53	-0.10842385
82	0xbeaaa050	-0.33325434
83	0xbea07ac3	-0.3134366
84	0xbea533c1	-0.32266048
85	0xbe754754	-0.23952991
86	0x3ee3ddd4	0.4450518
87	0xbe6db8d7	-0.23215042
88	0xbdc09a9c	-0.094044894
89	0xbf1d6776	-0.61485994
90	0x3f0bcfa5	0.54613715
91	0x3e56cbb7	0.20976149
92	0x3e16c943	0.14725213
93	0x3ee3d789	0.44500378
94	0x3f062311	0.5239726
95	0x3d59fe83	0.053221237
96	0x3f01fc90	0.50776005
97	0x3f6d1425	0.92608863
98	0x3f34687d	0.70471936
99	0x40060af8	2.0944195
100	0x400bd5d4	2.184926
101	0x3fa70c01	1.3050538
102	0x3f9292d6	1.1451061
103	0xbf8aad8d	-1.0834213
104	0xbf2de88d	-0.6793297
105	0x3e50bfe0	0.20385695
106	0x3dc9137b	0.09818169
107	0xbc9a76de	-0.018855508
108	0x3dd2cfc4	0.102935344
109	0xbf00b606	-0.50277746
110	0x3ec0f1df	0.37684533
111	0xbcdfd32a	-0.02732237
112	0x3e335ae6	0.17515144
113	0xbef4d12e	-0.4781584
114	0x3f04d2ca	0.5188414
115	0x3dc63ba0	0.09679341
116	0x3ebb2884	0.36554348
117	0x3f0ad22e	0.5422696
118	0x3f1ad051	0.60474116
119	0x3eac392b	0.33637366
120	0x3ef6e2ee	0.4822001
121	0x3f2c0e5b	0.67209405
122	0x3f78802b	0.9707057
123	0x3f841a49	1.0320522
124	0x3f14e5bc	0.58163047
125	0x401a57d4	2.4116106
126	0x3fef52da	1.8697159
127	0xbe382270	-0.17981887
128	0xbe96d607	-0.29460165
129	0x3ec027ab	0.37530264
130	0x3d143e56	0.03619226
131	0x3ef5ecc0	0.48032188
132	0xbe7b3b7e	-0.24534413
133	0xbf20c922	-0.62806904
134	0x3f1b264a	0.606053
135	0x3c2c52c4	0.01051778
136	0xbe33270c	-0.17495364
137	0xbf199317	-0.59990066
138	0x3f3ae9ed	0.7301319
139	0x3e9bc9a1	0.30427268
140	0x3f034128	0.51271296
141	0x3f2476d6	0.6424383
142	0x3edf20f0	0.43579817
143	0x3ee35e9d	0.44408122
144	0x3e839193	0.25697002
145	0x3f510874	0.81653523
146	0x3f590745	0.8477672
147	0x3f6e1ed3	0.93015784
148	0x3ce752d0	0.02823773
149	0x3f75ba7e	0.9598769
150	0x401e4cdb	2.473441
151	0x3f8f3103	1.1186832
152	0x3f645dae	0.89205444
153	0x3ed53672	0.416431
154	0xbca864ef	-0.020555941
155	0x3f015631	0.5052214
156	0x3e90141b	0.2814034
157	0xbec54d41	-0.38535503
158	0x3efffb7d	0.49996558
159	0x3e2d71b0	0.169379
160	0x3db66ad7	0.08907097
161	0xbedd846e	-0.43265098
162	0x3f0b3393	0.5437557
163	0x3c6eedd1	0.014583067
164	0x3f52c361	0.82329375
165	0x3ec21311	0.37905172
166	0x3d7f5ba4	0.062343255
167	0x3e5f059b	0.21779482
168	0x3ecd31b3	0.4007698
169	0x3e980588	0.2969172
170	0x3f865ae7	1.0496491
171	0x3f33c495	0.70221835
172	0xbf18b48c	-0.5965049
173	0x3f0ecf3e	0.55784976
174	0x3fbbbc1c	1.4666781
175	0x400c3dc1	2.1912692
176	0x3fff079b	1.9924196
177	0x3f40f56c	0.75374484
178	0x3a8076e1	0.0009801054
179	0x3e015df7	0.12633501
180	0x3f2ecc66	0.6828064
181	0xbedc80fd	-0.4306716
182	0x3ec6a3fd	0.38796988
183	0xbc9ba730	-0.01900062
184	0xbdf74389	-0.12073428
185	0xbf22e4c5	-0.63630325
186	0x3f3906ee	0.722762
187	0x3e15d91d	0.14633603
188	0x3f24045f	0.6406917
189	0x3ec9c8ef	0.39411113
190	0x3e49f669	0.19722904
191	0x3e4d1ced	0.20030566
192	0x3ea83807	0.32855245
193	0x3de6ef86	0.11276154
194	0x3f2dc0f3	0.6787254
195	0x3f118277	0.568397
196	0xbf12f9e7	-0.5741257
197	0x3eb813cf	0.35952613
198	0x3f77c3e9	0.9678331
199	0x3fedb364	1.8570371
200	0x404f777d	3.241668
201	0x3fc82b42	1.5638201
202	0x3dba9bfa	0.091117814
203	0x3da53f59	0.08068723
204	0x3f12b622	0.5730916
205	0xbd4191c9	-0.047258172
206	0x3e16dc84	0.14732558
207	0xbeb165db	-0.34648022
208	0x3ebef729	0.37297943
209	0xbee6cd87	-0.4507868
210	0x3ec59ed8	0.3859775
211	0x3eb1a343	0.3469487
212	0x3f25e943	0.64809054
213	0x3f16425a	0.58694994
214	0xbd30f07e	-0.0431981
215	0x3ea308f9	0.31842783
216	0x3f151577	0.5823588
217	0x3e5fed59	0.21867885
218	0x3f840dda	1.0316727
219	0x3ef84a52	0.48494202
220	0xbea7f341	-0.32802776
221	0x3f091bed	0.53558236
222	0x3f2ab078	0.6667552
223	0x3feeb137	1.8647832
224	0x4038976e	2.8842425
225	0x401de568	2.4671268
226	0x3ec2b123	0.3802577
227	0x3f2456d6	0.64195
228	0x3f758a43	0.95914096
229	0x3e856c4b	0.26059183
230	0x3f3253ef	0.6965932
231	0xbdee649e	-0.11640285
232	0x3f4edf2b	0.8080928
233	0xbe685e2c	-0.22692174
234	0x3f303451	0.6882983
235	0x3f09f40e	0.5388802
236	0x3f6f155a	0.93391955
237	0x3f2273d6	0.63458
238	0x3e36e4b3	0.1786068
239	0x3f08da43	0.5345804
240	0x3eaf4c49	0.34237888
241	0x3e21a950	0.15787244
242	0x3eb6523f	0.35609624
243	0xbe48f603	-0.19625096
244	0xbdccdb3b	-0.100027524
245	0x3ea57f40	0.32323647
246	0x3eff7ec4	0.49901402
247	0x3f9cbaf7	1.2244557
248	0x3fcab062	1.5835078
249	0x3fb0383e	1.3767164
250	0x3f748ddf	0.9552898
251	0x3f6f8ddc	0.93575835
252	0x3f5a1690	0.8519068
253	0x3e927f92	0.28612953
254	0x3f240320	0.6406727
255	0x3e18c3f6	0.14918503

linear.bias f4 [24]
0	0x3e0ce3c0	0.13758755
1	0x3eb3b87e	0.35101694
2	0x3e64bb32	0.22337034
3	0x3ed7f691	0.42180303
4	0x3e8ba441	0.27273753
5	0x3e2e3476	0.170122
6	0x3ec2d687	0.38054296
7	0xbe03acb6	-0.12858853
8	0xbdf9cc86	-0.12197213
9	0x3dfac928	0.12245399
10	0x3d7c508c	0.061600253
11	0x3d076f26	0.033064984
12	0x3cc5ee7f	0.024161575
13	0x3ed2cf80	0.41173935
14	0x3ee28869	0.44244698
15	0x3ef981ff	0.48731992
16	0x3f0c6a09	0.54849297
17	0x3ef837c4	0.48480046
18	0x3f15373c	0.58287406
19	0x3ec9707f	0.3934364
20	0x3ea03fe9	0.3129876
21	0xbe34a65f	-0.1764159
22	0xbe0252f8	-0.12726963
23	0x3eac97e0	0.3370962

linearx.weight f4 [24, 24]
0	0xbf1de21b	-0.61673135
1	0xbf2b3078	-0.6687083
2	0xbf0aaf6a	-0.5417391
3	0xbee8c98f	-0.45466277
4	0xbca3c79f	-0.019992648
5	0xbe845061	-0.25842574
6	0x3cb759e0	0.022381723
7	0xbc9a1da8	-0.01881297
8	0xbdc419ad	-0.0957521
9	0xbc69ec55	-0.014277537
10	0xbe7c14c5	-0.24617298
11	0x3d82d0de	0.063874945
12	0xbe3c31f4	-0.1837843
13	0xbe3993ed	-0.18122835
14	0xbe87a020	-0.26489353
15	0xbeb2fe23	-0.34959516
16	0xbe9f93d0	-0.3116746
17	0xbe9e5a07	-0.3092806
18	0xbea8f406	-0.32998675
19	0xbeb05737	-0.3444154
20	0xbeae607e	-0.34057993
21	0xbebdcd4e	-0.37070698
22	0xbebfb636	-0.37443703
23	0xbe8aaecd	-0.27086487
24	0xbe15e40d	-0.14637776
25	0xbe8e167e	-0.27751535
26	0xbda9ce07	-0.0829125
27	0xbd8f8245	-0.07007269
28	0xbe102849	-0.14077868
29	0x3d04c74b	0.032416623
30	0x3e24bcf7	0.1608771
31	0x3e03f8f3	0.12887935
32	0x3e359957	0.17734276
33	0x3e8c4b07	0.2740099
34	0x3e20fd57	0.15721641
35	0xbdace0a5	-0.08441285
36	0xbd8f030a	-0.069830015
37	0xbd8b4898	-0.068009555
38	0xbe674119	-0.22583427
39	0xbc394524	-0.011307988
40	0x3d9a53f7	0.07535546
41	0xbe698ce3	-0.2280765
42	0xbd0542f1	-0.032534543
43	0xbe035345	-0.12824734
44	0x3dc5615d	0.09637711
45	0x3db4d456	0.08829562
46	0x3b53aa82	0.0032297675
47	0xbe809de7	-0.2512047
48	0xbdb9eb31	-0.09078062
49	0xbecacfde	-0.39611715
50	0xbdcbd0a0	-0.099519014
51	0xbe81ad2c	-0.25327432
52	0xbe22a9b2	-0.15885046
53	0xbdd972e6	-0.10617618
54	0xbb9179e6	-0.0044395803
55	0xbb52054e	-0.003204662
56	0x3e8f7c52	0.28024536
57	0x3e9171be	0.2840709
58	0x3e10f74f	0.1415684
59	0x3ea9911d	0.33118525
60	0x3eadadb5	0.3392159
61	0x3e3e82ae	0.18604538
62	0xbde59981	-0.11210919
63	0xbd425a2c	-0.047449276
64	0x3d13ceca	0.03608588
65	0xbdf1a57a	-0.1179914
66	0x3d201cd6	0.03909
67	0xbd14516b	-0.03621046
68	0x3e1e9245	0.15485485
69	0x3de09993	0.10966792
70	0xbe2202af	-0.15821336
71	0xbc68a6ec	-0.0141999535
72	0xbe964dc7	-0.29356214
73	0xbd3c57ea	-0.04598228
74	0xbb975444	-0.0046181995
75	0xbe1285eb	-0.14308898
76	0xbda45e7b	-0.08025833
77	0x3e5bdeaa	0.21471658
78	0x3dd696d6	0.104779884
79	0x3d41db25	0.047328133
80	0x3eb345fd	0.35014334
81	0x3ebedeeb	0.37279448
82	0x3e85d0cf	0.2613587
83	0x3e21b204	0.15790564
84	0x3ea5d012	0.32385308
85	0x3d659486	0.056049846
86	0x3d875380	0.06607723
87	0x3e9bb7cf	0.30413672
88	0x3e9f5eab	0.31126913
89	0x3d8f2722	0.06989886
90	0xbbaa49dc	-0.005196793
91	0x3cc359c4	0.023846515
92	0xbd1bb1b7	-0.03801128
93	0x3d697e51	0.05700523
94	0x3e78e2fa	0.24305335
95	0xbd0ea54d	-0.03482561
96	0x3d4c60ab	0.049896877
97	0xbe2da16a	-0.16956106
98	0xbc94d79b	-0.018169215
99	0xbdf69c6d	-0.120415546
100	0x3cacf20b	0.021111509
101	0xbdcc0f63	-0.09963872
102	0xbd415f5b	-0.04721008
103	0x3e3d24c6	0.18471059
104	0x3dd32fa3	0.1031182
105	0x3ebcf243	0.3690358
106	0x3e92052c	0.2851957
107	0x3d48b680	0.04900217
108	0x3eba8045	0.36425987
109	0x3e273f1c	0.16332668
110	0x3ddccf4d	0.10781727
111	0x3e0dbc45	0.1384135
112	0x3ec5e643	0.38652238
113	0x3e9cbdb4	0.30613482
114	0x3e4e9628	0.20174468
115	0x3e78705f	0.24261616
116	0x3e1d9a75	0.15390952
117	0x3d1a6fa0	0.03770411
118	0xbcd365b9	-0.025805341
119	0x3dd5c6cb	0.104383074
120	0xbe33d848	-0.17562973
121	0x3d536c6a	0.051617064
122	0xbd9d8ee4	-0.0769327
123	0xbe28bec5	-0.16479023
124	0xbe175d9c	-0.14781803
125	0xbe2e89af	-0.1704471
126	0x3df648cc	0.12025604
127	0x3be2e439	0.006924179
128	0xbdaa4788	-0.08314425
129	0x3e64fb46	0.22361478
130	0x3e399110	0.18121743
131	0x3e4ff491	0.20308138
132	0x3e7d4b79	0.24735822
133	0x3ec9ca4a	0.39412147
134	0x3e837efe	0.25682825
135	0x3e1b4593	0.15163259
136	0x3ea6a212	0.32545525
137	0x3d715e54	0.05892785
138	0x3e7c757b	0.2465419
139	0x3dfebac3	0.12437966
140	0x3e63ceb8	0.22246826
141	0x3d6b19a5	0.057397503
142	0x3e1be71e	0.15224883
143	0xbd0b137b	-0.033954125
144	0x3d79d5c8	0.060994893
145	0xbd3a1854	-0.045433357
146	0xbcb3e183	-0.021958118
147	0xbe02472f	-0.12722467
148	0xbc6a7007	-0.014308936
149	0x3c871245	0.016488204
150	0xbb20421d	-0.002445347
151	0x3d06b1a2	0.032884248
152	0xbe83e7ba	-0.2576273
153	0x3d15aa73	0.036539506
154	0xbdf1c271	-0.11804665
155	0x3dca2f21	0.098722704
156	0x3e131944	0.14365107
157	0x3ea561ee	0.32301277
158	0x3e9e299a	0.30891114
159	0x3e90b4f7	0.28263065
160	0x3e969c2d	0.29416028
161	0x3de3e972	0.111285105
162	0x3df65f52	0.120299
163	0x3e0d96ec	0.13827103
164	0x3e45023f	0.19239138
165	0xbd782db6	-0.06059047
166	0x3d216597	0.039403524
167	0x3ca070af	0.019584982
168	0xbe6b5b0d	-0.22983952
169	0xbe2a667a	-0.16640654
170	0xbeaad232	-0.3336349
171	0xbe011dca	-0.1260902
172	0xbdc0bab9	-0.094106145
173	0xbe79e1de	-0.24402568
174	0xbec73e24	-0.38914597
175	0xbf1ac07a	-0.60449946
176	0xbf00f7ba	-0.50378
177	0xbe8e36fe	-0.2777633
178	0xbe89213f	-0.26783177
179	0xbe3464a5	-0.17616518
180	0x3ce8cd7f	0.0284183
181	0xbd63b456	-0.055591904
182	0x3de8e8d9	0.11372537
183	0x3dfe4262	0.12415005
184	0xbc2544a3	-0.010087165
185	0xbdd0292f	-0.10164105
186	0xbe401acc	-0.18760222
187	0xbd3b7e3b	-0.04577468
188	0x3d8cda7f	0.06877612
189	0x3d5ae6a3	0.05344261
190	0xbe992881	-0.29913715
191	0xbea8eb55	-0.32992044
192	0xbea14496	-0.3149764
193	0x3d812c42	0.0630727
194	0xbe19c1bd	-0.15015312
195	0xbe312d94	-0.17302543
196	0xbe9d6f57	-0.30749008
197	0xbe431f34	-0.19054872
198	0xbedabacb	-0.42720637
199	0xbef49b9e	-0.47774976
200	0xbf229ac1	-0.63517386
201	0xbedea2fb	-0.4348372
202	0xbe43ddc7	-0.1912757
203	0xbee13e69	-0.43992928
204	0xbe330dfb	-0.17485802
205	0xbe873bb1	-0.26412728
206	0xbd66c451	-0.056339566
207	0xbe558465	-0.20851286
208	0x3dd9aefc	0.10629079
209	0xbc7694b7	-0.015050105
210	0xbe3b2f0c	-0.18279666
211	0xbe8eef94	-0.2791716
212	0xbdda40b0	-0.106568694
213	0xbd529cef	-0.051419195
214	0xbd8a21e6	-0.06744747
215	0xbc67b33c	-0.014141854
216	0xbd4c3e5d	-0.04986416
217	0x3ca6ca83	0.020360237
218	0x3e5a9a30	0.2134788
219	0xbd38e354	-0.045138672
220	0x3e071797	0.13192593
221	0xbe85ceaa	-0.26134235
222	0x3d2bacf4	0.041912988
223	0xbe0b6eee	-0.13616535
224	0xbecd2cb3	-0.40073165
225	0xbe72f5e3	-0.23726611
226	0xbd176f6e	-0.036971502
227	0xbe2de9d9	-0.16983737
228	0xbe80056a	-0.2500413
229	0xbe554cf4	-0.20830137
230	0x3e042119	0.12903251
231	0x3e03d7a4	0.12875229
232	0x3e697bea	0.22801176
233	0x3e6224a6	0.22084293
234	0x3c92f959	0.017941164
235	0x3e45b56f	0.19307493
236	0xbdccf2c7	-0.100072436
237	0xbdca4658	-0.09876698
238	0xbdb9b60d	-0.090679266
239	0x3e621017	0.2207645
240	0xbd32221f	-0.04348957
241	0xbe08804d	-0.13330193
242	0x3b1b19de	0.002366654
243	0xbdff020e	-0.12451564
244	0x3decfbf3	0.11571493
245	0xbdeb32b8	-0.11484283
246	0xbe757e25	-0.23973902
247	0xbe82c110	-0.2553792
248	0xbe820e90	-0.25401735
249	0xbed884bd	-0.4228877
250	0xbe6a2a44	-0.22867686
251	0xbedbc465	-0.42923275
252	0xbddf68ad	-0.10908637
253	0xbe3aee59	-0.18254985
254	0xbe5d6112	-0.2161906
255	0x3d32bd0c	0.04363732

linearx.bias f4 [24]
0	0x3e5797cb	0.21053998
1	0x3e90e1f8	0.282974
2	0x3eb63090	0.35583925
3	0x3e73e91d	0.23819394
4	0x3e281344	0.16413599
5	0x3ec1ae92	0.378285
6	0x3e11ddda	0.14244786
7	0x3d96ad50	0.073572755
8	0xbd3ec721	-0.046576623
9	0x3e080b6c	0.13285607
10	0x3e981038	0.29699874
11	0x3e9e77f9	0.30950907
12	0x3e1fe40b	0.15614335
13	0x3eeea912	0.46613365
14	0x3eb88872	0.360416
15	0x3ee963f2	0.45584065
16	0x3ea812c3	0.32826814
17	0x3f193784	0.59850335
18	0x3e83ce16	0.2574317
19	0x3e82fc63	0.2558318
20	0x3d2d2afb	0.042277317
21	0x3d517ed9	0.051146362
22	0x3d6db69a	0.05803547
23	0x3eb46e32	0.35240322
