electricity_problem/saved_models/projectnet0.1.pt (torch, 300040 bytes, 8 tensors)

L f4 [24, 24]
000000 98 2a 0a bd 0c 90 0b bf b4 17 a2 bf cf 9c 86 bf
       -0.033732027 -0.54516673 -1.2663484 -1.0516604
000010 3b 06 28 3f 3b 47 44 be e1 2b ad bf cb 7d 5d be
       0.65634507 -0.19167797 -1.3529016 -0.21630017
000020 f8 13 85 bf cd d1 e0 3f c9 32 b5 bd aa 8f e3 3f
       -1.0396719 1.7564026 -0.08847577 1.7778218
000030 69 4a d3 3f df 89 d4 be 43 ce 83 bf 59 52 a2 3f
       1.6507083 -0.41511437 -1.0297321 1.268138
000040 00 63 03 40 66 72 25 3f fe f0 fc be f5 ce 91 3f
       2.0529175 0.64627683 -0.49402612 1.1391283
000050 a3 7c 32 bf 55 4e a9 bf ca 06 0b be b1 e0 20 3f
       -0.6972143 -1.322703 -0.13576809 0.6284285
000060 a5 92 b7 3f 74 dd 6c 3f 03 b7 0f bf 0c 5e 9c 3f
       1.4341627 0.9252541 -0.5613863 1.2216201
000070 7a 02 7e 3f 59 70 60 3f f2 91 7d 3f 59 1e 09 3f
       0.9922253 0.8767143 0.9905082 0.5356193
000080 52 66 d3 3f 15 5e cc be 57 f9 8f be d2 49 0b 3f
       1.6515601 -0.3991553 -0.2811992 0.54409516
000090 32 b8 87 bf bd 33 73 3f 34 2a 7d bf 56 96 36 3d
       -1.0603087 0.9500082 -0.9889252 0.044576965
0000a0 10 86 67 bd b8 8d 77 bf d1 be a5 3e fe 5a a7 be
       -0.056524336 -0.9670062 0.32372144 -0.3268661
0000b0 bf 4c 4b 3e ba 51 a4 bf 48 50 2e 3e e1 f2 cd 3f
       0.19853495 -1.2837441 0.17022812 1.6089746
0000c0 69 4b 82 3f 3e 4e fa bd 4a e9 70 3f 9e 59 b5 bf
       1.0179263 -0.12221955 0.9410597 -1.4167974
0000d0 df a1 8b 3f fa 12 dc 3f f7 d6 16 bf a5 81 65 be
       1.0908774 1.7193291 -0.5892176 -0.22412737
0000e0 f2 ab db bf 13 d7 f4 bf 32 3d 0a bf 11 e1 7e 3f
       -1.7161849 -1.9128135 -0.53999627 0.99562174
0000f0 ff 5f 5d 3f 3f 47 bd 3e 9c 21 22 3e e3 bb 19 3f
       0.86474603 0.3696842 0.15833133 0.6005232
000100 3f 04 da bf 78 84 f0 bf f3 b7 91 3f 1d 03 94 bf
       -1.7032546 -1.8790426 1.1384262 -1.156345
000110 f6 14 a2 be 3e ad ea 3e 19 69 9d 3f 3f 1b 5c 3f
       -0.31656617 0.45835298 1.2297698 0.85979074
000120 55 c5 2b bf c3 0b f2 be 27 5d 1a 3f 29 83 ae 3e
       -0.6709798 -0.47274598 0.6029839 0.34084442
000130 d3 13 9e 3f 0f 88 59 be a4 f4 5a 3f 46 da a8 bf
       1.23498 -0.21243308 0.8552954 -1.3191612
000140 fb dd ec bd 2c 21 f3 be fb 89 cf 3f 9e 1c 88 3e
       -0.11565777 -0.47486246 1.6213983 0.26584333
000150 1a c3 16 be 48 16 86 be 1f d9 61 be b7 aa 2d 3f
       -0.14722863 -0.26188874 -0.22055481 0.67838615
000160 93 d2 86 bf fe ae 43 3e 6c 94 4f 3f 7a d0 61 bf
       -1.0533012 0.19109723 0.8108585 -0.88208735
000170 d9 08 52 bf 9c 1a 7c bf ba 14 f1 be 59 0b 9a 3e
       -0.8204475 -0.984781 -0.47086126 0.30086783
000180 e0 60 96 bf d1 ee 74 be 17 49 af 3e e7 1a 00 c0
       -1.1748314 -0.23919226 0.3423545 -2.001642
000190 78 49 a8 3f c4 35 99 bf fe fa 25 3f 3c da c2 3e
       1.3147421 -1.1969533 0.6483611 0.38057125
0001a0 87 cd 6d be 71 73 e2 3f ef 7c 5e bf 7b 24 9a bf
       -0.23222934 1.769148 -0.86909384 -1.2042383
0001b0 f4 47 b2 bf 39 a3 39 3f 21 57 5f bf 2c fe 2d bf
       -1.3928208 0.72514683 -0.87242323 -0.6796596
0001c0 b5 e7 ae be c9 c5 0d 3e cc 40 5a 3f 48 43 58 3f
       -0.34161153 0.1384498 0.8525512 0.84477663
0001d0 85 08 f2 3d bb d7 ba 3f d0 ec 06 40 40 9e f6 3f
       0.11818031 1.4597086 2.108204 1.9267044
0001e0 87 06 ad be f9 63 91 bf 86 bc 98 3f cd 4b 54 3e
       -0.33794042 -1.1358634 1.1932533 0.2073204
0001f0 5f c8 c9 bf d6 05 53 3f 93 bc 80 be bf 4b 73 3f
       -1.5764273 0.8243078 -0.2514387 0.95037454
000200 f5 cc e0 be 38 d7 8c 3f 0d a5 91 3f 53 b4 64 3f
       -0.4390637 1.100318 1.1378495 0.8933765
000210 b9 12 a8 3e e8 b6 43 bf 01 b4 55 bf 58 36 d5 be
       0.32826784 -0.7645097 -0.8347779 -0.41643023
000220 cf 91 73 3f 0f 8a 9c bf 44 54 81 bf 09 43 9a 3e
       0.9514436 -1.2229632 -1.0103841 0.3012927
000230 a7 b6 e5 3f b7 20 e6 3e 6a 26 66 be 94 20 62 bf
       1.7946366 0.44946834 -0.22475591 -0.8833096
000240 a1 89 05 c0 11 91 31 c0 0c 1a ae be bd a0 51 3f
       -2.0865252 -2.7744792 -0.34004247 0.8188589
000250 53 63 75 3d 61 ac cd bf 83 a9 34 be c3 d2 78 bf
       0.059909176 -1.6068231 -0.17642789 -0.97196597
000260 ae 6a 08 3f a7 47 89 3f 2f a3 e1 3f 5c 38 eb be
       0.5328778 1.0724992 1.7627925 -0.45941436
000270 32 a0 14 3f e8 a9 b5 3f cf b4 5e bf 3d ee ab bf
       0.5805694 1.4192476 -0.8699464 -1.343208
000280 42 61 97 bf bf c3 b8 bf 73 77 61 3f 13 32 b8 bf
       -1.1826556 -1.4434737 0.8807289 -1.4390281
000290 1b cf c1 3f 64 64 b4 be 3e c3 03 bf e8 a0 76 bf
       1.5141329 -0.35232842 -0.5146979 -0.96339273
0002a0 94 25 c9 3d 82 df 3a 3f 85 fd 3e be 63 ae 82 3f
       0.098216206 0.72997296 -0.18651398 1.0209469
0002b0 c0 7e 6e 3e 72 87 c4 3e 76 57 07 3f a4 18 af 3d
       0.23290539 0.38384587 0.5286783 0.08549622
0002c0 d2 63 f0 3e 48 a8 24 be 04 64 ff bf fe e3 b5 3f
       0.46951157 -0.16079819 -1.9952397 1.4210203
0002d0 ae 49 cd bf 35 d9 1f bf 37 b7 ac bf 19 16 e7 be
       -1.603811 -0.62440807 -1.3493413 -0.45134047
0002e0 c9 a7 9b be 02 f8 18 3f f5 55 d3 bf c6 39 0c be
       -0.30401447 0.5975343 -1.6510607 -0.13693914
0002f0 26 ff 02 bf 53 8f 12 be 43 90 e7 3c 63 fe c5 bf
       -0.51170576 -0.14312486 0.028267032 -1.5468258
000300 9a 9e 34 be dc 34 ee bd 4c ad ee 3e f2 27 03 3f
       -0.17638627 -0.11631176 0.4661659 0.51232827
000310 59 eb 4d bf 0c 16 84 3f 60 e4 a6 bf 05 0e 3d bf
       -0.8043724 1.0319228 -1.3038445 -0.7384952
000320 78 8b 3a bf 40 e9 de bf 6e 52 52 bd 95 13 7a bf
       -0.7286906 -1.7414932 -0.051348142 -0.9768613
000330 1d c6 0d 40 f1 d3 04 40 e6 38 97 bf a3 9b 97 be
       2.2152169 2.0754359 -1.1814239 -0.2961093
000340 cd 64 9f bd b9 b9 55 be 6f db 14 be b5 17 5f be
       -0.07782898 -0.20871629 -0.14536832 -0.21786387
000350 71 8b f8 3e 31 49 68 3f b8 05 73 bf c4 7a 0a bf
       0.48543885 0.9073668 -0.949306 -0.54093575
000360 e4 b6 97 be 18 ed 72 3e 64 7c fd 3c e6 8f 99 be
       -0.29631722 0.23723257 0.030943103 -0.29992598
000370 90 cc 0a 40 74 78 9f 3e bb f7 98 3e 10 5c 2a be
       2.1687355 0.31146586 0.29876503 -0.16636682
000380 78 fa 2a 3e 1a 4d cf 3d c3 45 36 3e 9d 45 90 3f
       0.16697109 0.10122128 0.1780005 1.1271244
000390 0b 73 bb be 40 5c ff 3e 58 e8 af be 6c dc 7c bf
       -0.36611208 0.4987507 -0.34356952 -0.9877384
0003a0 61 c9 31 bf ed 8a 80 3d 06 5c 3b 3e 05 44 20 3f
       -0.69447905 0.06276498 0.18296823 0.6260379
0003b0 b5 f4 08 c0 15 6d 82 be 6a d5 87 be 21 83 8a 3f
       -2.1399357 -0.25473848 -0.2653001 1.0821267
0003c0 98 ba 8e 3e c7 b4 9a 3f 07 d6 0a bf f1 a7 31 bf
       0.27876735 1.2086419 -0.5423283 -0.69396883
0003d0 28 6a a5 3f a1 61 b3 bf c5 65 ad 3e f9 d2 19 bf
       1.2923021 -1.4014169 0.33866706 -0.60087544
0003e0 de d2 c5 be d2 f9 c1 3f 05 4c b4 3f 05 44 9d bf
       -0.3863744 1.5154364 1.4085699 -1.2286383
0003f0 7d 49 9d 3e 9f 62 09 c0 d4 32 ed be 08 c7 9e bd
       0.3072013 -2.1466444 -0.4632784 -0.07752806

Lambda f4 [24]
000000 8b c9 86 3f ae 8b 90 3f 24 8a 79 3f c7 86 6f 3f
       1.0530256 1.1292627 0.9747641 0.9356503
000010 ef 4f 87 3f 0a d0 77 3f c8 f4 7f 3f 14 65 8a 3f
       1.0571269 0.9680182 0.9998288 1.0812097
000020 23 14 8f 3f cf 62 72 3f c2 14 8a 3f 51 75 95 3f
       1.117802 0.9468202 1.0787585 1.1676427
000030 eb c8 49 3f e6 75 7b 3f d4 0c 83 3f 31 8b 8e 3f
       0.788222 0.98226774 1.023829 1.1136228
000040 63 9f 83 3f c8 c9 6e 3f 92 1d 8b 3f 42 18 90 3f
       1.0283016 0.93276644 1.0868399 1.1257403
000050 2a 9c 6c 3f 9a 5b 8e 3f 9a d5 52 3f 70 3a 85 3f
       0.9242579 1.1121705 0.8235718 1.0408459

linear.weight f4 [24, 24]
000000 43 27 e4 be b6 16 22 bf 00 ec 3a bf b5 03 17 bf
       -0.44561204 -0.63315904 -0.7301636 -0.5899003
000010 8d ac b2 be 4d 5a 01 bf 70 5f 90 be 16 95 53 be
       -0.3489727 -0.50528413 -0.28197813 -0.2066234
000020 20 65 04 3d 84 8e 95 3e c1 a2 e2 bc f3 10 b2 3d
       0.032323003 0.29210293 -0.027665498 0.08694639
000030 2d 3f 86 3e 23 a7 05 3e 3b 88 ea bc 8d 0d 08 3e
       0.26220074 0.13052039 -0.028629413 0.13286419
000040 24 06 12 3e bc fb 58 bd 72 18 ad bd 2d 31 80 be
       0.14260155 -0.052974448 -0.08451928 -0.25037518
000050 26 56 8a 3d 40 32 f9 3d e2 2b ad bd b8 2d 98 bb
       0.06754713 0.121677876 -0.084556356 -0.004644122
000060 72 ab 05 bf 77 4e 32 bf ef 2d 17 bf 18 fb 00 bf
       -0.5221473 -0.6965098 -0.59054464 -0.5038314
000070 de ed 82 be 82 b4 90 be 89 2f 7b be 4e 52 c1 3d
       -0.25572103 -0.28262717 -0.24529852 0.094395265
000080 f1 66 52 bd 8a e4 60 3e b2 f8 02 3e 0c ad b3 bc
       -0.051367704 0.2196218 0.12790182 -0.021933101
000090 06 1c 11 3e cc 18 94 bc 2d b9 4f 36 9c 4f 3b be
       0.14170846 -0.01807823 3.095319e-06 -0.18292087
0000a0 42 05 33 3d 29 9b cf bd cc 90 46 be e1 80 36 be
       0.043706186 -0.10137016 -0.19391173 -0.17822601
0000b0 a3 52 c2 3d a5 fe b4 bd c7 83 24 3e 00 9f db bb
       0.09488418 -0.08837632 0.16065894 -0.006702304
0000c0 68 0d 68 be 3b 4a 8e be a3 60 8e be d5 ed f1 be
       -0.22661364 -0.27791008 -0.27808103 -0.47251764
0000d0 3d 7c d1 be d5 55 c8 be 46 06 5f be fd fd e5 bc
       -0.409151 -0.39127985 -0.21779737 -0.028075213
0000e0 1f 79 7a 3d 5b 55 01 be 76 0c 03 3e b8 0f af bd
       0.061150666 -0.12630217 0.12797722 -0.0854792
0000f0 9f 09 12 be 7f 2c 0a 3d 92 b0 3e 3e b7 c7 89 3c
       -0.14261483 0.03373384 0.18622044 0.016818864
000100 24 21 be 3d d5 cd ee 3d c6 e3 42 3e d6 bd 1d 3e
       0.09283665 0.11660353 0.19032201 0.15404448
000110 23 05 19 3e 15 b3 f9 bd 19 db 52 be 54 53 67 bb
       0.14943366 -0.1219236 -0.20591392 -0.003529747
000120 5b 8b 90 bd 20 fe ac be d5 5a f1 be 23 7b 81 be
       -0.0705783 -0.33787632 -0.47139612 -0.25289258
000130 9b 42 bc be c7 ec d5 be 74 5c 45 be 06 5a 84 bd
       -0.36769566 -0.4178221 -0.1927355 -0.06462483
000140 d1 71 3e 3d cb 7a 5e 3c 35 39 b9 3d a7 d6 2a be
       0.046495263 0.013579081 0.090441145 -0.16683446
000150 3f af 68 3d 90 40 1e 3e e4 21 1d 3e 41 63 ec bd
       0.056807753 0.15454316 0.1534496 -0.11542369
000160 e7 2a 6c be f7 fc 1a bd 68 cc cf 3d 16 09 7a 3d
       -0.23063241 -0.037838902 0.10146409 0.06104382
000170 3b 15 1d 3e 60 8a dd 3c e5 80 10 be 50 96 0b 3d
       0.1534013 0.027043521 -0.1411167 0.034078896
000180 b2 08 b2 be 0a ac 5e be 48 cb cb be 23 c4 14 bf
       -0.3477226 -0.21745315 -0.3980353 -0.5811178
000190 2d ab b5 be 45 fd 17 bf 44 06 19 bf 83 9d d8 be
       -0.3548216 -0.59370834 -0.59775186 -0.42307672
0001a0 b7 5e b5 bc ea 51 3c bc 78 9c 72 be 55 0c 00 bd
       -0.02213989 -0.011494139 -0.236925 -0.03126176
0001b0 3e 4a 9d 3d a1 99 78 bd 6d 26 ce bd b3 07 ab bd
       0.07680176 -0.060693387 -0.10065923 -0.08351078
0001c0 41 a5 48 be 4c 9e d7 bd f9 7e 46 bd bc d3 c8 bd
       -0.1959429 -0.105282396 -0.048460934 -0.0980601
0001d0 26 cd 10 3d 82 2c d1 bc 08 ee ec 3d 36 35 f6 3d
       0.035351895 -0.025533918 0.11568838 0.12021868
0001e0 76 f2 06 be 9e db b0 be 52 19 98 be 9c 8e 56 be
       -0.13178429 -0.34542555 -0.29706818 -0.20952839
0001f0 e5 4f ad be d1 64 25 bf ae 20 d4 be 7c 5e 08 bf
       -0.33850017 -0.6460696 -0.41431183 -0.5326917
000200 6d 6b 51 be 64 8f e9 be 30 12 4c be 55 cc ec 3c
       -0.20451136 -0.4561721 -0.19928813 0.028906027
000210 c4 fc 25 be 54 88 0b be 47 ec 36 3e 5c 03 8b bd
       -0.16209704 -0.13626224 0.1786357 -0.0678775
000220 90 b0 0f 3d 89 36 f8 3d f0 90 38 3d a9 0d f4 bd
       0.035080492 0.12119777 0.0450601 -0.11916668
000230 86 b4 12 bd ac c9 3e 3e a8 c0 2c 3e f3 ee 43 3e
       -0.03581669 0.18631619 0.16870368 0.1913412
000240 9a 0a 76 bd 9c d9 4a be cb 80 71 be 38 21 3e be
       -0.060068704 -0.19809574 -0.23584287 -0.1856736
000250 00 69 fe be 38 58 0d bf 10 33 0d bf 31 cf 08 bf
       -0.49689484 -0.55212736 -0.5515604 -0.5344115
000260 ab e2 e9 be bd e9 88 be ad 4c 1e be b2 e2 6f be
       -0.45680746 -0.26740828 -0.15458937 -0.23426321
000270 b0 81 d0 bd 7b 6b 42 3e 5e 4a d2 3b de 76 97 bd
       -0.10180986 0.18986313 0.0064175567 -0.07395719
000280 8e 14 43 3e 74 d7 53 3e 79 f8 92 3c d2 81 3e bd
       0.1905081 0.20687658 0.017940747 -0.046510525
000290 36 4a 12 3e d2 ae cc 3d 46 d6 a6 bc 16 d4 e4 bc
       0.14286122 0.09994282 -0.020365845 -0.027933162
0002a0 c8 5e 3a bd 78 20 9d be 00 6f 4d be 4e e5 60 be
       -0.045500547 -0.30688834 -0.20061874 -0.21962473
0002b0 f8 ee 92 be 9e a3 1b bf 15 4d 64 bf 19 d5 ee be
       -0.28697944 -0.60796535 -0.8918012 -0.46646956
0002c0 6d 36 08 bf 12 83 e2 be 9b da f5 be 4c be d6 bd
       -0.5320805 -0.44240624 -0.48018345 -0.10485515
0002d0 e6 d4 9b be 07 04 53 be c5 df 5e bc 40 85 ff bd
       -0.30435866 -0.20607005 -0.0136031555 -0.12476587
0002e0 de 47 ca bd 8f 33 ff 3d 64 e7 e1 3c 54 b8 83 3e
       -0.09876989 0.12461006 0.027576156 0.2572657
0002f0 07 2e 09 3e 50 8e 2d 3e 87 aa c2 3d e5 ef bb 3d
       0.13396464 0.16948819 0.09505182 0.091766156
000300 ac ac d4 be fd 79 7f be 74 ec 88 be c6 50 37 bf
       -0.41537988 -0.24948879 -0.267429 -0.71607625
000310 69 ca 33 bf 55 7a 53 bf 74 7b 81 bf d6 38 5b bf
       -0.7023073 -0.8260854 -1.01158 -0.856336
000320 2f 0b 77 bf 10 b0 70 bf 8d 81 28 bf 23 f9 22 bf
       -0.9650144 -0.9401865 -0.6582268 -0.636614
000330 14 a9 12 bf 06 75 21 be ef f7 c7 bd bf e1 80 be
       -0.5728924 -0.15767297 -0.097640865 -0.2517223
000340 3d ff 2a bd cc 28 e0 bd b9 4e ad be 5e 25 fc bd
       -0.04174732 -0.109452814 -0.33849123 -0.12311815
000350 bd 98 58 bc 34 4d b5 bd e6 fa 0a be 7d 36 20 be
       -0.013220009 -0.08852616 -0.13572273 -0.15645786
000360 b4 b9 8d bd ad 59 b2 be 8b 10 de be f2 bd 88 be
       -0.06920186 -0.34834042 -0.43371996 -0.26707417
000370 d9 65 d7 be 89 d0 dc be 1a 27 33 bf dc 22 15 bf
       -0.4206989 -0.4312785 -0.6998154 -0.58256316
000380 20 04 6c bf 9e c3 24 bf e3 4e 35 bf 95 62 25 bf
       -0.92193794 -0.6436099 -0.70823497 -0.6460355
000390 2e de 72 be 22 cd 7f be 24 92 c0 3d 31 4f 27 be
       -0.23717567 -0.24980596 0.09402874 -0.16338803
0003a0 00 b7 0f 3e 2d 2b 8c bd ed 08 d9 bc 96 38 c6 3d
       0.14034653 -0.068441726 -0.026493514 0.09678762
0003b0 b1 19 d9 3d 0e 3e ab 3d b1 d0 ce 3d ba a3 a2 3e
       0.10600603 0.08361445 0.100983985 0.31765538
0003c0 b5 91 36 3e a4 03 f2 bc a3 d6 39 3e ee 56 63 3e
       0.1782902 -0.029542752 0.18148284 0.2220113
0003d0 33 a9 03 be c5 ef 71 be b5 35 e9 bd ac cd d2 be
       -0.12857513 -0.23626621 -0.11387197 -0.4117254
0003e0 3c 34 2c bf a3 51 28 bf ea d9 52 bf bd 57 38 bf
       -0.67267203 -0.6574957 -0.8236376 -0.7200888
0003f0 34 a7 b3 be e5 34 85 be b4 0f c7 3d 72 ca df 3d
       -0.35088503 -0.26016918 0.09719792 0.10927285

linear.bias f4 [24]
000000 c1 64 32 be 77 66 aa 3d b4 6d 80 3f 95 4b 89 3e
       -0.17421247 0.08320325 1.0033479 0.26815477
000010 67 04 99 3d 0b 23 fb bd f6 c0 24 be c8 5f c6 be
       0.07471543 -0.12262543 -0.16089234 -0.3874495
000020 d7 be 15 3e 90 fa 72 be 22 dd 3f bd 4c 1c 4c be
       0.14623581 -0.23728395 -0.046841748 -0.1993267
000030 24 b0 39 bf ea 5c 62 bf cd 99 5a bf a2 59 ec be
       -0.72534394 -0.88423026 -0.8539093 -0.46162134
000040 fa 05 20 3d 41 ec 2f be af 16 87 bd 8e d5 78 3d
       0.0390682 -0.17179967 -0.065961234 0.060750537
000050 17 82 18 be 9d 82 c6 be 97 92 63 bf 1b c7 86 bd
       -0.14893375 -0.38771525 -0.88895553 -0.06580945

linear1.weight f4 [1000, 48]
000000 7c 0f b9 bd 2b 0e f7 3d 57 98 0a bc f5 11 52 3d
       -0.090361565 0.12063249 -0.008459172 0.051286656
000010 1f 61 30 bd c6 08 03 3d e0 81 8b 3c a1 25 25 3b
       -0.043061372 0.03199079 0.017029703 0.002519943
000020 68 82 60 bd f2 59 21 ba 95 39 8b bd 96 10 ae 3d
       -0.054811865 -0.00061550655 -0.06798092 0.08499257
000030 af 7a 01 be 12 11 d0 bc 13 3a 06 be 4c 25 cf bc
       -0.12644456 -0.025398765 -0.13108091 -0.02528634
000040 dc ca 99 3d 4d 92 09 3e 48 75 53 bd 7c 45 ea bc
       0.075093955 0.13434716 -0.05162552 -0.028597586
000050 62 42 a0 3d 98 38 11 3c d4 32 08 be cc 6d b5 bd
       0.078251615 0.008863591 -0.1330064 -0.08858833
000060 70 04 98 bd 2e 82 06 bc f6 20 49 bc e5 0e f0 bd
       -0.074227214 -0.008209748 -0.012275925 -0.11721591
000070 cb ec 00 3e 93 00 fa bc 08 0e 04 be 95 92 93 3d
       0.1259033 -0.030517852 -0.12895977 0.07205693
000080 c0 81 b0 bd 04 09 9e bd 47 9c c5 3d 1e f8 65 3b
       -0.08618498 -0.07716563 0.09648948 0.0035090516
000090 a0 8a 13 be 94 00 e4 bd 8d 89 61 bd 32 aa 9f 3d
       -0.1440835 -0.11132923 -0.05506282 0.07796134
0000a0 1f 05 c6 3c cc 3a ac 3d 50 af c8 bd 81 a3 a0 b9
       0.024172364 0.08409652 -0.09799063 -0.00030639398
0000b0 ed 1b fa bd e6 28 93 3d 03 5d 10 3e 69 f2 77 bd
       -0.12212358 0.07185535 0.14097981 -0.060533915
0000c0 df 9c d1 bd cc 60 05 3e 9c 3a af 3d eb f0 c1 3d
       -0.10234999 0.13025206 0.08556101 0.094697796
0000d0 89 e3 b6 3c 99 ef ba 3d 33 b6 d6 3b 6b 7a 64 bc
       0.022325294 0.09127731 0.0065524816 -0.013945202
0000e0 d1 f1 e2 bc d1 2f 0d 3e 0c 2c f9 bd c6 3d 12 3e
       -0.027703198 0.13787772 -0.121666044 0.14281377
0000f0 ea 35 dd bd 9a 4a c4 3d 49 2d d6 bd 83 82 90 bc
       -0.10801299 0.095845416 -0.10457856 -0.017640358
000100 ff 25 88 3d 10 94 bd 39 44 3e cd bc 19 69 03 3e
       0.06647872 0.00036159204 -0.025054105 0.1283306
000110 24 79 0c be 3c a1 9a bd 20 aa 06 3e c8 ea 95 3c
       -0.13718086 -0.07550284 0.13150835 0.018300429
000120 a1 c2 8c 3c 97 f3 0c be cf 4c 69 3d 9f 3a 33 3d
       0.01718265 -0.13764797 0.056958016 0.043757077
000130 4a ac ac bd 05 49 cd bc f0 b4 c1 3d 1d ed 0e 3e
       -0.08431299 -0.025059232 0.09458339 0.13957639
000140 e8 84 87 bc 9a 35 46 3d a0 df 01 be ed 93 11 be
       -0.016542867 0.048390962 -0.12682962 -0.14216585
000150 ca 47 94 3d a9 d7 68 bc d7 93 1c 3c db 3a 81 3d
       0.07240255 -0.014211574 0.009556732 0.06310054
000160 fc 53 b0 3c 7a 5d cc 3d f9 a6 01 be 99 8e 12 be
       0.021524422 0.09978767 -0.12661351 -0.14312209
000170 f6 2c af bc 4e cd 0b 3e 5c 06 54 3c 42 6d 10 3d
       -0.021383744 0.13652536 0.012940969 0.035260446
000180 3c 35 e3 bd 8b c3 4c bd 47 26 6f bd f2 f3 84 3d
       -0.11094138 -0.04999117 -0.058386113 0.064918414
000190 cd 97 e6 bd cb 89 cf bc f4 ab 0c 3d 9f 3b 8a bd
       -0.112594225 -0.02533426 0.034343675 -0.06749653
0001a0 00 0d be 3d 4a 3a a8 bd 9c 67 0e be 2e cf ff bd
       0.09279823 -0.08214243 -0.13906711 -0.12490688
0001b0 e4 8f b8 bb 8f 30 11 be e9 f6 db bd 1a ab 3c 3d
       -0.0056323875 -0.1417868 -0.10740454 0.046061613
0001c0 84 c7 b9 bc e7 dd 7f 3c 57 15 47 3d 75 9c 85 bd
       -0.022678144 0.0156168705 0.048604336 -0.065239824
0001d0 59 50 95 bd e6 84 19 3d 73 d1 12 bd a8 c6 59 3d
       -0.07290716 0.037480257 -0.035844278 0.05316797
0001e0 ab e1 92 39 6a 9e d2 bc d4 d0 a0 3d ff 31 13 3e
       0.00028015426 -0.025710303 0.07852331 0.14374541
0001f0 12 09 45 bd 0a 01 d8 bd 3a 5a 95 bd a1 a7 e0 bc
       -0.048104353 -0.10547073 -0.072926 -0.027423682
000200 e1 9a 0b be f6 53 98 3d 77 ee 01 3d e6 04 d8 bd
       -0.136333 0.07437889 0.03172156 -0.10547809
000210 5a 1c ed 3d b1 0f 75 3d 3c f9 49 bd 27 4c 87 bd
       0.11577673 0.059829418 -0.049309954 -0.06606322
000220 ed 34 d7 bc 04 c6 cf 3c 93 a5 8e 3d 4e 86 4a bd
       -0.026270354 0.025362976 0.069651745 -0.04944449
000230 b2 f3 7b 3c da 20 c5 bd 37 ef 81 bd 7d 25 14 bd
       0.015377926 -0.096254066 -0.06344455 -0.036168564
000240 39 46 9d 3d 95 66 43 3d 5b 6b f5 3d e7 16 04 3e
       0.076794095 0.04770525 0.11983367 0.12899362
000250 64 66 7f 3d e2 b5 19 3a 94 8c 02 3e 3f 70 9d bc
       0.062353507 0.00058635895 0.12748939 -0.019218562
000260 97 33 3c bd 08 ba 10 3e fa 00 b5 3c 4a b3 0e 3e
       -0.045947637 0.14133465 0.022095192 0.13935581
000270 06 73 1c bd 8f e9 b2 3c 18 a3 ff 3d aa 37 03 bd
       -0.038195632 0.021839885 0.124822795 -0.032035507
000280 a9 1e 10 be 3c a2 fe 3d 3a 5e 0c 3e ec 8e f0 bc
       -0.14074196 0.124332875 0.1370782 -0.029365025
000290 b6 29 05 3e 48 4f f5 3d 65 5c 66 bd 1d 26 3c 3d
       0.13004193 0.11978012 -0.056240458 0.045934785
0002a0 c5 c2 6b bd a8 f5 42 bd 26 ce 5f bc 91 41 08 3e
       -0.057558794 -0.047597557 -0.013659989 0.13306262
0002b0 5b 63 11 3e 47 9e 8d bd 90 31 82 bb b9 63 9b bd
       0.14198057 -0.06914955 -0.0039731935 -0.0758738
0002c0 23 05 2a 3c 36 ee 0a be 9a 4c 84 bd 7f e9 e6 3d
       0.010377201 -0.13567433 -0.06459923 0.112750046
0002d0 56 eb e9 bd 95 ea c5 3d 8a 72 20 bd 00 71 98 bd
       -0.1142184 0.096638836 -0.039171733 -0.07443428
0002e0 3d 89 5a bb b0 09 64 3d 52 a3 8e 3d e7 d2 0a be
       -0.003334596 0.0556733 0.06964745 -0.13557015
0002f0 48 33 f7 3d 91 30 01 be 54 75 03 3e 5d 6c 8b bd
       0.12070328 -0.12616183 0.12837726 -0.06807778
000300 6f 3b e5 3d 4b 22 ab bd ff df e6 3c 9d 48 f5 b9
       0.11192977 -0.0835615 0.028182982 -0.00046784143
000310 b4 09 b7 bd 60 20 11 3e ac 66 0d 3d e4 3a 1a 3d
       -0.089373976 0.14172506 0.034521744 0.03765382
000320 f1 2c 2c 3c 3e 0b 33 bd a1 f9 12 bc bb 60 d5 bc
       0.010508762 -0.043711893 -0.008970649 -0.026047101
000330 cd 28 a3 3d 17 f1 f3 3b 0c e5 fe 3d cf 7c f4 3d
       0.079667665 0.0074445116 0.12446031 0.11937868
000340 a7 1a 1e 3d 0c cb 32 bd fe 3e d3 3c 04 28 e0 bd
       0.038599636 -0.04365067 0.025786873 -0.109451324
000350 a7 0b 46 3d 65 7a 78 bd b5 6a 0e 3e f2 d4 e6 bd
       0.048350956 -0.0606636 0.13907893 -0.11271085
000360 b9 63 91 bd 37 b9 0a 3e 50 0c d4 3c 48 49 83 3d
       -0.07099099 0.13547216 0.025884777 0.06410462
000370 3c ea be bd a5 2e 88 bd ca 39 bd 3d c3 28 6a 3d
       -0.093220204 -0.06649522 0.09239538 0.05716778
000380 a6 82 d3 bc b0 e8 08 be 99 a8 a8 bd cc 01 25 3d
       -0.025819134 -0.13370013 -0.082352825 0.040284917
000390 78 04 ab 3c eb 57 93 3c 5c ae 31 bd 5a 96 08 bd
       0.020876154 0.017986258 -0.043379173 -0.03334651
0003a0 14 dd 22 bd 7e 09 ff bd 7a 29 78 3d bb ee 0e be
       -0.039761618 -0.12452982 0.06058643 -0.13958256
0003b0 02 41 09 be 61 9b 89 bd 53 9f 5a bc c6 3d 9f 3d
       -0.13403705 -0.06719089 -0.01334365 0.07775454
0003c0 10 a5 2c 3d 84 63 0e 3c d6 80 9d 3d c8 4d 17 bc
       0.042149603 0.008690719 0.07690589 -0.009234853
0003d0 6c c3 d5 bc c8 db d7 3c e3 c2 db bc 03 0b ea bd
       -0.026094161 0.026349917 -0.026826328 -0.114278816
0003e0 07 30 c8 bc f4 9a ed bd 34 32 59 bd d8 13 44 3c
       -0.024436964 -0.116018206 -0.053026393 0.011967622
0003f0 62 e7 a7 bd 90 ee 59 3d 73 c6 81 3d c6 b6 37 3d
       -0.0819843 0.053206027 0.06336679 0.04485204

linear1.bias f4 [1000]
000000 4b 68 bf 3c 94 9a a4 3d b9 ec 3c 3d 46 d3 10 3e
       0.02336516 0.08037296 0.046124194 0.14143094
000010 50 6d 5a 3d c5 4e 14 bd 6a 9d 86 3d 82 94 01 bd
       0.053326905 -0.036207933 0.06572993 -0.03163577
000020 46 5e b4 bc 87 48 fa bd 4d d1 d8 3d 65 b3 30 ba
       -0.02201761 -0.12220865 0.10586796 -0.0006740599
000030 cc 3c 77 3d ea be 25 bd f4 c8 04 3e 05 26 ea 3c
       0.060360715 -0.040465273 0.12967283 0.028582582
000040 e6 49 14 bd 96 a4 0c be f8 44 da bb df 05 54 3d
       -0.036203288 -0.1373466 -0.0066610537 0.05176341
000050 4c bb b1 bd b1 e8 64 3c e1 8d 29 bd ac 36 35 3b
       -0.08678302 0.013971494 -0.041395072 0.0027650995
000060 d1 14 c2 bc 0b 15 d2 3c 72 ee ca 3d 64 42 de bd
       -0.023691567 0.0256448 0.09908761 -0.10852507
000070 98 b3 c2 bd 6c 37 10 3d 51 17 06 bd 62 27 c5 ba
       -0.09506911 0.035209104 -0.03273708 -0.0015041644
000080 c4 57 54 3d 9b 13 8f 3c 83 cf f0 bc 8a 07 f8 3d
       0.051841512 0.017465403 -0.029395824 0.12110813
000090 ed ee cd bd fd f3 cd 3c 40 8e 1e 3c 1a 75 a0 bc
       -0.10055337 0.025140757 0.00967747 -0.019587088
0000a0 fb b8 5c 3d 23 86 81 3d 77 c4 f7 3d 4b c2 14 bd
       0.05388735 0.06324413 0.120980196 -0.036318105
0000b0 4c 18 e9 3d 4b 2b 0c 3e 53 ac 07 3e 82 3d 8d bd
       0.113815874 0.1368839 0.1324933 -0.06896497
0000c0 43 70 35 bd 79 44 03 3e 58 e3 a7 3d 16 50 eb bd
       -0.044296514 0.12819089 0.08197659 -0.114898846
0000d0 16 3d 92 bd 53 be ae bc d0 ba 02 3d 17 ef db 3d
       -0.071405575 -0.021330988 0.03191644 0.10738962
0000e0 7a 15 89 bc 1f 23 db 3d 4c 5e 23 3d ab 92 50 3d
       -0.016733874 0.10700058 0.03988485 0.050921123
0000f0 dc da 3d bd eb bd 85 3c 44 99 dd 3d a9 03 8a bd
       -0.0463513 0.016325912 0.10820249 -0.06738979
000100 6e 34 fa bd 9a 60 9b 3d cd c2 60 bc a0 cc 8a bc
       -0.122170314 0.07586785 -0.013718319 -0.016943276
000110 e9 b8 cf 3d af aa ac 3d 09 ea 23 bd d5 f2 9d 3d
       0.10142691 0.08430993 -0.040018115 0.07712332
000120 bd e3 8d bc 3b 8b 0c be 82 c2 92 bd 99 2e f3 bd
       -0.017320508 -0.13724987 -0.07166006 -0.11874122
000130 93 22 3b 3d 71 26 41 3d fb 72 96 3d 55 e9 d7 3d
       0.04568727 0.0471558 0.073461495 0.105425514
000140 6a bb cc 3d 16 c4 07 be be de f6 3c 71 a5 0b 3e
       0.09996684 -0.13258395 0.030135509 0.1363733
000150 ba 64 c5 3b a7 2d c4 bd 6e a3 b6 3d 3e 92 0f 3d
       0.0060239704 -0.0957902 0.089178905 0.035051577
000160 26 ac be 3d 85 5c 0e be bd 84 da 3d cc 19 11 3e
       0.093101785 -0.13902481 0.10669849 0.14169997
000170 c3 a3 dc 3c a6 e6 c7 3d f9 7c 9b 3d bf cc c2 3d
       0.026933556 0.097607896 0.07592196 0.095117085
000180 43 e9 c4 bd 8a 01 52 bd 14 4b 83 bd 05 11 3b bd
       -0.09614804 -0.051271 -0.064108044 -0.045670528
000190 f1 83 14 3d a5 1c 9e 3d 6e a3 c1 bd 79 e6 f4 3d
       0.03625864 0.07720307 -0.09455 0.11958022
0001a0 e2 bf ab bd 21 9d e5 3d 73 63 96 3c b2 d9 09 3e
       -0.08386208 0.112116106 0.018357968 0.1346195
0001b0 85 40 fe bc 32 98 05 be f1 7d 94 3d fc 70 83 3d
       -0.031036625 -0.13046339 0.07250584 0.064180344
0001c0 f5 8b cf 3d ca 87 06 bd f5 39 52 bd a0 7e 86 3d
       0.101341166 -0.032844342 -0.051324803 0.065671206
0001d0 7a be ec 3c 30 f4 4e 3d fa 7f 02 3d cb 5c cd bb
       0.02889942 0.050525844 0.03186033 -0.0062671653
0001e0 6d cc bd bc 8d ce de 3d 67 2b 5b 3c 0c 2a e1 bd
       -0.023168767 0.1087924 0.013377047 -0.10994348
0001f0 c7 25 fa 3c 5a cb 45 3c 01 19 f8 bd 64 ab 10 be
       0.030535592 0.012072409 -0.12114144 -0.1412788
000200 12 ed e8 3d 61 19 b3 bd 5b 5c 7c bd 67 c7 e1 3b
       0.113733426 -0.08745075 -0.061611515 0.0068902257
000210 4c ce 68 bd a4 ae 0e ba fe 0c 13 3e 24 a0 48 bd
       -0.056837365 -0.00054428936 0.14360425 -0.048980847
000220 58 c3 33 bd bb f4 e0 bd aa e3 c6 bd 99 0c de 3d
       -0.043887466 -0.10984179 -0.09711392 0.108422466
000230 01 d3 b0 3c 23 2a 3f 3d 95 ce 49 bd 1d 22 90 bd
       0.02158499 0.046671044 -0.049269278 -0.070377566
000240 d2 57 d6 3d 90 36 83 bc 2b 0e eb 3d 7f 3e 13 be
       0.10465969 -0.016017228 0.11477312 -0.14379309
000250 19 1b 05 be d6 bd ae 3d 57 99 c7 3c b5 d5 12 bd
       -0.12998618 0.08532302 0.02436511 -0.03584834
000260 16 de 9f 3d 2a aa a4 3d 0e 16 0a be cd 9f 00 3e
       0.078060314 0.08040269 -0.13484976 0.12560959
000270 eb 13 af 3d 15 53 f9 bc d5 e7 8b 3d 97 fd ec bd
       0.08548721 -0.030435124 0.06831328 -0.11571806
000280 79 67 0b 3e fc bb 8d 3d 7a b8 dc bd 08 62 89 bd
       0.1361369 0.06920621 -0.107773736 -0.06708151
000290 7f 34 a8 3d 7a b3 73 bd 1e 42 ce 3d 82 3b 04 3e
       0.08213138 -0.059497334 0.100712046 0.12913325
0002a0 4d bb 01 be c7 3d 0e be a1 36 00 3e 15 52 c7 bd
       -0.12669106 -0.13890754 0.1252084 -0.09732453
0002b0 e9 70 4b bd 4f cb ca bd ba 7a 36 bd bf 8a 01 3e
       -0.049668226 -0.09902059 -0.044550635 0.12650584
0002c0 e2 dd ca 3d 5e 0c 22 3d 15 ef dd bd 5a 70 1d 3d
       0.09905602 0.039562576 -0.10836617 0.038437225
0002d0 a1 d7 88 bc 1d ad d6 3d 27 4f 06 be f8 36 a8 3c
       -0.016704382 0.104822375 -0.13116132 0.020534024
0002e0 ba 54 be bd ad 86 cc 3d b7 92 db 3d c3 15 dc 3d
       -0.09293504 0.09986625 0.10721343 0.10746338
0002f0 f0 69 dd 38 e3 74 71 3d 3d a9 f3 bd 04 f7 0f 3e
       0.000105578336 0.058949362 -0.11897514 0.14059073
000300 ba 43 5c bd dc 6b 9d bd 63 f1 e4 3d 78 ea ca bd
       -0.053775527 -0.07686588 0.11178853 -0.099080026
000310 d6 c9 47 3d 16 d4 99 3d 56 c2 9a bd 47 d7 af bd
       0.04877647 0.07511155 -0.07556598 -0.08585983
000320 a7 63 3b bd 1a 3e 31 3c aa a3 66 bc 39 88 0b be
       -0.045749333 0.010818029 -0.0140771065 -0.13626184
000330 02 89 46 3c 32 7a 83 bd e0 57 96 bd be c4 f3 3d
       0.012117626 -0.06419791 -0.073409796 0.1190276
000340 58 6b b2 3d f7 e2 2b bc 52 d7 91 3d 06 aa c4 bc
       0.087118804 -0.010491124 0.07121147 -0.024006855
000350 ea 15 57 bd b9 54 0f be 6e e8 28 3c 41 a8 01 3e
       -0.052511133 -0.13997163 0.010309322 0.1266184
000360 f9 51 ed 3d 0d 45 4e bd 4b 55 6e 3c 51 f7 04 3e
       0.11587901 -0.05035882 0.014546703 0.12984969
000370 fd 4a 03 3d 67 58 b5 bd 1e 15 f1 bd c4 80 2d bd
       0.032053936 -0.08854752 -0.11771606 -0.04235913
000380 10 9b 10 be 09 b9 9d bd 72 7d 97 3d e7 20 5d bd
       -0.14121652 -0.07701308 0.07396974 -0.053986456
000390 78 d9 06 be 82 c7 96 bc 6b e3 86 3d 25 5c ea 3d
       -0.13168895 -0.01840568 0.06586345 0.114433564
0003a0 df 55 0f 3e c3 18 0b be 8a a4 de 3d a3 2a f5 bd
       0.13997601 -0.13583665 0.10871227 -0.11971023
0003b0 7d 6d 01 3e 34 bb 05 be 2b 96 cd 3c a6 fc b4 bb
       0.12639423 -0.13059694 0.02509602 -0.005523282
0003c0 8d 21 8c bd f2 bc 54 bd e1 a6 86 bc 21 8a 11 be
       -0.06842337 -0.051938005 -0.016436996 -0.14212848
0003d0 92 7e 82 3c ab f7 b6 3d db 6c 21 bd a2 2c 11 3d
       0.015929494 0.08933958 -0.039410453 0.035442956
0003e0 73 8f 05 be 57 59 9e bd b2 36 59 bc 4e 3d 2d 3d
       -0.13043003 -0.07731884 -0.013257669 0.042294793
0003f0 e2 8d fe bc 99 61 6e bd 64 54 39 3d 0f 30 dd 3c
       -0.031073514 -0.058198545 0.045246497 0.027000455

linear2.weight f4 [24, 1000]
000000 51 36 8c bb 92 3f 41 3c 86 68 6d 3c f2 a6 7b 3c
       -0.004278936 0.0117949415 0.014490252 0.015359627
000010 96 5b 89 3c 49 64 3a 3c ad d0 c6 bc e9 a1 ff bb
       0.016767304 0.011376449 -0.024269426 -0.0078012836
000020 85 b3 b5 bb 9e f9 85 bc 15 86 0b bc 05 12 6d bc
       -0.005545082 -0.016354378 -0.008515854 -0.014469628
000030 1a 69 f9 bb 13 e8 8f 3c c0 f9 8e bb 13 86 b2 bc
       -0.007611406 0.017566716 -0.0043632686 -0.021792447
000040 9f 57 9a 3c 44 8f 77 bb 6f 8f 80 3c 47 ef 93 bc
       0.01884061 -0.0037774602 0.015693394 -0.018058432
000050 c2 2b 91 3c 48 3f b7 3c 97 a3 b8 3c 10 39 dd 3c
       0.01772106 0.022369042 0.022538943 0.027004749
000060 55 e7 76 3c 35 a5 88 bb 70 fe ab 3c 9b cd a4 3c
       0.015069802 -0.004170085 0.020995349 0.020117572
000070 03 0b 5e bc df 5c ca bb 88 0e b2 bc 27 33 ac 3c
       -0.01355243 -0.006175622 -0.021735445 0.021020485
000080 e9 a2 c7 3c 3c 54 e9 3c 29 b6 43 bc d1 eb b9 3c
       0.024369674 0.028482549 -0.011945286 0.022695454
000090 88 66 51 3c a0 d5 d1 bc 0a 1b d8 3c 8e 83 9b bb
       0.012780793 -0.02561456 0.02638008 -0.004745907
0000a0 20 78 23 3c 7d f8 2d 3c 15 07 e1 3a e9 c6 55 bc
       0.0099773705 0.010618326 0.0017168248 -0.013047912
0000b0 c2 57 e0 bc 95 ad b0 3c f5 5a 25 3c d8 af 1c 3a
       -0.027385596 0.021567145 0.010092487 0.00059771305
0000c0 1d 68 7d bc 72 5d 2f 3c fc 65 84 3b 3c ef 65 3c
       -0.015466717 0.010703431 0.004040478 0.014034089
0000d0 8a 35 f5 bc 0b c1 87 bc da fd e1 bc 46 9f 85 3c
       -0.029932756 -0.016571542 -0.027586866 0.016311299
0000e0 ab e9 e2 3c 06 2c ce bb ac f7 97 3c 79 1c 76 bc
       0.027699312 -0.006291869 0.018550716 -0.015021437
0000f0 31 75 a9 bc 67 4a 80 bb 53 02 cb 3c 8f 35 d6 3b
       -0.020685764 -0.0039151195 0.024781382 0.0065371464
000100 03 28 07 bc 64 a9 d8 3c b6 41 b9 bc 12 28 ef 3c
       -0.008249286 0.02644796 -0.022614341 0.029193912
000110 41 29 78 bc ae fd ab bc 01 e0 14 bc ab ab 84 bc
       -0.015146554 -0.020994987 -0.00908661 -0.016195139
000120 63 42 ee 3c 27 01 b8 3c 32 a1 00 3d e8 87 ba ba
       0.02908439 0.022461487 0.031403728 -0.0014231177
000130 ba 9c 30 3c 37 90 a6 3b 38 aa 07 3b cb 40 8a bc
       0.010779554 0.0050831097 0.0020700824 -0.016876599
000140 a5 35 b1 bc 0f 2e 19 bc e6 3e 7e bc b5 f9 2d 3c
       -0.021632025 -0.00934936 -0.015517926 0.010618617
000150 70 e4 df 3c e8 9f f7 3c b1 b2 95 bc 0f af 84 3c
       0.027330607 0.030227616 -0.018273683 0.016196756
000160 f4 c1 0f 3c 07 87 f7 bc 6d a7 0a 3b 5d 89 58 bc
       0.008774269 -0.030215753 0.0021156922 -0.013216344
000170 78 91 f2 3c e0 c8 b5 3c ba 87 be bb 95 7e 51 bc
       0.02961038 0.022190511 -0.0058145197 -0.012786527
000180 89 b8 fb bc 0a ad 98 3c 7c 45 9d bb 62 87 ad bc
       -0.030727642 0.018637199 -0.004799543 -0.02118272
000190 f1 e5 e7 3b e0 4a 83 bc 6d e9 f9 3c 6b 42 df 3c
       0.0070769717 -0.016026914 0.030506814 0.02725335
0001a0 ee 15 44 bb 83 7d 87 bc eb 30 91 3c 4c 1c a5 3b
       -0.0029920298 -0.01653934 0.017723521 0.0050387736
0001b0 b1 88 69 3b 67 31 cc bc c1 23 f6 3c 7c e7 f3 3b
       0.0035634453 -0.0249259 0.030046346 0.0074433666
0001c0 40 fa fc bc 02 11 e6 bb 1f 69 a0 3c cf 8e 3e bb
       -0.030881047 -0.0070210705 0.019581376 -0.002907682
0001d0 6d 8b f1 bc 42 54 61 3c bc f1 2b 3c 98 ab 32 3c
       -0.029485429 0.013752999 0.010494646 0.010905169
0001e0 32 0c f3 bc 47 a2 3f 3c 29 66 e6 3c 1a d2 c4 bc
       -0.029668901 0.011696405 0.028124886 -0.024025965
0001f0 80 37 8b 3a 8d 4c ec bc b4 eb c6 bc fc a7 ac bc
       0.0010621399 -0.028845096 -0.024282314 -0.021076195
000200 2b 95 29 bc 0b e9 a0 bc 08 ec 03 bc 9b bb 9a 3c
       -0.010350506 -0.019642374 -0.00805188 0.018888285
000210 d2 0e 05 3c 24 1c 26 3c 96 ad c8 3c 63 cf 7a ba
       0.008121209 0.010138545 0.024496835 -0.0009567646
000220 7b a7 7a bb bb 4e d6 3a a3 93 85 3b f0 9f ee 3c
       -0.0038246799 0.0016350368 0.0040764376 0.029128999
000230 49 2e 79 3b 64 f2 30 bc 00 25 9a 3c 10 83 e9 bb
       0.0038021973 -0.010799978 0.018816471 -0.0071262196
000240 2b bf 40 3c c3 f1 5c 3b db 31 ed 3c 2e 8d e2 3a
       0.011764328 0.0033713437 0.028954437 0.0017284506
000250 ac 9c a6 3b 9a 27 24 bc 1d 6b f7 bc f0 3a b3 3b
       0.0050845947 -0.010019207 -0.030202443 0.0054696724
000260 96 78 ab ba 78 18 33 ba 8c 83 aa bc b9 da 3e bc
       -0.0013082202 -0.0006831954 -0.02081468 -0.011648827
000270 c4 0f e5 bc 2a 81 cc bc 22 fe cd 3c 08 f9 7f 3b
       -0.02796162 -0.024963934 0.025145594 0.0039058346
000280 5a fa ed bb 12 ef 78 3c 73 cb ef 3c f7 f3 df 3c
       -0.0072625102 0.015193718 0.029271817 0.027338011
000290 79 9c 46 bc 2b f1 67 3c 7e 12 c8 3c 11 c4 9b 38
       -0.012122267 0.01415662 0.02442288 7.427496e-05
0002a0 35 b4 b5 3c 2a a0 33 bc 12 09 b3 3c 02 e4 f3 bb
       0.022180656 -0.010963479 0.021854911 -0.007442952
0002b0 9f ac f3 3c b9 0e 0c 3c 3a f4 30 3c 90 69 47 3c
       0.029745398 0.008548432 0.010800416 0.012171164
0002c0 73 6b 93 bc e4 26 ea bc 1e ef 95 bc 9a 7d 89 3b
       -0.017995572 -0.028582998 -0.018302497 0.004195881
0002d0 84 ac 09 bc 9d f9 fe bc e0 f9 4f 3b 55 f7 7c bc
       -0.008402947 -0.031124884 0.003173463 -0.015439828
0002e0 ed f9 8c 3c 8b b4 d6 3c ed c0 7d 3c 3b 6e 49 3c
       0.017209018 0.026209136 0.015487892 0.012294347
0002f0 4a 39 79 bb 7b 06 dc 3c ed 92 b2 bc c3 b9 de bb
       -0.0038028532 0.026858559 -0.021798575 -0.006797047
000300 c3 0c 8e 3c 13 b6 6b bb 53 91 8e 3c 72 e9 d2 3c
       0.01734007 -0.003596668 0.01740328 0.025746081
000310 05 f1 95 3c e7 c8 d5 3b 5f 0d 42 3c 50 39 b4 bb
       0.018303404 0.0065241936 0.011844008 -0.0054999962
000320 e6 35 d9 bb 16 9a a6 3c 25 20 af 3c f0 cf e9 bc
       -0.0066287396 0.020337146 0.021377632 -0.028541535
000330 1f 60 b1 3c 78 bd a0 3c 7c cf a4 3c f3 b5 ba 39
       0.02165228 0.019621596 0.020118468 0.00035612247
000340 95 c2 82 bc 0e 21 6d 3c c8 e3 0c 3c 0b e4 f5 bb
       -0.015961925 0.014473213 0.008599229 -0.0075039915
000350 39 dc d8 bc 4a 25 38 3c ca 2b 73 bc 25 e8 6a bc
       -0.026472198 0.011239359 -0.014841983 -0.014337574
000360 60 62 b5 3c 2b 1e ae bc d2 15 99 bb 94 92 e1 3c
       0.022141635 -0.02125462 -0.0046717906 0.027535714
000370 79 7d b7 bc db 21 38 3c 6b d9 d0 3b df 38 2d bc
       -0.022398697 0.0112385405 0.0063735745 -0.010572641
000380 92 9e 67 3c d6 d7 7c 3c 2c 2d fe 3a 3e df af bc
       0.014136927 0.015432319 0.0019392124 -0.021468755
000390 cf 91 01 3c 3b 52 34 bb 3d 80 f4 3c c5 2a f4 bc
       0.007908299 -0.0027514833 0.029846305 -0.02980555
0003a0 02 29 b9 3c 75 0d a8 bb 57 c3 f7 3c 10 32 b0 bb
       0.022602562 -0.0051285573 0.030244512 -0.0053770617
0003b0 bc 74 bd b9 60 e5 e9 bc b2 a8 5b bb 78 72 de bc
       -0.00036135863 -0.028551757 -0.0033517298 -0.027154192
0003c0 35 23 e2 3c 04 48 fc bb 87 f0 1b bb 03 42 87 bc
       0.027604679 -0.0076990146 -0.0023794489 -0.016510969
0003d0 90 b5 f8 bc e6 03 49 bc 89 71 87 3c df 34 7d 3c
       -0.030360013 -0.012268996 0.01653363 0.0154545
0003e0 cf bc 9e 3c 0d a9 df bb 19 45 e6 3c c6 12 ef 3c
       0.01937714 -0.0068255723 0.02810912 0.029183757
0003f0 7a a6 86 bc 9f 5f a0 3c c7 77 b2 bc 54 1d e7 3c
       -0.016436804 0.019576846 -0.02178563 0.028212227

linear2.bias f4 [24]
000000 0e 09 5f bc 52 b2 0a bc ce 74 ca 3c d2 75 2b bc
       -0.013612999 -0.008465366 0.0247139 -0.010465102
000010 1c c3 c6 3c 79 e6 f6 3c 8b b8 06 3c d4 58 12 3b
       0.024262957 0.030139195 0.008222709 0.0022330778
000020 b6 65 7d 3c fb a1 c1 3c fa 25 81 3c 74 8c 8e bc
       0.015466144 0.023636809 0.015765179 -0.017400958
000030 3f d3 a6 bc 32 c4 06 3a 5e 88 5e 3b 98 c6 88 3c
       -0.020364402 0.000514093 0.0033955793 0.01669626
000040 e5 14 a8 3c 3c aa ba bc c0 9e ea bc 97 53 b7 bc
       0.020517776 -0.022786252 -0.028640151 -0.022378726
000050 d4 2d 0d 3c 2b 1a 5b bc 17 f8 0f bc 6e 9b 00 3d
       0.008616883 -0.013372938 -0.008787177 0.03139823
