electricity_problem/saved_models/projectnet0.4.pt (torch, 6912 bytes, 4 tensors)

linear.weight f4 [24, 24]
-1.1183286 -0.40457144 -1.7187027 -0.15625991 -0.70382196 -1.0118672 -0.5277136 -0.53294444
-0.18888737 -0.45423177 -0.18512984 -0.40158132 -0.43928045 -0.5687947 -0.627519 -0.15412097
-0.34289333 -0.21409377 -0.3979546 -0.298165 0.0164635 -0.66603243 0.31585723 -1.4357762
-1.0918225 -0.09761911 -2.3499525 -0.1591518 -0.5350105 -1.1987823 -0.5387202 -0.36750185
-0.0010840113 -0.18650988 -0.09933777 -0.58942336 -0.46762812 -0.14925861 -0.76928496 -0.18207902
-0.40522164 -0.15653986 -0.26044947 -0.7563086 -0.07606859 -0.7247775 0.41580987 -1.6120639
-1.1859386 -0.46832138 -2.15673 -0.2662249 -0.77437973 -1.2132722 -0.5937316 -0.72576225
0.049645368 -0.20712566 -0.42314065 -0.5940759 -0.3904063 -0.4772942 -0.5455112 -0.28252932
-0.079115994 -0.16680732 -0.094260044 -0.39883545 0.21381412 -0.39975655 0.47765425 -1.3910687
-0.9443201 -0.25961733 -1.9359314 -0.21922009 -0.41417727 -1.2681413 -0.6436292 -0.6411891
-0.06477213 -0.23044528 -0.22727232 -0.2040058 0.12622873 -0.11948872 -0.35176563 -0.033154327
-0.050115496 0.033769973 -0.18168496 -0.67556906 0.16145587 -0.3920291 0.7512512 -1.2723265
-0.5771797 -0.28225002 -1.356107 -0.85428226 0.19999622 -1.6972475 -1.0262291 -0.53571755
-0.48165795 -0.6092896 -0.1336182 -0.4998698 -0.005853147 0.12654081 -0.473011 0.36713123
0.4106266 -0.3768044 0.14915583 -0.70932454 0.29798284 -0.24179472 0.679967 -0.930166
-0.7428573 -0.3035463 -1.2637035 -0.63642216 0.5626596 -1.7311403 -1.2253991 -0.64328516
-0.4655093 -0.6844913 -0.643356 -0.5297792 -0.30071604 0.08904078 -0.69866353 0.12547354
0.114740565 -0.6373232 0.15608555 -0.62433004 0.49098605 -0.6652448 0.85885334 -1.3114494
-0.6583369 -0.21497461 -1.6147391 -0.65075403 0.70719606 -1.8186443 -1.528221 -0.6975567
-0.54689103 -0.92262185 -0.65071934 -1.0911905 -0.27263054 -0.296879 -0.71185434 -0.15190764
-0.21647453 -0.6116898 0.023352757 -0.7073502 0.22910394 -0.79134786 0.7732664 -1.596442
-0.018864887 -0.09015916 -0.673156 -0.58793485 0.48118964 -1.5204245 -1.1284765 -0.7189141
-0.8568765 -1.1541425 -0.979758 -0.88265705 -0.28562897 -0.09881158 -0.42689195 -0.03715238
0.2772289 -0.2198689 0.32648107 -0.63388044 0.5002795 -0.27676025 0.7008887 -0.6945003
-0.56953067 -0.109875105 -0.6795282 -0.49290758 -0.09008193 -1.108737 -1.1078343 -1.3238763
-1.4562567 -1.645383 -1.4571528 -0.9391989 -0.4660682 -0.702282 -0.6608004 -0.361794
-0.32576638 -0.51650465 -0.033251796 -0.547555 -0.014015949 -0.19927888 0.23667978 -1.0604042
-0.16298595 -0.089648984 -0.6038221 -0.50765306 0.059799764 -0.6595665 -0.7425067 -0.9241954
-1.2669799 -1.3538061 -1.0077118 -0.7038055 -0.37368527 -0.1690568 -0.46325234 -0.23919901
0.11767716 -0.5932296 -0.07981764 -0.47853723 0.2636258 -0.0065843654 0.24455997 -0.5044279
-0.7141027 -0.63662726 -0.68624145 -0.44384924 -0.4271072 -0.84442836 -1.0957168 -0.7842291
-0.96254736 -1.2393383 -1.0790099 -1.5075101 -0.9309463 -0.7080011 -0.90834475 -0.5346601
00000000: 6425 8fbf fd23 cfbe 73fe dbbf 9902 20be
00000010: ad2d 34bf dd84 81bf 3d18 07bf 0c6f 08bf
00000020: b16b 41be 1191 e8be ad92 3dbe 119c cdbe
00000030: 5ee9 e0be 889c 11bf 16a5 20bf e3d1 1dbe
00000040: b78f afbe 663b 5bbe b5c0 cbbe 15a9 98be
00000050: 76de 863c 1a81 2abf 0ab8 a13e 84c7 b7bf
00000060: d7c0 8bbf 87ec c7bd 9f65 16c0 b1f8 22be
00000070: 73f6 08bf b371 99bf 91e9 09bf 3429 bcbe
00000080: 6215 8eba 72fc 3ebe 9a71 cbbd 73e4 16bf
00000090: f46c efbe 40d7 18be dcef 44bf ec72 3abe
000000a0: 3679 cfbe fc4b 20be a259 85be 719d 41bf
000000b0: d9c9 9bbd 058b 39bf 08e5 d43e 1c58 cebf
000000c0: d6cc 97bf d2c7 efbe dd07 0ac0 a14e 88be
000000d0: c03d 46bf 814c 9bbf cbfe 17bf 8ecb 39bf
000000e0: f158 4b3d c018 54be e4a5 d8be 5c15 18bf
000000f0: 56e3 c7be e85f f4be 9fa6 0bbf afa7 90be
00000100: 9107 a2bd 8acf 2abe 690b c1bd 2934 ccbe
00000110: 17f2 5a3e e4ac ccbe 198f f43e 8a0e b2bf
00000120: f6be 71bf 90ec 84be 9acc f7bf 3b7b 60be
00000130: 0b0f d4be 7452 a2bf e2c4 24bf f824 24bf
00000140: 40a7 84bd d9f9 6bbe 13ba 68be e5e6 50be
00000150: 1b42 013e 81b6 f4bd a01a b4be d5cc 07bd
00000160: e845 4dbd 6252 0a3d 9f0b 3abe 18f2 2cbf
00000170: b054 253e 0ab8 c8be 0052 403f 98db a2bf
00000180: 0cc2 13bf 1383 90be ea94 adbf 3eb2 5abf
00000190: cfcb 4c3e 683f d9bf 7a5b 83bf c924 09bf
000001a0: df9b f6be 67fa 1bbf 36d3 08be efee ffbe
000001b0: c1cb bfbb ea93 013e 7f2e f2be a0f8 bb3e
000001c0: a63d d23e 82ec c0be 4ebc 183e 4b96 35bf
000001d0: 3591 983e 0999 77be 5112 2e3f 5c1f 6ebf
000001e0: e52b 3ebf 6c6a 9bbe 09c1 a1bf 90ec 22bf
000001f0: 760a 103f 0196 ddbf e1d9 9cbf 56ae 24bf
00000200: 3c57 eebe d23a 2fbf fbb2 24bf 9c9f 07bf
00000210: 74f7 99be 035b b63d 9ddb 32bf 237c 003e
00000220: 1afd ea3d 9d27 23bf e4d4 1f3e 18d4 1fbf
00000230: 8662 fb3e 7c4d 2abf d0dd 5b3f 93dd a7bf
00000240: c488 28bf 4e22 5cbe c5af cebf d197 26bf
00000250: cd0a 353f 56c9 e8bf bf9c c3bf 1393 32bf
00000260: 0d01 0cbf f230 6cbf 8b95 26bf 21ac 8bbf
00000270: 3b96 8bbe 8600 98be 163c 36bf ad8d 1bbe
00000280: 80ab 5dbe b497 1cbf 484e bf3c e714 35bf
00000290: 399a 6a3e c695 4abf c9f4 453f 3658 ccbf
000002a0: 898a 9abc 5ea5 b8bd f453 2cbf e682 16bf
000002b0: 7d5e f63e 459d c2bf eb71 90bf c10a 38bf
000002c0: 425c 5bbf f1ba 93bf 6cd1 7abf d0f5 61bf
000002d0: f63d 92be ba5d cabd 9591 dabe 182d 18bd
000002e0: f2f0 8d3e 5025 61be 8728 a73e fd45 22bf
000002f0: 5112 003f 85b3 8dbe 716d 333f c6ca 31bf
00000300: c3cc 11bf 3306 e1bd 8ff5 2dbf 625e fcbe
00000310: e07c b8bd 18eb 8dbf 84cd 8dbf c774 a9bf
00000320: 9f66 babf e99b d2bf fc83 babf 576f 70bf
00000330: 7ea0 eebe c1c8 33bf 372a 29bf 103d b9be
00000340: daca a6be a639 04bf 0933 08bd 912c 0cbf
00000350: 27a3 65bc c30f 4cbe 2f5c 723e 53bb 87bf
00000360: cae5 26be e399 b7bd 1694 1abf 8df5 01bf
00000370: 99f0 743d 5ad9 28bf eb14 3ebf 1298 6cbf
00000380: 662c a2bf 8549 adbf b3fc 80bf 992c 34bf
00000390: ad53 bfbe 3a1d 2dbe 692f edbe 96f0 74be
000003a0: b900 f13d e5dd 17bf 6e77 a3bd d502 f5be
000003b0: f6f9 863e a9c1 d7bb ee6d 7a3e 3022 01bf
000003c0: 6fcf 36bf 01fa 22bf 85ad 2fbf 3540 e3be
000003d0: cbad dabe 752c 58bf 7340 8cbf 3dc3 48bf
000003e0: 8169 76bf a3a2 9ebf ff1c 8abf 17f6 c0bf
000003f0: 7f52 6ebf 8f3f 35bf 4889 68bf 7cdf 08bf

linear.bias f4 [24]
1.5519509 0.4338217 1.156459 0.47257426 -0.20867385 0.9611226 1.3804814 0.3906263
0.45935586 -0.4382969 0.7630259 0.67762613 0.51421374 0.38293028 0.3566147 0.52041477
0.22965153 0.119086884 -0.10365415 1.2112975 -0.39574787 0.87994134 0.1492144 0.9520421
00000000: 54a6 c63f e11d de3e d906 943f 41f5 f13e
00000010: 99ae 55be 210c 763f 9db3 b03f 2c00 c83e
00000020: b130 eb3e 7468 e0be aa55 433f e878 2d3f
00000030: 83a3 033f 700f c43e 3496 b63e e739 053f
00000040: c529 6b3e d3e3 f33d a148 d4bd cc0b 9b3f
00000050: 779f cabe d643 613f a9cb 183e 08b9 733f

linearx.weight f4 [24, 24]
0.56035054 0.8736542 -0.028930401 0.57756305 0.96687365 0.85430175 0.22037731 1.0330915
0.74687386 1.1863221 0.89505756 0.24810949 0.60472256 0.116215475 0.6508186 0.052790027
0.7604345 0.4887322 1.1028475 0.6267108 1.0983744 1.0038353 0.8200579 0.5560679
-0.21461974 -0.36561146 -0.87840086 -0.731193 -0.17221649 -0.2870775 -0.21476556 -0.030940983
-0.047786735 0.31968674 -0.06519299 0.028478205 -0.24146214 -0.261358 -0.11160595 -0.34476748
-0.15741028 -0.023682995 0.24434409 0.12632945 0.06997842 -0.013274642 -0.19516636 -0.30566216
-0.0798503 0.11030269 -0.42910492 0.28039005 0.32688028 0.5037404 0.13418132 0.5524092
0.76909584 0.7489926 0.73098755 0.24160388 0.49046266 0.28667885 0.5793332 0.39427415
0.7123305 0.4538445 1.1749787 0.7485239 1.087834 1.0100986 0.8191572 0.38037553
-0.5195648 -0.55071914 -0.8943344 -0.66945904 -0.6700789 -0.3942083 -0.3946552 -0.34526068
-0.19090986 0.09814553 -0.008323093 -0.063602984 0.017672356 -0.04665083 0.06561327 0.048315242
-0.045580868 -0.12700665 0.17632023 0.083351895 -0.21905285 -0.05459612 -0.19063316 -0.38839597
-0.53802186 -0.7207123 -0.85499334 -0.690114 -1.166234 -0.8404647 -0.83006614 -0.5354316
-0.45989498 -0.28419596 -0.25943202 -0.034430686 -0.1382297 0.14338118 0.24687585 -0.025928326
0.2509982 -0.15492429 0.16586246 -0.1881975 -0.032929163 0.22629277 -0.015404703 -0.24197394
-0.4791762 -0.05293358 -0.4200231 -0.013156208 -0.49696034 -0.431204 -0.2947451 0.051414214
0.008138485 0.17933683 0.24065524 -0.2117262 0.10842816 -0.14391002 0.13941883 0.27305654
0.22479922 -0.042086214 0.81082314 0.17087117 0.29472035 0.46381176 0.34792677 -0.0863396
0.63786924 1.079442 0.40034568 1.0115672 0.948056 1.2132977 0.47267044 1.0793335
1.092227 1.3754848 0.86413145 0.3597613 0.89223737 0.7124944 0.9162849 0.5387814
0.9728053 0.67797804 1.5096117 0.79005474 1.1291374 1.6474835 1.0117573 0.8045837
0.102692865 0.38829285 0.3452415 0.26540223 -0.24367441 0.079600126 -0.40655488 -0.6124163
-0.6475359 -0.35829958 -0.45385537 -0.18956846 0.037170537 -0.15194646 0.10165486 0.23511204
0.27015457 0.26964304 0.5585572 0.35317487 0.35088226 0.8359045 0.44031966 0.41131896
-0.06623564 0.2704881 0.08288383 0.2992283 0.2710825 -0.28475085 -0.40521368 -0.6929976
-1.2352772 -0.9849135 -0.82092774 -0.6991779 -0.15048444 -0.11967921 0.19896783 -0.061218817
0.42503572 -0.113506705 0.5869667 0.06165751 0.6600343 0.63057667 0.5507773 0.13760148
0.043665633 0.34360114 -0.08414204 0.43338764 0.14074978 0.12533784 -0.74891096 -0.32273197
-1.3881991 -1.3314686 -0.86916286 -1.0242356 -0.29878873 -0.19378914 0.37207875 -0.21490702
0.5024159 0.010501044 0.67041886 0.057023868 0.60402036 0.8818755 0.66145015 0.30137125
-0.052886605 0.3044187 0.26618612 0.33861738 0.25401795 0.21882293 -0.079645045 -0.09071691
0.0054838583 -0.23059809 -0.44754747 -0.5437727 -0.16225478 -0.2464414 -0.027545277 0.060934454
00000000: 2273 0f3f cda7 5f3f 73ff ecbc 2cdb 133f
00000010: 0885 773f 85b3 5a3f 97aa 613e 583c 843f
00000020: 2033 3f3f 67d9 973f 7e22 653f 6a10 7e3e
00000030: 19cf 1a3f 6102 ee3d 0c9c 263f 5b3a 583d
00000040: d6ab 423f 1b3b fa3e 1b2a 8d3f 1e70 203f
00000050: 8897 8c3f ad7d 803f 51ef 513f 775a 0e3f
00000060: 47c5 5bbe 6d31 bbbe e1de 60bf 772f 3bbf
00000070: 8559 30be d2fb 92be 81eb 5bbe f277 fdbc
00000080: 06bc 43bd fbad a33e e783 85bd 204b e93c
00000090: da41 77be b7d0 85be a991 e4bd 5d85 b0be
000000a0: 2930 21be d702 c2bc 5635 7a3e 825c 013e
000000b0: d950 8f3d e27d 59bc b1d9 47be c07f 9cbe
000000c0: 8e88 a3bd 60e6 e13d a4b3 dbbe 498f 8f3e
000000d0: da5c a73e 21f5 003f d466 093e b06a 0d3f
000000e0: 77e3 443f fbbd 3f3f 0022 3b3f 0267 773e
000000f0: ec1d fb3e 92c7 923e 2e4f 143f 4dde c93e
00000100: 4b5b 363f 4e5e e83e b465 963f 439f 3f3f
00000110: 253e 8b3f e94a 813f 49b4 513f 95c0 c23e
00000120: 3302 05bf eefb 0cbf 19f3 64bf ab61 2bbf
00000130: 4a8a 2bbf acd5 c9be 3f10 cabe 02c6 b0be
00000140: e07d 43be 8600 c93d 955d 08bc 4842 82bd
00000150: 9ec5 903c f114 3fbd 4060 863d 34e6 453d
00000160: 01b3 3abd 080e 02be 4a8d 343e 66b4 aa3d
00000170: 644f 60be 2ea0 5fbd 5735 43be d6db c6be
00000180: cdbb 09bf 9a80 38bf d8e0 5abf 50ab 30bf
00000190: 2847 95bf b228 57bf 377f 54bf 0c12 09bf
000001a0: 5b77 ebbe 2282 91be 46d4 84be 3107 0dbd
000001b0: 168c 0dbe 84d2 123e 06cd 7c3e a467 d4bc
000001c0: d682 803e 79a4 1ebe d9d7 293e d8b6 40be
000001d0: bbe0 06bd 4bb9 673e 0264 7cbc 04c8 77be
000001e0: 9556 f5be e2d0 58bd 450d d7be 238d 57bc
000001f0: 9671 febe c5c6 dcbe d4e8 96be b697 523d
00000200: 4857 053c 13a4 373e 546e 763e c1ce 58be
00000210: 950f de3d 265d 13be cfc3 0e3e 11ce 8b3e
00000220: c431 663e 9862 2cbd 1b92 4f3f daf8 2e3e
00000230: 96e5 963e bc78 ed3e 7523 b23e d1d2 b0bd
00000240: 664b 233f 282b 8a3f 1cfa cc3e 097b 813f
00000250: ccb3 723f 574d 9b3f dc01 f23e 9a27 8a3f
00000260: 18ce 8b3f e30f b03f b837 5d3f a232 b83e
00000270: ab69 643f 0866 363f a691 6a3f 94ed 093f
00000280: c509 793f f88f 2d3f f53a c13f 0741 4a3f
00000290: 9387 903f bde0 d23f 4381 813f 33f9 4d3f
000002a0: a350 d23d 52ce c63e 7ec3 b03e cde2 873e
000002b0: c985 79be 6405 a33d f627 d0be 51c7 1cbf
000002c0: eac4 25bf 0b73 b7be bb5f e8be 3c1e 42be
000002d0: 2240 183d da97 1bbe 6c30 d03d 36c1 703e
000002e0: b351 8a3e a70e 8a3e 9bfd 0e3f 56d3 b43e
000002f0: d7a6 b33e d6fd 553f 9471 e13e 6698 d23e
00000300: 8da6 87bd 6b7d 8a3e ffbe a93d 7434 993e
00000310: 53cb 8a3e ddca 91be 2b78 cfbe 4a68 31bf
00000320: 901d 9ebf 4b23 7cbf 5228 52bf 53fd 32bf
00000330: 9818 1abe 601a f5bd 39be 4b3e 95c0 7abd
00000340: 489e d93e 3476 e8bd 7343 163f 968c 7c3d
00000350: 02f8 283f 796d 213f beff 0c3f 67e7 0c3e
00000360: bcda 323d 7dec af3e a952 acbd fce4 dd3e
00000370: b620 103e 9058 003e a1b8 3fbf 203d a5be
00000380: 82b0 b1bf 906d aabf 7581 5ebf 271a 83bf
00000390: d6fa 98be a970 46be 1b81 be3e 9610 5cbe
000003a0: 549e 003f 920c 2c3c 92a0 2b3f dc91 693d
000003b0: 14a1 1a3f 98c2 613f cc54 293f 554d 9a3e
000003c0: a09f 58bd c5dc 9b3e 8c49 883e 425f ad3e
000003d0: a40e 823e 1e13 603e f11c a3bd cac9 b9bd
000003e0: f0b1 b33b e821 6cbe f124 e5be b034 0bbf
000003f0: 1e26 26be 225b 7cbe a2a6 e1bc 6896 793d

linearx.bias f4 [24]
1.470835 0.55505615 1.4173765 0.13409229 0.022063792 0.6733354 1.4278958 0.47615278
0.4962481 -0.3734663 0.6815505 0.7372321 0.26295587 0.25161153 0.4308092 0.5937425
0.37309048 0.10420315 -0.1408012 1.431381 -0.4489414 0.8357826 0.24785127 1.1169802
00000000: 5244 bc3f 2918 0e3f 986c b53f 7d4f 093e
00000010: 20bf b43c b55f 2c3f 4ac5 b63f 4cca f33e
00000020: 3b14 fe3e fa36 bfbe 187a 2e3f 3ebb 3c3f
00000030: 27a2 863e 3ad3 803e 0693 dc3e 82ff 173f
00000040: b705 bf3e 7668 d53d 312e 10be 7e37 b73f
00000050: a6db e5be d9f5 553f b9cc 7d3e 35f9 8e3f
