electricity_problem/saved_models/projectnet0.4.pt (torch, 65092 bytes, 6 tensors)

MM.weight f4 [576, 24]
000000 83 b1 99 3f ff 6f f9 be 06 dd 94 be b3 fb b5 be
       1.2007297 -0.4871826 -0.29074878 -0.35543594
000010 d3 29 82 be 98 dd 9c be 06 20 56 be af 63 95 3c
       -0.25422534 -0.30637813 -0.20910653 0.01823601
000020 78 5b 8c be c2 ae 5e be 4c 94 bb be af 6e 96 be
       -0.27413535 -0.21746352 -0.3663658 -0.2938132
000030 9e 62 86 be 24 7e e4 be c8 b1 b2 be 75 af 12 bf
       -0.26247114 -0.44627488 -0.3490126 -0.57298976
000040 d6 a8 95 be 8a d7 5e bd d1 77 4f be 66 ba 21 be
       -0.29230374 -0.054404773 -0.2026055 -0.15793762
000050 0a f8 1d bf df cd 14 be d0 b3 de be 79 67 a4 bc
       -0.617066 -0.14531659 -0.4349656 -0.02006887
000060 99 ab 89 3f 44 a3 0c bf c4 e4 15 be 7a 16 16 bf
       1.0755492 -0.54936624 -0.14638048 -0.58628047
000070 d2 d5 b3 be 9a 3c 87 be 32 de 9c be f1 64 16 be
       -0.3512407 -0.26413423 -0.30638272 -0.14686944
000080 7b 96 18 be 79 9e e3 be 7f aa 5a be b0 a6 10 bf
       -0.14901154 -0.44456843 -0.21354102 -0.56504345
000090 99 1e a9 be 4a d6 cd be ad 69 e2 be 6d de 98 be
       -0.33031157 -0.40202552 -0.4422125 -0.29857197
0000a0 30 1e 18 bf f7 69 a4 be dd 38 88 be 2b 0d f2 bd
       -0.5942106 -0.32112095 -0.26605883 -0.11818918
0000b0 71 76 2f be 5c 50 be be 93 df 81 be 95 f2 59 be
       -0.17135026 -0.37170684 -0.25365886 -0.21283944
0000c0 57 56 7f 3f 32 41 9b be 38 0a be be 26 52 21 be
       0.9974112 -0.30323178 -0.3711717 -0.15753993
0000d0 6b 0a d0 bc 65 7a f2 bd 4f d2 9e bd 67 03 87 3d
       -0.025395593 -0.11839751 -0.07754957 0.06592446
0000e0 04 cc 7b be 3c e3 e5 be 29 0f 71 be 36 76 da be
       -0.24589545 -0.4489993 -0.2354094 -0.42668313
0000f0 cc ef 36 be 3c ff b3 be 04 fc ab be 67 af 9d be
       -0.17864913 -0.35155666 -0.3359071 -0.30797884
000100 28 36 42 be af 98 70 be 4e 9a 14 3d 0c 3d 43 be
       -0.18965971 -0.23495744 0.03627997 -0.19066256
000110 60 14 d8 bd 10 d9 a6 be dc 8f 88 bd 65 a5 b1 bd
       -0.10550761 -0.3258748 -0.06668064 -0.08674125
000120 a1 27 7b 3f b8 47 1f be 52 1c 9d bd 5e 20 d1 bd
       0.98107344 -0.15554702 -0.07671417 -0.10211252
000130 b9 02 63 be 46 8c 97 be 73 43 66 3d ae 16 0e be
       -0.22169007 -0.29599208 0.05621667 -0.13875839
000140 dd e4 61 be 5e 7d 9d be a9 d0 8c be 07 ba 30 be
       -0.2205996 -0.3075971 -0.27502945 -0.17258464
000150 f1 0f 94 bc 3b dc e3 be 5e a2 90 bd 4f 0d b2 be
       -0.018074008 -0.4450396 -0.07062219 -0.3477578
000160 57 cb 08 be 16 81 25 be 36 01 c5 3c c1 10 b4 bb
       -0.13358818 -0.16162524 0.024048429 -0.0054951613
000170 6e 76 a4 be e7 0a 51 be 9d fd e8 bd 22 cf 8d be
       -0.32121605 -0.20414315 -0.11376498 -0.27697092
000180 62 0c 8f 3f 9f b1 74 bc cd 30 2c 3d 9e aa ab be
       1.1175654 -0.014934926 0.042038728 -0.33528608
000190 e7 49 0f 3d 97 e9 49 be 43 5b 2b be a6 af f5 3c
       0.03498259 -0.19718014 -0.16734032 0.029990982
0001a0 2e 3e f7 bc 84 df a8 be 48 48 94 3d 92 62 d0 be
       -0.030181017 -0.3298303 0.07240349 -0.40700203
0001b0 20 c7 29 3b 2a b4 cd be 83 bd 14 bd 74 6c 93 be
       0.0025906041 -0.40176517 -0.036313545 -0.2879368
0001c0 28 fa 5f be 91 0d 06 3e a8 72 6c bd 38 42 12 3e
       -0.21872771 0.13091113 -0.057726532 0.14283073
0001d0 a9 e5 14 bc f1 bf f3 bd 8a d1 9f 3d 12 49 a4 bd
       -0.009087958 -0.11901844 0.07803638 -0.080217496
0001e0 35 f9 b2 3f 9c 5e 99 3d 0e e1 76 be d7 d4 3b be
       1.3982302 0.074887484 -0.24109289 -0.1834291
0001f0 ec a3 5b bd fc 3d b1 3d 57 14 99 3d 14 02 90 3e
       -0.053623125 0.08654401 0.07474583 0.28126585
000200 3e 4f ee ba 96 d2 50 be af 4d eb bd 71 e0 69 bd
       -0.0018181575 -0.20392832 -0.11489426 -0.05709881
000210 4e 9f 5c 3e 44 49 7d be 11 27 5c 3e 4b 10 fa 3d
       0.21545145 -0.2473498 0.21499278 0.12210139
000220 cc 96 59 be 5e ff ea 3d e2 73 9b 3e 79 5c 25 3e
       -0.2124893 0.11474489 0.3036185 0.16148557
000230 1c d3 40 be e5 b9 80 bc 29 d8 45 3e 0d 97 cc bb
       -0.18830532 -0.015713641 0.1932074 -0.0062435926
000240 a8 f7 d0 3f a0 11 05 bd 63 25 c9 3c 0b 6f 0d 3b
       1.6325579 -0.03248751 0.02455396 0.002158108
000250 13 05 b4 bd 31 29 12 3d 2f 01 80 3d 11 08 91 3e
       -0.0879003 0.035683814 0.06250226 0.28326467
000260 4b 83 b0 3e 25 1c 09 be f9 79 3d 3e 34 e3 f2 bc
       0.3447517 -0.13389643 0.1850356 -0.029649355
000270 54 e9 67 3d 72 82 e8 3d 00 5f b6 3e 99 54 1b 3c
       0.056619003 0.113530055 0.35619354 0.009480619
000280 e6 ee cf bd ea ec 8b 3e 32 51 64 bc ef df b2 3e
       -0.10152988 0.2732919 -0.013935374 0.34936473
000290 98 a8 de bb 44 87 8f bc 50 7a 14 3d 29 32 b5 3e
       -0.0067950003 -0.017520554 0.03624946 0.35389832
0002a0 eb 6c a9 3f 62 fb 03 bc 47 a6 03 bb 33 cc e7 bd
       1.3236364 -0.00805554 -0.0020088123 -0.11318245
0002b0 e5 54 d9 3d 5f b1 3f be ae 94 50 3d ad 2f 14 3d
       0.106118955 -0.18720005 0.050923042 0.03617828
0002c0 8c 6a 12 3e 95 41 a0 bd f3 20 6d bc b5 0d 2f bd
       0.14298457 -0.07825009 -0.014473188 -0.04273768
0002d0 cf 11 bc 3e d1 b2 4f be 97 29 b4 3d bb eb 80 bd
       0.36732337 -0.20283057 0.08796995 -0.06294962
0002e0 d3 ab dd bc 1f ab e6 3d 1f af e5 3d 30 7d c3 3e
       -0.027059471 0.112631075 0.11215042 0.38181448
0002f0 2e 54 38 3e 16 16 b1 3e f7 0a 88 3e e8 14 ce 3d
       0.18000862 0.34587163 0.26570866 0.10062581
000300 d4 32 c2 3f 39 53 fd bd 38 24 f6 bc b0 48 97 3b
       1.5171762 -0.12369389 -0.030046567 0.0046168193
000310 37 8d 1c bb ab 83 2e be 1b b4 7f 3d 44 42 c0 3d
       -0.0023887882 -0.17042415 0.06242762 0.09387639
000320 62 62 5d 3c d9 cb 2a 3d 8a f4 56 3d dd 38 81 be
       0.013512226 0.04169831 0.052479304 -0.25238696
000330 7d fb c7 3e 16 b5 19 be 64 58 25 3e 2c 1b a1 bd
       0.39059058 -0.15010485 0.16147 -0.07866511
000340 e1 69 93 3d 0f 5c d0 3e 4d 4c de 3d a2 75 69 3e
       0.07197929 0.40695235 0.10854397 0.2279878
000350 53 a4 84 bd 92 25 4e 3e 8f 44 9b 3e aa f3 b6 3e
       -0.06476655 0.2013152 0.30325744 0.35732776
000360 59 8b b6 3f 1f 35 32 bd ed 4a e5 3d 5a bc 01 be
       1.4261276 -0.04350769 0.111959316 -0.12669507
000370 49 2e 3e 3e cd c0 d2 3d ca 3f e5 3d 76 cf 20 3e
       0.18572344 0.1029068 0.111938074 0.1570414
000380 dd 9e 08 3e e1 60 ff 3d 9d 14 89 3e 7b 52 8c 3d
       0.13341852 0.1246965 0.2677354 0.068516694
000390 73 c6 62 3e 6b 09 8e bc 7d 62 9f 3e 35 e0 58 3c
       0.22146015 -0.017338475 0.31129828 0.013237049
0003a0 48 67 28 bd fd 9d ed 3d 3c 69 b9 3e 86 db 76 3e
       -0.04111412 0.116023995 0.362131 0.24107179
0003b0 43 89 51 3d 7c 26 53 3e 14 ad 29 3e a5 19 82 3d
       0.051156294 0.2062015 0.1656993 0.063525476
0003c0 63 a2 ae 3f 80 a0 b5 bd ca f9 0c 3e 0d d7 4f be
       1.3643306 -0.088685036 0.13767162 -0.20296879
0003d0 e1 0f 6e 3e 74 64 0b be 8a 74 45 3d 8a b7 ad 3e
       0.23248245 -0.13612539 0.048206843 0.33929092
0003e0 7e 75 8b b9 3c 70 56 3e 4a 37 6b 3e 2d 43 61 be
       -0.00026599684 0.20941252 0.2297031 -0.21998282
0003f0 74 3c a7 3d c1 e0 26 be 62 73 7d 3e 6a 49 3f 3e
       0.081658274 -0.16296674 0.24751046 0.18680349

MM.bias f4 [576]
000000 3f 10 8c be cd 9d bb be 7b 0c 9d bd 30 27 ad bd
       -0.27356145 -0.3664383 -0.07668396 -0.0845474
000010 94 d7 d7 bd e3 83 0b 3d 8b 29 17 be d3 49 e9 bc
       -0.10539165 0.034061324 -0.14761941 -0.028477585
000020 c3 f0 a4 3d 72 2e 55 3e d9 01 66 3d 71 90 f7 3b
       0.08053734 0.20818499 0.056154106 0.0075550606
000030 47 93 11 be e2 01 b6 bd 54 a6 34 be 17 2b 28 3e
       -0.14216338 -0.08887078 -0.17641574 0.16422687
000040 67 b6 0f 3c e6 45 8a bc ce fa 44 3d 00 f0 9e bd
       0.008771515 -0.016879033 0.04809075 -0.0776062
000050 d8 32 3a be c4 a6 79 be 7c 29 22 bd c7 59 ef bd
       -0.18183458 -0.24380022 -0.039590344 -0.116870455
000060 39 91 51 bd 37 dc 07 be 4a d1 e0 bd ad cb 4c be
       -0.051163886 -0.13267599 -0.10977419 -0.19999571
000070 04 45 16 bd f5 62 e8 bd 64 16 12 be f3 45 2a 3e
       -0.036686912 -0.113469996 -0.14266354 0.16628246
000080 d2 24 4c bd 0a 0d 83 3e 45 1a 21 3e 03 30 ad bd
       -0.049839802 0.25595886 0.15732677 -0.08456423
000090 bd f1 28 3c 35 64 7a bd 80 82 43 3e 36 db f1 3d
       0.010311541 -0.06113072 0.1909275 0.11809389
0000a0 3f d2 4a bd 3e 45 2d 3e 4d a4 64 be 34 d3 7e 3d
       -0.049516913 0.16920945 -0.22328301 0.062213138
0000b0 f7 1e cd bd ad d1 14 3e 6a 5d 1e be c0 11 dd bd
       -0.10015672 0.1453311 -0.15465322 -0.10794401
0000c0 1c 8f 41 be 35 ff 51 3b 29 00 7b be 80 98 b1 3d
       -0.18902248 0.0032042984 -0.2451178 0.08671665
0000d0 c5 d7 88 bd a6 c3 46 be 06 34 2f 3e 65 e1 17 3e
       -0.0668178 -0.19410571 0.17109689 0.14832075
0000e0 ee f6 92 3d 8b 6a 90 3e 54 5b 26 3d 4a 0a 9b bd
       0.07176004 0.28206286 0.04061444 -0.07570322
0000f0 28 69 25 bd 6d 99 e4 3c 3a bf c8 3d 57 87 19 3e
       -0.040383488 0.02790519 0.098020986 0.14993034
000100 67 e7 91 3c 3d 38 a8 3a 39 23 ae 3d 75 6b 95 bd
       0.017810537 0.0012834143 0.08502812 -0.072958864
000110 0b 43 01 3d d0 ac 40 3e c4 15 46 3e de 9a 05 3d
       0.031558078 0.18815923 0.1934424 0.032618396
000120 12 ab 9d bd 56 bd ce bc bf 74 20 3c 3b 47 d3 bd
       -0.07698645 -0.025236767 0.009793459 -0.103163205
000130 31 bc 8d bd ce fd 41 3d f3 75 00 be 0b 9d eb 3d
       -0.0692066 0.047361188 -0.12544994 0.11504563
000140 fd fe 86 3e 2a 45 58 3e cf e3 ce 3d 11 c2 b1 3d
       0.26366416 0.21120134 0.10102045 0.08679593
000150 cd 4e 66 3e eb 55 6f bd ec 64 b2 3d 3b 61 4e bc
       0.22490998 -0.058431547 0.087106556 -0.012596424
000160 d9 57 fb bd e8 c9 17 bd 0c 3e 65 3e 22 44 84 3d
       -0.12272615 -0.037057787 0.2238695 0.06458308
000170 c2 ea 73 3d dc 7f 97 3d 8a d0 0a be 30 8a a3 3d
       0.059550054 0.07397434 -0.13556114 0.079853415
000180 c1 e7 1b bd 27 63 1c 3e d4 5e 21 3e 87 da d1 3d
       -0.038062815 0.15272199 0.1575883 0.10246759
000190 e7 51 57 be 84 ee fb 3d 70 00 4a 3e da b6 9a 3e
       -0.21027337 0.123013526 0.1972673 0.3021763
0001a0 8d b7 a3 3c 0a 1f 41 3e fa 5a a0 3e d3 2c db bb
       0.019984985 0.18859497 0.3131941 -0.006688693
0001b0 65 95 91 3e 31 e1 32 3e 55 36 ff 3c 44 11 2e 3e
       0.2843429 0.17468716 0.031153837 0.16998774
0001c0 a5 75 f5 3d 49 70 96 3e b9 d8 9b 3d 7d 75 78 3e
       0.119853295 0.29382542 0.07609696 0.24263568
0001d0 5a 66 55 3d 85 89 0b 3c 2e 0e cd 3d c6 4c 75 3e
       0.052099563 0.008516674 0.1001247 0.23955068
0001e0 54 18 ef 3d b0 1c 14 be 64 8b e5 ba 29 ba 44 3e
       0.11674562 -0.14464068 -0.0017512855 0.1921164
0001f0 d3 67 0a 3e ab 67 0f 3e 39 7f b8 bc 3d b6 34 3e
       0.13516168 0.1400439 -0.022521602 0.17647643
000200 32 53 6c 3d b2 62 41 3e d5 3c 11 3e 63 f2 80 3e
       0.05769653 0.18885306 0.14183362 0.25184926
000210 8a 33 b2 3e 21 87 59 3e 7a dc 44 3e 96 62 26 3d
       0.34804946 0.21242954 0.1922473 0.040621363
000220 f0 77 46 3e 4b 82 a2 3e 69 82 65 3c 1e 98 db 3d
       0.1938169 0.3174003 0.014008143 0.107223734
000230 ab fe 39 3e fb 91 36 3e e5 64 10 3d a4 94 3c 3e
       0.18163554 0.17829125 0.03525247 0.18416077
000240 62 74 a2 bd a4 93 68 3d e6 6f d7 3d 46 02 4b be
       -0.079323545 0.056781426 0.1051939 -0.19825086
000250 cc 13 01 be f5 75 fa bc ff 5a 0e be 25 c1 c5 3c
       -0.12605208 -0.030573824 -0.139019 0.02413995
000260 50 d2 c7 bd 27 9e cd bd 30 0b 23 3e 23 a4 85 3d
       -0.09756911 -0.10039931 0.15922236 0.06525447
000270 ab 4b 11 3e 93 f3 89 3c 12 05 62 3e 8f e7 bc bc
       0.14189021 0.016839778 0.22072247 -0.023059634
000280 d8 9b 84 3e b6 c1 f2 bc f8 ed e8 bd 71 da d3 bb
       0.2590015 -0.029633384 -0.11373514 -0.006465249
000290 55 a7 33 3e 22 7f 05 3c 23 05 e7 bd 0d 74 3c 3e
       0.17544301 0.008147987 -0.112802766 0.18403645
0002a0 3e 40 d8 3d ea f3 cd 3d 23 35 0d be 5a dc 2c be
       0.10559128 0.100562885 -0.13789801 -0.16880932
0002b0 c9 47 6b bd d1 03 13 bd b7 03 68 be 3f 93 a2 be
       -0.057441507 -0.03589231 -0.22657667 -0.31752965
0002c0 79 56 ca be a5 a0 c1 be 16 bf 34 be f4 7c 93 be
       -0.39519098 -0.37817875 -0.17651019 -0.2880627
0002d0 ca ef 81 3d 50 f6 da 3d 81 c8 8f bd 06 03 1c be
       0.06344564 0.10691512 -0.07020665 -0.15235528
0002e0 d2 86 cc 3c b1 51 1d 3d 18 12 e2 bb 68 39 52 3d
       0.024966631 0.038407985 -0.0068991296 0.051324278
0002f0 a3 9f 5d bd 7e 71 d2 3c d9 1c b4 3d c8 94 49 be
       -0.05410732 0.025688883 0.08794565 -0.19685662
000300 a8 27 6e be ff 8c 93 be 4e c0 12 be fc b1 70 be
       -0.23257315 -0.2881851 -0.14331171 -0.23505396
000310 3b f2 0b be 0c f3 c5 be 7e b0 ad be 8c 68 e1 be
       -0.13666622 -0.38661993 -0.33923715 -0.44025075
000320 7b a3 93 be a9 b8 da be 4b da de be 8f 51 a5 be
       -0.28835663 -0.4271901 -0.4352592 -0.32288787
000330 26 da 16 be 07 fd e9 bd d5 46 d7 bd 4c 49 4a ba
       -0.14731655 -0.11425214 -0.10511557 -0.00077166106
000340 82 88 c2 3d a2 6d d0 bb 90 ea 1f bd f8 b2 4c 3d
       0.09498693 -0.0063607255 -0.039042056 0.049975365
000350 ff d8 51 3d 33 53 50 3c e8 6b 0d 3d 28 04 31 be
       0.051232334 0.012715149 0.034526736 -0.17286742
000360 73 74 de bd db e1 76 be 77 66 34 3d dd 28 ea bd
       -0.10862055 -0.24109595 0.04404303 -0.11433575
000370 ba 7b b7 3c c4 fb a4 be 44 88 93 be de b3 bf be
       0.022397865 -0.32223332 -0.288149 -0.37441915
000380 0f e0 e5 be 62 9f ce be 0a 87 1f be 99 70 cb bd
       -0.44897506 -0.40355974 -0.15578857 -0.09933586
000390 53 f1 ab bd f9 ff 38 bd de df c1 bd 8f 6c 91 3d
       -0.08395638 -0.04516599 -0.094665274 0.07100784
0003a0 c8 c0 38 be fe 8b fc 3d 47 59 ba bd 52 89 67 bd
       -0.1804229 0.12331389 -0.090990596 -0.056527443
0003b0 13 dd 35 be aa a9 2a 3e 07 3e 11 be be 7a 2a be
       -0.17760114 0.16666284 -0.14183818 -0.16648385
0003c0 3f e9 5d be 77 b4 2e be 67 ff 1d be 9a e8 7f be
       -0.21671008 -0.1706103 -0.1542946 -0.24991074
0003d0 b4 0a 87 bd f2 a1 6a be 19 54 05 bc 38 19 5f be
       -0.06593838 -0.2291334 -0.008137726 -0.21786964
0003e0 d2 e3 c7 be ed 00 be be bf a2 95 be 69 f9 22 be
       -0.39041 -0.3711008 -0.29225728 -0.15915455
0003f0 55 4d c1 be c4 45 80 be 17 82 c7 3d 59 67 42 3d
       -0.37754312 -0.25053227 0.097416095 0.04746184

linear.weight f4 [24, 24]
000000 9e 14 40 3d 9c ea ef 3d da 13 89 3d 7f e9 30 be
       0.046894662 0.1171467 0.066932395 -0.17276572
000010 81 01 9c bb 8c 33 94 3d 01 67 a5 3c 41 af c4 bd
       -0.0047609215 0.07236394 0.020190718 -0.096037395
000020 3d 59 1c 3e d5 7e 00 3e e0 2b 0d 3c fa cb 75 bd
       0.15268417 0.12548383 0.008616418 -0.06000898
000030 e7 e2 a7 3d 89 73 7f 3d 26 a2 53 3d 3a 00 dc bd
       0.08197575 0.062366042 0.05166831 -0.10742231
000040 06 71 06 be a0 3e a1 bd 56 08 27 bd 7a 5b 75 3d
       -0.13129053 -0.07873273 -0.040779434 0.059901692
000050 5a d3 0e be bd f2 3c bd ef 62 d3 bd b7 e8 34 be
       -0.13947812 -0.04612993 -0.103216045 -0.17666899
000060 9e 0e 36 3e 9e 0c f7 3d b0 84 0b 3e da fa 9d 3d
       0.17779014 0.120629534 0.13624835 0.07713862
000070 09 fd 21 3e 25 dd 91 3d 61 13 04 be 2e 72 19 3e
       0.15819182 0.07122258 -0.12898017 0.14984962
000080 17 71 fd bd e8 16 be 3d 28 1a 96 bd 02 1c 2a be
       -0.12375086 0.09281713 -0.07329208 -0.16612247
000090 b1 63 8d bd c5 96 30 3e 4b 6a 0b 3d 1a 79 c2 3d
       -0.0690378 0.17245014 0.034036916 0.094957545
0000a0 33 25 e9 3d be 53 89 bd ec 95 b4 3d 2f dd 03 3e
       0.11384048 -0.06705426 0.08817658 0.12877344
0000b0 96 df 24 be 22 f7 ec bd c5 6a 60 bd f9 ff bf bc
       -0.16100916 -0.11570574 -0.054789323 -0.023437487
0000c0 44 e2 20 3e 95 05 38 3d 67 c9 23 3e be cc f4 3d
       0.15711313 0.0449272 0.15994798 0.11953114
0000d0 5d 6d 48 bc 5f 16 44 3e 77 fc 3a bd 1a d2 87 bc
       -0.0122331055 0.19149159 -0.045650925 -0.016579676
0000e0 cb cc fe 3d 9d 83 99 3b 81 a6 3d 3e 7d e5 cd bd
       0.12441405 0.004684879 0.18520547 -0.10053537
0000f0 e1 b0 12 be a7 e4 38 be f5 05 2b 3e 4a 92 45 3c
       -0.14325286 -0.18055974 0.16701491 0.012058804
000100 e1 5f 79 3d 80 36 07 be f1 97 0a 3c 30 69 c0 bd
       0.060882453 -0.13204384 0.008459077 -0.09395063
000110 18 ad 41 be 7b 30 2f 3e ee c4 12 3c a5 86 8e 3d
       -0.18913686 0.17108338 0.0089580845 0.06959275
000120 a0 71 75 bd 87 61 2f 3e 10 86 50 3e 97 42 c1 3d
       -0.059922814 0.17127047 0.20363641 0.09436529
000130 3a a6 04 3e f3 e0 23 be 2b c2 af bd 79 34 a0 bd
       0.12954035 -0.1600378 -0.085819565 -0.07822508
000140 ba ec 34 be 88 6b f3 3d d8 63 2b 3e 9c 8f 21 be
       -0.17668429 0.11885744 0.16737306 -0.15777439
000150 e1 69 d5 bc 6f 56 b6 3d 54 48 4b bd 96 8d 26 be
       -0.026051464 0.08903205 -0.049629524 -0.16264948
000160 fb 31 9d bd 3e 58 05 be 58 b4 09 be e8 91 18 3d
       -0.07675549 -0.13021943 -0.13447702 0.037248522
000170 d3 76 1c 3e ba 92 b6 3d 4d c1 54 3d 1b fd 43 be
       0.15279703 0.089147046 0.05194216 -0.19139521
000180 47 d5 35 3e 24 23 04 3e b8 c5 52 3d 0e f4 db 3c
       0.1775714 0.1290403 0.05145809 0.026849773
000190 1e 54 87 3d 63 6a 72 bd 56 9f 90 3d 27 26 6b bc
       0.06607841 -0.05918349 0.07061641 -0.014352358
0001a0 88 d2 46 3e 18 ef 2f 3e 54 01 4b be 61 cf 4d 3d
       0.19416249 0.17181051 -0.19824725 0.0502466
0001b0 81 92 82 3d ce e9 24 3e 64 2e 2e be e1 83 36 3e
       0.063756 0.16104814 -0.17009884 0.17823745
0001c0 96 ff 6e 3d 31 08 b1 bd d5 b1 9b bd 12 d0 da bd
       0.058349214 -0.086441405 -0.07602278 -0.106842175
0001d0 c6 66 c1 3d 58 4f 3a 3d a2 be 8f bd e8 99 37 3d
       0.094434306 0.045485824 -0.07018782 0.04482451
0001e0 87 7e 0a 3c 5a 79 06 be c0 47 b6 3d c6 15 06 3d
       0.008453018 -0.1313223 0.08900404 0.03273561
0001f0 bf cf c9 3d 23 95 32 be fc 25 1e bb e1 91 10 be
       0.098540775 -0.17439704 -0.0024131527 -0.14118148
000200 4b 79 1e bd c5 1e ca 3c 41 d9 31 be 3b 13 2c be
       -0.038689893 0.024672875 -0.17368032 -0.16804211
000210 d6 cb 34 be ce 90 6c 3d 6b 11 7a bc 22 63 00 be
       -0.17655882 0.057755284 -0.015262942 -0.12537816
000220 ca 25 12 3e ef 77 a0 bc 30 8f 02 bd a4 e8 5e bc
       0.14272228 -0.019588439 -0.031874835 -0.013605271
000230 cf 2d 11 be a1 14 22 be 43 59 2c be 92 84 05 3e
       -0.14177631 -0.15828182 -0.16830926 0.13038853
000240 32 08 3b be cd 69 8d 3d d4 6a 39 3c f6 43 9f bb
       -0.18264845 0.069049455 0.011316974 -0.0048603965
000250 17 8a f6 3d 6d 06 5d 3d cb 12 88 bd 95 8d 0d 3e
       0.12038057 0.053961206 -0.066442095 0.1382354
000260 3b a0 5e 3d ef d0 0e 3d 1f bb 31 3e e2 11 1d 3e
       0.054352026 0.034867223 0.17356537 0.15338853
000270 82 71 0c 3e 36 2f 4f bc c8 b6 ad bd 92 fa 6b 3d
       0.13715175 -0.012645533 -0.084821284 0.05761201
000280 87 de f4 3d 8b b9 20 be 7e 96 db 3d 75 55 f5 bd
       0.11956506 -0.15695779 0.107220635 -0.1197919
000290 49 c8 39 be fd 07 7f 3c d0 34 33 3e 4d 2a 2f bd
       -0.18142809 0.015565869 0.17500615 -0.04276495
0002a0 a6 30 08 3e 41 cf 88 3d 46 94 ad bd 1b 5b 38 be
       0.13299808 0.066801555 -0.084755465 -0.18003504
0002b0 57 4e 3d 3e ff 66 71 bc 47 3b a3 bd 43 c5 5b bd
       0.18486916 -0.014734029 -0.07970291 -0.05365492
0002c0 a7 09 74 3d e4 98 c8 bc 71 74 9f bc 0e 9b 25 be
       0.059579518 -0.024486966 -0.019464703 -0.1617243
0002d0 1a fb 75 3d 8e af cf bc f3 89 ee 3d b5 70 74 bd
       0.060053922 -0.025352266 0.116474055 -0.0596778
0002e0 ea 51 a1 3d 7f 2a 2b be 1e 92 9f 3d 18 8d 4e be
       0.07876952 -0.1671543 0.077915415 -0.2017101
0002f0 3f cc b9 bc d4 44 b6 3d 51 3b 42 3e cf ba ce bc
       -0.0226804 0.08899847 0.1896794 -0.025235562
000300 1c 38 91 3c f0 24 39 3d d9 a2 0f 3d b5 31 d1 3d
       0.01772695 0.045201242 0.035067413 0.10214559
000310 9e 52 40 bd 92 62 15 3e 99 3e 23 be fe 6e cd bd
       -0.04695379 0.14588383 -0.15941848 -0.10030936
000320 30 6c c8 bd ef 21 0e 3e 27 84 d4 3d 55 56 72 bc
       -0.0978626 0.13880132 0.103767686 -0.014791091
000330 f2 08 0f be cc 26 e8 3c e5 20 27 be 6f 0d 24 3e
       -0.13968256 0.028338812 -0.16321142 0.1602075
000340 93 fa 3b 3e e6 62 db 3d 01 b2 11 be 29 72 6c bb
       0.18357305 0.10712223 -0.1422806 -0.0036078787
000350 a6 14 f8 bd dd e5 94 3d f4 d9 16 be bd 6b 1c be
       -0.121133134 0.072704054 -0.1473158 -0.15275474
000360 4f 86 1a 3e 93 e8 ed 3d c0 01 ad 3d 47 24 42 3d
       0.15090297 0.11616626 0.084475994 0.047397878
000370 c6 5e f3 3d a2 b8 24 bd e8 5c a3 bd b3 05 6a 3d
       0.11883311 -0.040215142 -0.07976705 0.05713434
000380 26 96 df bc 59 1b c6 bd df 72 ed bd 3b b4 43 39
       -0.027293276 -0.09673185 -0.115941755 0.0001866379
000390 46 f5 2d 3e 45 11 2f bd fd 96 00 be 58 06 47 3e
       0.16988096 -0.04274108 -0.12557597 0.19436014
0003a0 07 b8 25 3e 4d 70 31 be a7 73 3e 3e 81 49 46 3e
       0.16183482 -0.17327996 0.18598805 0.19363977
0003b0 2e 63 36 3e 99 8b 5a 3d d2 3e 64 3d 94 40 b2 3d
       0.17811272 0.053355787 0.055723973 0.087037235
0003c0 d4 f7 1d 3e d8 ca 43 be 2e b3 e5 3d 3d 22 4c 3e
       0.1542657 -0.19120347 0.112158164 0.19934936
0003d0 45 43 43 3e e1 0e d0 bc 2a 38 6b 3d 35 2d 70 3d
       0.1906863 -0.02539772 0.05742661 0.058636863
0003e0 6e 6c 33 3e f6 62 9c 3d 32 d1 29 be 10 e2 94 3d
       0.17521831 0.07636063 -0.16583708 0.072696805
0003f0 a4 da 3b 3e a6 5f 0c bc 88 6a 3c 3e 97 16 e6 bd
       0.18345124 -0.008567726 0.18400013 -0.112347774

linear.bias f4 [24]
000000 1b f8 14 3d 3a 76 24 be bf 5a 29 bc 53 5a 2d bd
       0.036369424 -0.16060725 -0.010336577 -0.042322468
000010 15 9e 44 bd 2d 41 35 be c2 29 c4 3d 3c 4c 0d 3e
       -0.04800232 -0.17700644 0.09578277 0.13798612
000020 b9 f8 1a be 5e 26 35 3e 7b 4b 74 3d d8 21 33 bd
       -0.15133943 0.17690417 0.059642296 -0.043733448
000030 e8 e0 06 3e 41 84 19 3e e0 ea 47 bd 6b 42 36 bd
       0.13171732 0.14991857 -0.04880798 -0.044496935
000040 5d 96 09 3d 4f f8 9e bd a8 ad b3 bd e5 e5 6d bd
       0.033590663 -0.07762205 -0.08773357 -0.058080573
000050 5f 2e 21 be 00 9b bd 3d 09 40 f9 3d de be 1e 3e
       -0.15740345 0.092580795 0.12170417 0.15502498

linearx.weight f4 [24, 24]
000000 7e 95 f7 3d 6c 73 56 3d f1 52 23 3e 27 2c 1a be
       0.1208906 0.05235617 0.15949608 -0.15055905
000010 41 f7 7d 3d 7a 28 85 3d 95 3b 9e bd 27 65 14 be
       0.062003378 0.06501861 -0.07726208 -0.14491712
000020 6d f9 d7 3c 5a 27 24 be a8 f4 4f be da d7 31 3d
       0.026364053 -0.16030636 -0.20308173 0.043418743
000030 0f 5a 96 bc ac 32 19 3e 0a a4 4d be bd f8 df bc
       -0.01835349 0.14960736 -0.20082107 -0.027340287
000040 51 42 06 3e 31 88 01 be 7f d0 af 3d a0 97 e0 3d
       0.13111235 -0.12649609 0.08584689 0.1096642
000050 1e d6 b1 3d 6c a8 b4 bd de e9 30 bd 77 13 1f 3e
       0.08683418 -0.088211864 -0.043191783 0.15534769
000060 48 9d 11 bd 49 c3 28 3e e3 42 73 bd 07 28 2b be
       -0.035550386 0.16480745 -0.05938996 -0.16714488
000070 70 db 23 3d 4f 46 18 3e 97 d9 3f be 8d fb ef bc
       0.040004194 0.1487057 -0.18735348 -0.029294753
000080 70 7d 95 3d 20 7f 46 bd 8c 83 21 3e 14 cd 0f bc
       0.07299316 -0.04846108 0.15772837 -0.008776922
000090 d0 ef 3e be 3c 6e 6b 3d 76 61 35 be fc d9 3d be
       -0.18646169 0.057478175 -0.1771296 -0.18540186
0000a0 35 d3 41 3e 24 e8 84 3d fd 84 db 3d 3f 8b 2f be
       0.18928225 0.0648959 0.10718725 -0.17142962
0000b0 ad a2 41 3e a0 3c 39 3e a2 4e 99 bd 49 7e a6 bd
       0.18909712 0.18089533 -0.07485701 -0.08129556
0000c0 3f d9 4f bd 9c 66 50 3e 44 1f d8 3d dd d2 5a 3d
       -0.05074429 0.20351642 0.105528384 0.05342375
0000d0 ec dd 16 3a 5b bd f5 3d 40 8f 1d be 4d 20 fb 3d
       0.0005755115 0.11999007 -0.15386677 0.1226202
0000e0 23 5f 84 3d bc b4 ea bd cc af 1d bc 5d 4a 17 3d
       0.064634584 -0.114602536 -0.009624433 0.036936153
0000f0 9d 47 5e bd 94 11 50 3e 53 bc 82 3d 97 ed b6 3d
       -0.054267514 0.20319206 0.06383576 0.089320354
000100 75 1c fd bd d6 a3 2f be f1 b8 b5 3d 2e 49 db 3d
       -0.123589434 -0.17152342 0.088731654 0.10707317
000110 3e f7 2f 3d 29 74 38 be 60 05 10 3e 85 fb 02 3e
       0.042960398 -0.18013062 0.1406455 0.1279126
000120 c0 7f 4d 3e 49 fa 35 3d 3c fa d5 bd f4 2c b9 3d
       0.20068264 0.044428144 -0.10448119 0.09041777
000130 12 c4 01 3e e8 78 44 bd 05 52 68 bb 56 56 1c 3e
       0.12672451 -0.047966868 -0.0035449278 0.1526731
000140 0d 2b 7d 3c 0c ab 31 be dd ce 11 3e d6 1a 8b bd
       0.015452159 -0.17350405 0.14239068 -0.06792228
000150 b6 ad 44 be ec 16 11 3e 47 cc 3d be 29 f7 20 3e
       -0.1920689 0.141689 -0.18534957 0.15719284
000160 34 22 85 bc 85 19 19 3d bf f3 c5 3d 22 70 a7 3c
       -0.01625166 0.037377853 0.096656315 0.020439211
000170 c0 02 0b 3d 4d d8 e2 3d 8f f4 55 bd ef db e8 bd
       0.03393817 0.11076412 -0.052235182 -0.11370074
000180 ca 0a 46 3e c2 c5 1b 3e bc cc d7 3d ab d2 69 bd
       0.19340053 0.15212157 0.10537097 -0.057085674
000190 ad 4a 02 3d 9b 1d 86 3d 19 df 15 3e c1 bf 6b 3b
       0.031809498 0.065486155 0.14635886 0.0035972449
0001a0 13 25 f6 3d 1c a1 4e be 54 fa d4 3c 74 f4 5f 3c
       0.1201879 -0.20178646 0.025998272 0.013669122
0001b0 ea 81 7a bd 1b e5 1a 3e 16 d4 00 be 36 7c 42 3e
       -0.061159052 0.1512646 -0.12580904 0.18992695
0001c0 bc eb d3 3d 80 c0 4e 3d 71 d0 f4 bc 19 d0 e2 3d
       0.10347697 0.05047655 -0.029884549 0.11074848
0001d0 f4 de 44 3e 4c 51 0c 3e 72 23 e2 bd eb eb 11 3e
       0.19225675 0.13702887 -0.11041917 0.14250152
0001e0 8a bd fc 3c 5d 03 4a 3c c6 ca 14 3e 8b 2b 32 bd
       0.030852098 0.012329903 0.14530477 -0.043498557
0001f0 6d 7b 6b bd 8c 34 42 be 76 bf 22 be c9 65 3a be
       -0.057490755 -0.18965358 -0.15893349 -0.1820289
000200 34 71 4e be df 2e 84 bd 10 6f a7 bd 41 af 7b 3d
       -0.20160371 -0.064542525 -0.0817548 0.061446432
000210 72 12 aa bd d9 77 2b 3e d2 86 46 3e 3f 66 c7 bd
       -0.083042994 0.16744937 0.19387367 -0.09736299
000220 b1 62 bc 3d 5b ea 3c be cc 01 31 be 33 b3 2e be
       0.091985114 -0.18448775 -0.17285842 -0.17060547
000230 12 d5 25 be 3f 28 03 3e 68 d7 87 ba 2b d4 a2 3d
       -0.16194561 0.12808321 -0.0010363879 0.07950624
000240 5a e5 03 3e 09 bd 3e 3e 7c 41 60 bd fc c1 46 be
       0.1288046 0.18626799 -0.05474995 -0.19409937
000250 aa b9 18 be 12 d1 a5 3d 48 61 33 be a8 3e d5 bd
       -0.14914575 0.080965176 -0.17517579 -0.10412341
000260 a2 76 d3 bd 81 76 07 3e 34 24 4e be 61 cd 74 bb
       -0.10325362 0.132288 -0.20130998 -0.003735386
000270 64 80 13 bd 9f c5 08 3c 9d f1 eb 3c ad 47 de bd
       -0.036011115 0.008347898 0.028801734 -0.10853515
000280 8e 27 f4 bd 10 2a f1 3d 6f fb 90 3c c1 40 04 3e
       -0.11921607 0.11775601 0.017698018 0.12915327
000290 a8 c9 8b bd 5b 9a f6 bd 72 0f 1b 3e e5 36 1a be
       -0.06825572 -0.1204116 0.1514261 -0.15060003
0002a0 2a 4e 31 be f6 0c 76 bd 2c 02 08 bc 4b 3c c0 3d
       -0.17314973 -0.060070954 -0.008301299 0.093865
0002b0 33 65 3e be 5e a9 01 3e fc 36 c0 ba 61 4c 1e 3e
       -0.18593292 0.12662265 -0.0014664824 0.15458824
0002c0 70 c3 c8 3d cf ee aa 3d b0 c7 7e 3d 41 48 a6 bb
       0.09802902 0.083463304 0.062202156 -0.0050745313
0002d0 57 92 3d 3d bf 83 b8 3d e2 f8 3e bd d9 b1 eb bd
       0.04628214 0.090095036 -0.046624072 -0.11508531
0002e0 2a de 64 3d ce f6 25 3e b3 5e 20 be e2 53 46 be
       0.055875935 0.1620743 -0.15661125 -0.19367936
0002f0 90 4e 50 be 2e e9 17 be db e6 c3 3b a3 3e 3c 3e
       -0.20342469 -0.14835045 0.005978448 0.18383269
000300 0f 6c 7f bd 43 92 49 3e 12 d4 29 be 00 6a 8b 3d
       -0.062358912 0.196847 -0.16584805 0.06807327
000310 2d fb 22 be 22 0c 0b 3e 4a 36 b9 3d fa 53 b9 3d
       -0.15916128 0.13578847 0.09043558 0.090492204
000320 0a 1c 80 bd a0 7b ed 3d af 21 08 3e 6c 23 4d 3e
       -0.06255348 0.11595845 0.132941 0.20033044
000330 8f 18 0e 3b b9 4f 60 bd f8 d0 ef bd 37 f3 39 3e
       0.0021682119 -0.05476353 -0.117097795 0.18159185
000340 5b b4 cd bb ee ac 60 3d 51 6f b9 3d 1e 10 de 3d
       -0.0062776036 0.05485242 0.09054435 0.10842918
000350 fa dd e2 3d 8c f0 10 3e 90 2b 81 bd 13 56 2a 3e
       0.11077495 0.14154261 -0.06307137 0.16634397
000360 36 dd 5e bd 4b 5f 40 be bf 68 50 3d 30 20 49 be
       -0.054410182 -0.18786351 0.050881144 -0.19641185
000370 c0 b3 90 3d ca df 0e 3e ef 31 37 ba 3a ab ab 3d
       0.070655346 0.13952556 -0.00069883367 0.08382268
000380 d4 be 40 be 6a 1d 00 be 35 91 b7 3d 2b 4b 19 3e
       -0.18822795 -0.1251122 0.08963243 0.1497008
000390 f2 e3 4c 3e 31 95 11 3e e5 76 39 be 07 da 9c bc
       0.20008829 0.14217068 -0.18111761 -0.019146932
0003a0 f9 f0 39 be 8d 95 25 be bc 93 05 3e 5f 57 c7 bd
       -0.1815833 -0.1617033 0.13044637 -0.097334616
0003b0 2a 4b 41 bd 28 de 83 bd ac 72 19 bd ca f4 46 be
       -0.047190823 -0.06438857 -0.037462875 -0.19429317
0003c0 73 7e 14 bd 4b 7d bb bd 8b 5b 14 bc 08 75 22 3e
       -0.036253404 -0.09154757 -0.009055029 0.15864956
0003d0 b0 c8 ef 3d e7 8a f8 3d c0 c1 10 3e f3 60 cc 3c
       0.117082 0.121358685 0.1413641 0.024948573
0003e0 56 9d f4 3d f7 95 c5 3c 7c 87 30 3e 03 ae 6e 3d
       0.11944072 0.02411936 0.17239183 0.05827142
0003f0 4d 5a 6c bd f3 c2 93 3d 51 e9 96 bd 19 dd f9 bd
       -0.057703305 0.07214918 -0.0736872 -0.12200374

linearx.bias f4 [24]
000000 92 7b 1b bd d8 b2 a2 bd 28 a9 0d be a4 2b 03 3e
       -0.037959643 -0.07944268 -0.13834059 0.12809616
000010 e8 9d be 3d 66 a8 78 3d 02 9f f3 bd 36 9d 33 3d
       0.09307462 0.060707472 -0.11895563 0.0438511
000020 10 83 38 be 8b 4f 57 bd 49 ee 28 be eb 96 a6 bd
       -0.18018746 -0.052566092 -0.16497149 -0.08134254
000030 bb 31 c9 bc 89 8b f1 bd b6 ac af bd 82 53 1a 3e
       -0.024559846 -0.11794192 -0.08577864 0.15070918
000040 3b c0 c1 3c 4b d7 4e be 77 8f 28 be 70 e1 33 bd
       0.023651233 -0.20199315 -0.16460977 -0.043916166
000050 22 7d 30 be 01 d5 3f 3d 43 9d 37 be d0 1f a2 3d
       -0.17235234 0.046833996 -0.17931084 0.07916224
