electricity_problem/saved_models/projectnet0.4_True.pt (torch, 65142 bytes, 6 tensors)

MM.weight f4 [576, 24]
0.071796544 -0.126656 0.09723594 -0.083948195 0.01720265 0.16353339 -0.1899167 -0.08543103
-0.13804682 -0.18809152 -0.011224624 -0.18716052 0.17178325 0.13144168 0.19734344 0.07215651
-0.1785813 -0.0015000826 -0.072263725 0.20800027 -0.07114325 0.106709495 -0.10948892 0.034728836
0.17445058 -0.026056157 0.14026296 -0.028901821 0.0119297085 -0.02411264 -0.13471007 0.110685036
0.0026224211 0.17798866 0.044921502 0.022696657 0.08094932 0.09897088 0.16111627 -0.07809504
-0.04173087 0.15076551 0.14516476 -0.040695425 -0.19940332 -0.09936516 0.018514343 0.19267048
-0.08478943 0.059422214 -0.0069273985 -0.051721606 -0.1449667 0.07936009 -0.12810694 0.07131675
-0.08306943 -0.14602852 -0.027866933 -0.117792346 0.07665172 0.18214087 -0.11914371 -0.06121025
0.0770946 0.076048315 -0.1279641 -0.17351231 0.13216832 -0.18490455 -0.11665129 -0.057051387
0.22909947 0.09591779 0.18463287 -0.14280325 -0.040877204 0.041167066 -0.037023105 -0.21719186
-0.18059106 0.1311163 0.011309443 0.13882902 0.18883277 0.058761925 0.0914254 -0.03810846
0.20623773 0.11040004 -0.0796436 -0.16453303 0.12048675 0.1810804 0.14827655 -0.1394181
0.05848343 -0.019651612 0.17034191 0.0994326 0.15225759 0.144779 -0.048638735 -0.12938707
-0.032479838 -0.19658689 0.13824625 -0.000999907 -0.046437606 -0.05517106 0.024759943 -0.08022121
0.171641 -0.112082034 -0.07600282 0.07449424 -0.055381186 0.104326785 -0.05046636 -0.1829941
0.010379311 0.16537572 0.07027478 -0.037591465 -0.12176674 -0.030658033 0.01372255 -0.1529239
-0.08592145 -0.0057989005 0.17954406 0.2083296 -0.06279369 -0.19608364 -0.038348924 -0.08609284
0.0130119305 -0.18983313 0.13932666 0.12020885 -0.19692332 -0.035106327 -0.17762952 -0.09730288
0.06833835 -0.081108846 0.16521193 0.18341625 0.09920505 -0.09864598 0.1277099 0.10562808
0.0707701 0.10714982 0.13953449 0.020599047 0.034398824 0.115340814 -0.19165097 -0.026189037
-0.102888696 0.09398203 -0.13637403 -0.08589364 -0.11604921 -0.02580924 0.19024071 -0.14609174
0.07953818 -0.15158081 0.17292424 -0.12370768 -0.014245469 0.0634829 -0.15595962 -0.01598843
-0.05697275 -0.10465002 0.121118754 0.16823877 -0.19330397 -0.19572781 -0.15850489 0.036705833
0.034461785 0.047511827 0.06485661 0.19020222 0.06368409 0.10430978 -0.12824123 -0.17832583
0.14051716 -0.068850845 -0.07297564 0.00042701207 -0.14802805 -0.04561463 0.11394067 0.08748451
0.08385632 0.13693316 0.12001959 0.03884599 0.20201214 0.16494162 0.18048409 -0.029919332
-0.027502608 0.14387605 -0.16891772 -0.05688138 -0.08167091 -0.14501658 0.011080903 0.075536765
0.113715865 -0.1303446 0.021829708 0.110140435 -0.03312965 0.14277942 -0.1650472 0.056718677
0.0875819 0.1445241 -0.07586695 -0.041650467 0.08921247 -0.07598339 0.04346952 0.12382235
0.11245198 -0.15713699 -0.13837452 0.12932 -0.15345468 0.074110806 -0.13594587 -0.18356542
0.1959316 0.07589389 -0.054937106 0.103037365 0.17584428 0.047138233 -0.097131245 0.03108341
-0.1744026 0.04053159 0.05419666 -0.17283346 0.1882709 -0.03223936 0.0963799 -0.019499663
00000000: 110a 933d 1cb2 01be a323 c73d 08ed abbd
00000010: 92ec 8c3c 4c75 273e 8679 42be 77f6 aebd
00000020: 255c 0dbe 109b 40be 7ce7 37bc 02a7 3fbe
00000030: f3e7 2f3e a698 063e 6614 4a3e cbc6 933d
00000040: 04de 36be 6b9e c4ba 01ff 93bd 06fe 543e
00000050: 8db3 91bd 828a da3d ba3b e0bd d33f 0e3d
00000060: 2ca3 323e b973 d5bc 18a1 0f3e 83c3 ecbc
00000070: d374 433c df87 c5bc 70f1 09be d6ae e23d
00000080: eddc 2b3b a942 363e 9cff 373d 57ee b93c
00000090: c2c8 a53d 3fb1 ca3d aafb 243e 4bf0 9fbd
000000a0: fded 2abd 4662 1a3e 12a6 143e 3fb0 26bd
000000b0: 6230 4cbe f67f cbbd 64ab 973c 694b 453e
000000c0: 15a6 adbd b564 733d 3bff e2bb 09da 53bd
000000d0: 2772 14be 8b87 a23d 772e 03be 840e 923d
000000e0: 4e20 aabd 8088 15be 3249 e4bc 1d3d f1bd
000000f0: 94fb 9c3d 2383 3a3e 9e01 f4bd 99b7 7abd
00000100: c6e3 9d3d 38bf 9b3d 0509 03be 36ad 31be
00000110: 2257 073e 9e57 3dbe dfe6 eebd b7ae 69bd
00000120: 0d99 6a3e 8c70 c43d 6610 3d3e 043b 12be
00000130: db6e 27bd cc9e 283d 8aa5 17bd 8b67 5ebe
00000140: ddec 38be 5a43 063e 3e4b 393c 3229 0e3e
00000150: 615d 413e 58b0 703d 3d3d bb3d 9e17 1cbd
00000160: fc2f 533e 6b19 e23d 2f1c a3bd 597b 28be
00000170: c2c1 f63d 246d 393e cfd5 173e 9ec3 0ebe
00000180: 528c 6f3d 6bfc a0bc 1c6e 2e3e 52a3 cb3d
00000190: 6ae9 1b3e f240 143e 6939 47bd 0b7e 04be
000001a0: 9409 05bd 134e 49be 6d90 0d3e 500f 83ba
000001b0: 5c35 3ebd 0dfb 61bd 5dd5 ca3c 054b a4bd
000001c0: a9c2 2f3e 448b e5bd 5ea7 9bbd 7090 983d
000001d0: 62d7 62bd 48a9 d53d d0b5 4ebd ce62 3bbe
000001e0: fc0d 2a3c 4158 293e 39ec 8f3d 82f9 19bd
000001f0: d760 f9bd 8e26 fbbc 8cd4 603c 1598 1cbe
00000200: 96f7 afbd b404 bebb 66da 373e 5b54 553e
00000210: fa99 80bd 26ca 48be c313 1dbd 7151 b0bd
00000220: fe2f 553c 9e63 42be a6ab 0e3e 0f30 f63d
00000230: 44a6 49be a7cb 0fbd 83e4 35be bb46 c7bd
00000240: faf4 8b3d 651c a6bd 512d 293e 78d1 3b3e
00000250: 042c cb3d e706 cabd 62c6 023e 8953 d83d
00000260: eaef 903d 5d71 db3d 21e2 0e3e 55bf a83c
00000270: c8e5 0c3d ce37 ec3d 2740 44be 648a d6bc
00000280: 4fb7 d2bd a779 c03d a2a5 0bbe 01e9 afbd
00000290: 35ab edbd e66d d3bc 76ce 423e 1399 15be
000002a0: eae4 a23d 0038 1bbe 0d13 313e 745a fdbd
000002b0: d465 69bc 5303 823d e1b3 1fbe 2bfa 82bc
000002c0: 425c 69bd c052 d6bd 1c0d f83d c946 2c3e
000002d0: 7af1 45be df6c 48be 1b4f 22be db58 163d
000002e0: cd27 0d3d c39b 423d 8bd3 843d 5fc4 423e
000002f0: ce6c 823d 5ea0 d53d ab51 03be 0c9b 36be
00000300: bbe3 0f3e ac01 8dbd 4174 95bd 97e0 df39
00000310: aa94 17be 68d6 3abd ba59 e93d 142b b33d
00000320: ddbc ab3d 3538 0c3e d5cc f53d f91c 1f3d
00000330: 45dc 4e3e 75e6 283e d2d0 383e 6319 f5bc
00000340: 264d e1bc 3e54 133e c4f8 2cbe 73fc 68bd
00000350: 1443 a7bd 3a7f 14be ad8c 353c 05b3 9a3d
00000360: dde3 e83d 0e79 05be 37d4 b23c 4f91 e13d
00000370: f5b2 07bd c534 123e 2202 29be d851 683d
00000380: 245e b33d 20fe 133e 2260 9bbd ae99 2abd
00000390: 07b5 b63d 2e9d 9bbd 180d 323d 9296 fd3d
000003a0: 394d e63d 85e8 20be 0db2 0dbe 766c 043e
000003b0: 3923 1dbe 68c7 973d 6535 0bbe 93f8 3bbe
000003c0: 4ba2 483e 416e 9b3d bb05 61bd 4105 d33d
000003d0: 8610 343e 0514 413d bfec c6bd a3a2 fe3c
000003e0: 9896 32be 7404 263d 51fd 5d3d 41fb 30be
000003f0: 16ca 403e 6b0d 04bd d362 c53d c2bd 9fbc

MM.bias f4 [576]
0.0017746761 -0.016462129 -0.03289393 -0.14856073 -0.19985753 -0.17265809 0.06282775 -0.104962125
0.09604009 0.08217019 0.15106024 -0.17374332 0.1014648 -0.14795424 -0.15738885 0.11284723
-0.25898543 -0.17448457 0.0076382635 0.14300904 0.1347857 0.08955042 -0.13410296 -0.043881655
-0.03844702 -0.05643394 0.089172624 -0.019987186 0.0033059595 0.0006002748 0.12776844 -0.2008828
-0.07520814 0.043978002 -0.08923036 0.12594411 -0.0031995021 0.0055429456 -0.0930033 0.12733781
-0.080031574 0.051448766 0.103232294 0.11370522 0.007976331 0.045245208 -0.14590003 -0.033556957
-0.14550291 0.12949522 -0.0067851683 -0.053358886 -0.1294021 -0.055605866 0.010709135 0.0017204254
-0.06543118 -0.12099437 -0.09068935 -0.023307567 0.09056839 0.058727123 0.11381354 0.12386689
-0.18484162 0.06739925 0.079996586 0.044620167 0.09928816 0.00013787225 0.10018927 -0.006072965
-0.2209407 0.08759033 -0.041169878 0.013001086 -0.030902687 -0.19147103 -0.028733497 -0.04970452
-0.14739704 0.095821895 0.031870767 -0.12908435 0.17004083 0.068292364 0.040587 -0.20119564
0.058219604 0.13588457 0.07259385 0.07269428 -0.09220499 0.021121468 -0.06051677 0.16769189
-0.04927798 -0.0012811797 0.18141942 -0.12916869 0.014958963 0.06671817 0.04917914 0.12747039
0.15244311 -0.14378045 -0.17877382 0.15241216 -0.051288377 0.0804623 -0.19371401 -0.044991866
-0.04442586 -0.053818595 -0.086710036 -0.10748318 -0.046420023 -0.025578935 0.106884524 -0.007573793
0.17360525 0.08668876 0.17063184 0.11070518 0.16365981 0.14003989 -0.13057166 -0.14981592
0.13368106 0.004363622 0.15827176 -0.118066125 -0.061331343 -0.14164408 -0.07963955 0.07201926
0.031980377 0.072245754 0.06013814 0.17786175 -0.07973762 0.12182193 -0.13908969 0.13556726
0.014469709 0.1312843 -0.19991775 -0.1427527 -0.071331486 -0.18121384 -0.051217392 0.11942561
0.006163279 -0.10901479 -0.1533454 -0.14163108 -0.0979254 0.08596962 0.12737931 -0.059543256
0.061179075 -0.09887149 0.04662054 -0.013366691 -0.10421212 0.12495953 0.16520566 -0.12208172
0.053887125 -0.086177446 0.10118393 0.06125949 -0.19066606 0.093192935 0.065275595 -0.19292265
0.15686381 -0.042071156 -0.12567838 0.050365478 -0.012338497 -0.018900888 -0.16525356 0.15566021
0.11496065 -0.15147293 0.12658428 0.035596263 0.13751905 -0.20232685 -0.14242825 -0.025600947
-0.16423245 -0.114360854 -0.029186923 -0.15859815 -0.25460172 0.093895465 0.07351038 0.13445294
0.10880226 0.10081507 -0.21294591 0.09135672 0.07352372 -0.0535857 -0.19808814 -0.2446876
0.056488555 -0.12873788 0.08829077 0.015789209 -0.077860236 0.05538011 -0.0059936736 -0.1999805
-0.032064483 -0.03897521 -0.13658415 -0.0012109277 0.080359824 0.0773701 -0.1374188 0.0578704
0.07425415 -0.048919767 0.1565632 -0.077561095 -0.005015436 -0.0468358 0.026999226 -0.06563201
-0.09318471 0.06899081 0.12633687 -0.14838184 -0.06329898 -0.14629722 -0.034271583 -0.17611776
-0.20136864 -0.16339369 -0.13785566 -0.096754715 0.0012595045 0.1428709 -0.21495885 -0.11605792
0.06049288 0.017131783 0.1645189 0.16249178 -0.0025576078 0.14250204 0.14614451 0.1559604
00000000: 409c e83a 96db 86bc c9bb 06bd 4e20 18be
00000010: 74a7 4cbe 48cd 30be d6ab 803d 62f6 d6bd
00000020: abb0 c43d d848 a83d 89af 1a3e c5e9 31be
00000030: c7cc cf3d 5181 17be 8b2a 21be 731c e73d
00000040: bd99 84be 15ac 32be 664a fa3b f670 123e
00000050: 4305 0a3e 3666 b73d 4952 09be 40bd 33bd
00000060: 9f7a 1dbd 4627 67bd 23a0 b63d 2bbc a3bc
00000070: cca8 583b c35b 1d3a bbd5 023e 39b4 4dbe
00000080: ba06 9abd 4722 343d 68be b6bd 7ef7 003e
00000090: bdae 51bb 99a1 b53b 8478 bebd d864 023e
000000a0: 98e7 a3bd f1bb 523d 746b d33d 48de e83d
000000b0: 28af 023c 0a53 393d d166 15be 0573 09bd
000000c0: b7fe 14be 659a 043e 1e56 debb d98e 5abd
000000d0: fc81 04be fac2 63bd 5e75 2f3c e67f e13a
000000e0: c800 86bd e5cb f7bd 57bb b9bd 83ef bebc
000000f0: ec7b b93d da8b 703d 1317 e93d edad fd3d
00000100: 1f47 3dbe 9e08 8a3d 40d5 a33d a3c3 363d
00000110: 9757 cb3d cd91 1039 0830 cd3d b9ff c6bb
00000120: 473e 62be 8f62 b33d bfa1 28bd 8202 553c
00000130: a227 fdbc fb10 44be 8362 ebbc f796 4bbd
00000140: 40ef 16be 453e c43d ec8a 023d b02e 04be
00000150: 2f1f 2e3e dedc 8b3d 8e3e 263d 3b06 4ebe
00000160: ae77 6e3d 5325 0b3e 16ac 943d bde0 943d
00000170: f8d5 bcbd ee06 ad3c 6fe0 77bd 6cb7 2b3e
00000180: b5d7 49bd 42ed a7ba 03c6 393e cc44 04be
00000190: 7016 753c 89a3 883d 1170 493d 9987 023e
000001a0: 0c1a 1c3e 2f3b 13be 7c10 37be ef11 1c3e
000001b0: c313 52bd 6bc9 a43d f75c 46be 6449 38bd
000001c0: e4f7 35bd e370 5cbd 0895 b1bd 2420 dcbd
000001d0: ec22 3ebd ea8a d1bc 46e6 da3d 952d f8bb
000001e0: 93c5 313e e089 b13d 1dba 2e3e 66b9 e23d
000001f0: 7096 273e 9e66 0f3e 94b4 05be 5869 19be
00000200: b0e3 083e b7fc 8e3b fe11 223e a7cc f1bd
00000210: 9336 7bbd 250b 11be 0f1a a3bd d57e 933d
00000220: dbfd 023d 95f5 933d 6953 763d 6421 363e
00000230: 7a4d a3bd c77d f93d 876d 0ebe 25d2 0a3e
00000240: 5c12 6d3c 646f 063e 3db7 4cbe c42d 12be
00000250: 3e16 92bd 1f90 39be 54c9 51bd 6a95 f43d
00000260: 55f5 c93b 2543 dfbd 9406 1dbe bd07 11be
00000270: 1d8d c8bd d710 b03d b96f 023e a1e3 73bd
00000280: e996 7a3d 237d cabd 2ef5 3e3d f7ff 5abc
00000290: 2a6d d5bd c8ea ff3d ac2b 293e fb05 fabd
000002a0: bfb8 5c3d cd7d b0bd 8539 cf3d 3beb 7a3d
000002b0: f73d 43be f0db be3d 36af 853d 848d 45be
000002c0: e8a0 203e ce52 2cbd d5b1 00be 084c 4e3d
000002d0: 6827 4abc 09d6 9abc 3b38 29be 6465 1f3e
000002e0: 7d70 eb3d b81b 1bbe 4f9f 013e 63cd 113d
000002f0: cbd1 0c3e c52e 4fbe b6d8 11be 14b9 d1bc
00000300: 8d2c 28be 0636 eabd 6a19 efbc 8e67 22be
00000310: 285b 82be 444c c03d 9c8c 963d 08ae 093e
00000320: b8d3 de3d 2278 ce3d 7e0e 5abe 3b19 bb3d
00000330: 9b93 963d ae7c 5bbd 9ed7 4abe 638f 7abe
00000340: 8b60 673d ddd3 03be cbd1 b43d 5f58 813c
00000350: 3075 9fbd 41d6 623d 9466 c4bb b0c7 4cbe
00000360: 0c56 03bd 78a4 1fbd b7dc 0bbe feb7 9eba
00000370: b193 a43d 3774 9e3d 84b7 0cbe 8309 6d3d
00000380: 8f12 983d 1860 48bd 1a52 203e 5ad8 9ebd
00000390: 8758 a4bb e5d6 3fbd 7b2d dd3c 136a 86bd
000003a0: a0d7 bebd 0e4b 8d3d 745e 013e 69f1 17be
000003b0: e5a2 81bd f0ce 15be 5c60 0cbd 3758 34be
000003c0: 9533 4ebe ad50 27be 092a 0dbe 5627 c6bd
000003d0: f515 a53a c04c 123e 2c1e 5cbe c6af edbd
000003e0: 62c7 773d f457 8c3c a477 283e 3f64 263e
000003f0: 8a9d 27bb 0eec 113e e8a6 153e 15b4 1f3e

linear.weight f4 [24, 24]
-0.07522566 -0.10530758 -0.17106155 -0.09990245 0.17019066 0.081825614 0.035151415 0.086442135
0.046603754 0.0053039235 -0.14565486 -0.14072165 0.11038513 0.1139904 0.029462192 -0.1626028
-0.19736771 0.0934486 0.03081134 0.13683178 -0.15361424 -0.07429476 0.027245047 0.170202
-0.101632714 -0.101912595 0.022986928 -0.053919815 -0.024394816 0.12610157 0.008988307 -0.010593684
0.073451534 0.047500808 -0.18405718 -0.17979854 0.10614229 0.10274743 0.15029328 -0.18093467
0.0022026435 -0.081387 0.08175317 0.0941178 0.058373135 0.09636541 0.18162309 0.15320945
-0.12194831 -0.14662138 0.019452512 -0.20236248 -0.14398691 0.08352333 0.12246184 0.0075625097
0.12461553 0.08955408 0.011482052 0.19529003 0.13835293 0.19626255 -0.0061975466 0.12980683
0.10074461 0.14659478 -0.12759504 -0.033832002 0.16630162 -0.19007139 -0.17988543 0.14067264
-0.16349031 -0.05209244 0.10221796 0.03452913 0.17177863 0.13609286 0.17267413 0.17262344
0.17946233 0.040429518 0.005712434 0.108211905 0.0048720036 0.19978064 -0.03228461 0.14284949
-0.095291935 -0.17405078 0.19902618 -0.06799822 -0.19236606 -0.20092055 -0.11090319 -0.15917474
0.104178846 0.12605439 -0.15374827 -0.03692496 0.053654555 -0.075077176 -0.08490292 0.19732915
-0.1310612 -0.13561456 0.1099891 -0.12017666 0.15938118 0.07975982 0.17467977 -0.18691169
-0.07286522 -0.08889605 0.109457485 -0.091050364 0.026505064 -0.0904577 0.1414161 -0.19474748
-0.066098705 0.19040322 0.1787447 -0.028962772 0.028411692 0.142828 -0.049728587 0.19368808
0.04913288 -0.18506694 0.010429749 -0.1746368 -0.04135278 0.100341775 -0.023440408 0.1988835
0.14962561 0.048232444 -0.044868752 -0.17394076 0.09960512 -0.12612635 0.06524547 0.18875903
0.18260393 0.0051054107 -0.08792344 0.031352807 -0.101782754 0.11044217 0.029382356 -0.10809907
-0.11986254 0.14230339 0.1425268 -0.12301402 0.027616497 0.023477029 -0.0003778262 -0.19952315
0.039880823 0.00314581 0.09489433 -0.06342526 0.021004478 -0.007636459 0.14750849 0.06333539
-0.025720894 0.09798458 -0.1820156 0.11366088 -0.0059867944 0.10473117 -0.13088809 0.0007986496
0.1762286 0.13731168 0.10586543 0.033875536 0.078395806 0.10454492 -0.16261472 0.05574558
0.19220357 0.17588066 -0.114029974 0.12437974 -0.047791984 0.08093829 -0.03235508 0.08479352
0.12827668 0.12958083 -0.07893876 -0.11737106 -0.124865845 -0.0056307707 -0.020950628 -0.15303771
0.11558274 -0.08758228 0.0326949 0.07701855 -0.05693162 0.12836476 0.07479907 0.013673697
0.1387056 -0.17913762 -0.05359888 0.027751355 -0.008962075 0.16538066 -0.10204996 -0.1281818
0.15084703 -0.14944713 0.19628331 -0.15209612 0.17639002 -0.1901844 0.110865615 -0.12044348
-0.0066718063 0.042818338 -0.15113887 0.058819704 -0.19939834 -0.058761764 0.1387548 -0.08278211
-0.074176356 -0.20160164 -0.13554698 -0.062452354 0.1874981 -0.08044067 -0.12487115 0.13555612
-0.0065904595 0.015563947 -0.09135595 -0.008899805 -0.019623382 0.02067561 0.10017808 -0.024713438
0.13252676 0.16357146 0.073619284 -0.081490174 0.20162219 0.12002414 -0.11258461 0.104948126
00000000: e90f 9abd 80ab d7bd c22a 2fbe a899 ccbd
00000010: 7646 2e3e 3094 a73d eefa 0f3d 9308 b13d
00000020: 94e3 3e3d 89cc ad3b 8c26 15be 5619 10be
00000030: 9911 e23d cd73 e93d b25a f13c 5981 26be
00000040: c31a 4abe fb61 bf3d 1068 fc3c a11d 0c3e
00000050: 0d4d 1dbe da27 98bd 0131 df3c 6f49 2e3e
00000060: d024 d0bd 8db7 d0bd 154f bc3c 06db 5cbd
00000070: a3d7 c7bc c520 013e b143 133c 2291 2dbc
00000080: c26d 963d 3590 423d 7c79 3cbe 1c1d 38be
00000090: 2161 d93d 3f6d d23d 7be6 193e f046 39be
000000a0: 3a5a 103b 3aae a6bd 356e a73d d5c0 c03d
000000b0: ab18 6f3d 3a5b c53d 67fb 393e f0e2 1c3e
000000c0: 09c0 f9bd ea23 16be e05a 9f3c 1c38 4fbe
000000d0: 4e71 13be 480e ab3d 46cd fa3d eece f73b
000000e0: 6d36 ff3d 2168 b73d 371f 3c3c 1cfa 473e
000000f0: 64ac 0d3e 0df9 483e ca14 cbbb 15ec 043e
00000100: 3153 ce3d f11c 163e 46a8 02be 6d93 0abd
00000110: f94a 2a3e 13a2 42be e333 38be 7d0c 103e
00000120: 016a 27be e25e 55bd a657 d13d 6b6e 0d3d
00000130: bde6 2f3e ed5b 0b3e 7dd1 303e 33c4 303e
00000140: f9c4 373e 6c99 253d 5f2f bb3b 349e dd3d
00000150: 54a5 9f3b 4c93 4c3e de3c 04bd 2347 123e
00000160: 6b28 c3bd 5e3a 32be 85cd 4b3e a742 8bbd
00000170: 9cfb 44be 1ebe 4dbe 3621 e3bd b4fe 22be
00000180: b85b d53d 6714 013e 3070 1dbe a03e 17bd
00000190: e1c4 5b3d 10c2 99bd 95e1 adbd a710 4a3e
000001a0: e834 06be 8bde 0abe f741 e13d 2e1f f6bd
000001b0: d234 233e 1e59 a33d 41df 323e c765 3fbe
000001c0: 5c3a 95bd 220f b6bd 3f2b e03d 9d78 babd
000001d0: 2621 d93c e341 b9bd 62cf 103e e26b 47be
000001e0: c25e 87bd 10f9 423e da08 373e 5643 edbc
000001f0: a3bf e83c 8141 123e 34b0 4bbd 2b56 463e
00000200: 8f3f 493d 3082 3dbe 8ae1 2a3c fdd3 32be
00000210: 8861 29bd fd7f cd3d 1906 c0bc 1ea8 4b3e
00000220: 7537 193e 628f 453d 4cc8 37bd 871d 32be
00000230: c5fd cb3d 4427 01be 6b9f 853d 0c4a 413e
00000240: 86fc 3a3e 4a4b a73b 3411 b4bd cd6b 003d
00000250: 7a73 d0bd 812f e23d 44b3 f03c 0c63 ddbd
00000260: 7e7a f5bd fbb7 113e 8cf2 113e c6ee fbbd
00000270: fe3b e23c e652 c03c f916 c6b9 cc4f 4cbe
00000280: 135a 233d ef29 4e3b f557 c23d 1ae5 81bd
00000290: 9511 ac3c 433b fabb 770c 173e fcb5 813d
000002a0: a0b4 d2bc 24ac c83d 4c62 3abe 09c7 e83d
000002b0: df2c c4bb 4c7d d63d 8707 06be 785c 513a
000002c0: 4575 343e 6f9b 0c3e f9cf d83d 13c1 0a3d
000002d0: fb8d a03d a61b d63d 7984 26be 7a55 643d
000002e0: 03d1 443e 0f1a 343e 8c88 e9bd ceba fe3d
000002f0: 87c1 43bd f9c2 a53d c386 04bd 3aa8 ad3d
00000300: f65a 033e d6b0 043e a5aa a1bd 3d60 f0bd
00000310: aab9 ffbd 5482 b8bb a7a0 abbc ebb5 1cbe
00000320: a5b6 ec3d 575e b3bd 16eb 053d e7bb 9d3d
00000330: 2131 69bd 0d72 033e 4130 993d a407 603c
00000340: d708 0e3e da6f 37be 808a 5bbd cf56 e33c
00000350: abd5 12bc 8c59 293e 92ff d0bd 1742 03be
00000360: a577 1a3e ab08 19be 7efe 483e 16bf 1bbe
00000370: 969f 343e b3bf 42be 830d e33d 12ab f6bd
00000380: 2b9f dabb 4862 2f3d 26c4 1abe eeec 703d
00000390: 142f 4cbe 2db0 70bd bd15 0e3e ab89 a9bd
000003a0: c6e9 97bd a970 4ebe d4cc 0abe 0ace 7fbd
000003b0: 80ff 3f3e 14be a4bd 72bc ffbd 39cf 0a3e
000003c0: c8f4 d7bb edff 7e3c d418 bbbd 7dd0 11bc
000003d0: 37c1 a0bc e65f a93c 2a2a cd3d d673 cabc
000003e0: 18b5 073e 477f 273e b5c5 963d 52e4 a6bd
000003f0: 0c76 4e3e 37cf f53d c392 e6bd 0bef d63d

linear.bias f4 [24]
0.044217028 0.1768542 0.14050564 0.1995899 0.1312796 -0.1776398 -0.10364558 -0.021717012
-0.10188291 0.008881141 0.18967772 0.018849164 0.076006815 0.171977 -0.06344083 -0.18083017
-0.042388316 0.11012155 -0.12888971 -0.0444901 0.14626662 0.029797971 -0.02139615 0.105117634
00000000: ea1c 353d 4419 353e b6e0 0f3e 4b61 4c3e
00000010: 296e 063e 35e7 35be 2244 d4bd e0e7 b1bc
00000020: fda7 d0bd 3582 113c e03a 423e 9069 9a3c
00000030: 76a9 9b3d bd1a 303e 44ed 81bd 8b2b 39be
00000040: 5f9f 2dbd 6887 e13d aafb 03be 403b 36bd
00000050: ebc6 153e e01a f43c fb46 afbc ea47 d73d

linearx.weight f4 [24, 24]
-0.12372018 0.09394133 0.19709674 0.15653141 -0.035692323 0.07193368 -0.01907437 -0.083703086
-0.06746856 -0.11809187 -0.11352403 -0.062375605 0.12964599 -0.15745394 0.008620092 0.068567336
-0.08424565 0.14086826 0.1934664 0.14479877 -0.09299654 0.13189934 -0.132094 0.036732312
0.012450087 0.1097037 0.20074189 0.10036786 -0.1474819 0.14497653 -0.18627205 -0.068882555
-0.045760356 0.040816348 -0.110616565 0.11643069 0.08647409 0.11213023 0.16545825 0.1298084
0.15386638 -0.011619438 -0.19783205 0.09235856 0.048827518 0.1651 -0.12337739 0.15714751
0.0024189197 0.077297024 -0.008235842 0.16007236 -0.052622523 -0.016311666 0.20395698 -0.066511154
0.02547245 0.027985783 0.059021402 -0.020372124 0.01850701 -0.12692869 -0.19856103 -0.20086765
-0.12686291 0.09669685 -0.023525307 0.17409976 -0.13805689 -0.15668832 -0.08508063 0.105576925
0.16479193 0.062680066 0.031251166 -0.14045566 0.053372066 -0.14342324 0.02238044 -0.17633538
0.10899174 0.124527976 0.04064229 0.08156863 -0.002374073 -0.036770273 0.07742651 -0.10083851
0.067075714 0.058390096 -0.1529594 0.16324106 0.11260945 -0.045399465 0.17889267 0.12116813
0.09266453 -0.15376897 0.11552928 0.15852708 0.09512907 -0.18764707 -0.11789447 -0.06452257
-0.20328927 -0.09588911 0.088943474 0.05293606 -0.11160521 0.15371348 0.0353307 -0.13654885
0.08217397 -0.03741954 -0.05992442 -0.04339755 -0.047743753 0.046687897 -0.04355917 0.19751109
-0.192879 0.049629524 0.0689284 -0.0609812 0.023332756 0.07201695 0.016584566 0.026461653
-0.058839586 0.18111792 -0.17333871 -0.18695308 -0.13929787 0.089647904 0.14457119 0.036509853
-0.07232652 -0.15196599 0.024623867 0.07029176 -0.20092794 0.043151513 0.013007859 -0.08186272
0.03515869 0.17468147 0.17885533 0.18176019 -0.1073594 -0.060381256 0.029767627 0.043815523
-0.15562855 -0.101360515 0.20024575 0.07780662 0.106779195 -0.18429564 0.08766329 0.12189741
0.013327017 -0.027605085 -0.19551058 0.1491963 -0.052687176 -0.005523606 -0.14019515 0.030966733
-0.11488902 -0.02713888 -0.0554655 0.03646311 0.18806629 -0.017679963 0.011993031 0.17027771
0.03912495 -0.20087104 -0.027497506 -0.011623259 0.010372299 -0.13787763 0.107287645 -0.03581774
0.17622142 0.010368162 -0.040726874 0.116086245 -0.15161234 0.120557405 0.11385255 0.15850098
-0.18752083 -0.019107146 0.15318894 -0.15678127 -0.11543304 0.016295558 -0.012123045 0.12252204
-0.06457538 -0.14452493 0.06748498 -0.017314425 0.18128344 0.044712212 -0.012276492 -0.026272316
0.09478507 0.18375875 0.048470717 -0.118584715 0.15707032 0.018725257 -0.11464578 0.12539276
0.040097732 0.11893212 0.031567212 -0.085180104 0.080199085 -0.19120055 0.19584599 -0.0292684
0.1555487 -0.16297446 0.08301426 0.109799735 -0.077892855 0.059062697 -0.0064767734 0.08011538
-0.0036582004 0.086526796 0.102641776 0.162664 -0.100433946 0.1542137 -0.07808996 0.15423883
-0.06980078 -0.12129016 -0.13742091 -0.022913806 0.10945625 -0.096028395 -0.10044273 0.1737823
-0.16316186 -0.093343675 0.12936416 -0.015094141 -0.16807094 0.19151483 0.0071918373 0.04911137
00000000: 0161 fdbd 5064 c03d bad3 493e c549 203e
00000010: 1d32 12bd f751 933d da41 9cbc 866c abbd
00000020: f52c 8abd 26da f1bd 497f e8bd 907d 7fbd
00000030: ebc1 043e 9b3b 21be 493b 0d3c 086d 8c3d
00000040: fc88 acbd c53f 103e 0e1c 463e 2146 143e
00000050: f874 bebd 9f10 073e a643 07be 9f74 163d
00000060: 73fb 4b3c 55ac e03d 488f 4d3e aa8d cd3d
00000070: 7f05 17be ba74 143e 1abe 3ebe 4c12 8dbd
00000080: 366f 3bbd 0b2f 273d f08a e2bd 3773 ee3d
00000090: 5419 b13d 89a4 e53d e36d 293e 7eec 043e
000000a0: 268f 1d3e 755f 3ebc 7c94 4abe 7c26 bd3d
000000b0: 5dff 473d f90f 293e 49ad fcbd 47eb 203e
000000c0: bd86 1e3b e74d 9e3d a0ef 06bc 02ea 233e
000000d0: b78a 57bd 0ba0 85bc 19da 503e 0037 88bd
000000e0: 99ab d03c 7142 e53c 6dc0 713d 71e3 a6bc
000000f0: 039c 973c 98f9 01be 9553 4bbe 40b0 4dbe
00000100: 5ae8 01be 0009 c63d 25b8 c0bc 3547 323e
00000110: c95e 0dbe e772 20be c13e aebd b738 d83d
00000120: 37bf 283e 685e 803d 3901 003d 9cd3 0fbe
00000130: ab9c 5a3d 8bdd 12be 2f57 b73c 4391 34be
00000140: 1037 df3d 8608 ff3d 8878 263d 740d a73d
00000150: 5696 1bbb 6d9c 16bd ca91 9e3d 6c84 cebd
00000160: fe5e 893d 742a 6f3d 64a1 1cbe aa28 273e
00000170: c99f e63d caf4 39bd a42f 373e ff26 f83d
00000180: e7c6 bd3d 9d75 1dbe 9d9a ec3d ec54 223e
00000190: 08d3 c23d 8e26 40be a872 f1bd 6924 84bd
000001a0: 102b 50be 8261 c4bd ff27 b63d 7bd3 583d
000001b0: 4691 e4bd 1167 1d3e edb6 103d 76d3 0bbe
000001c0: d44a a83d 3b45 19bd 4f73 75bd a1c1 31bd
000001d0: f48e 43bd cf3b 3f3d 1a6b 32bd 5940 4a3e
000001e0: 1382 45be 5448 4b3d 552a 8d3d 6cc7 79bd
000001f0: 5624 bf3c 9f7d 933d 5bdc 873c 1cc6 d83c
00000200: c701 71bd fa76 393e b47f 31be a170 3fbe
00000210: 1aa4 0ebe 5299 b73d 780a 143e 5b8b 153d
00000220: ed1f 94bd f99c 1bbe feb7 c93c 20f5 8f3d
00000230: 0ec0 4dbe a4bf 303d ea1e 553c a4a7 a7bd
00000240: 8f02 103d b3df 323e da25 373e 581f 3a3e
00000250: 3fdf dbbd 5652 77bd 3ddb f33c e877 333d
00000260: 175d 1fbe 1a96 cfbd 390d 4d3e 1459 9f3d
00000270: 0daf da3d ffb7 3cbe d088 b33d 59a5 f93d
00000280: 9059 5a3c 0f24 e2bc ed33 48be eac6 183e
00000290: 82ce 57bd 5eff b4bb 518f 0fbe f2ad fd3c
000002a0: ef4a ebbd 5b52 debc cb2f 63bd 585a 153d
000002b0: 7394 403e 92d5 90bc 6b7e 443c 485d 2e3e
000002c0: 7c41 203d 23b1 4dbe 7342 e1bc 7b6f 3ebc
000002d0: 93f0 293c cb2f 0dbe a0b9 db3d 9fb5 12bd
000002e0: 6373 343e 39df 293c 39d1 26bd a0be ed3d
000002f0: 4440 1bbe cde6 f63d 872b e93d 154e 223e
00000300: 7605 40be 9786 9cbc 90dd 1c3e 458b 20be
00000310: 2868 ecbd 437e 853c bc9f 46bc d6ec fa3d
00000320: 1940 84bd 58fe 13be 9135 8a3d fbd6 8dbc
00000330: 5ea2 393e 2724 373d 5723 49bc 0a39 d7bc
00000340: ad1e c23d 412b 3c3e 3b89 463d 8bdc f2bd
00000350: 0bd7 203e b665 993c 68cb eabd f666 003e
00000360: 853d 243d af92 f33d 9f4c 013d e872 aebd
00000370: 6b3f a43d 14ca 43be da8b 483e 49c4 efbc
00000380: 2948 1f3e c7e2 26be 6103 aa3d afde e03d
00000390: 4a86 9fbd baeb 713d 1d3b d4bb 8813 a43d
000003a0: 6bbe 6fbb f634 b13d da35 d23d 6491 263e
000003b0: 50b0 cdbd 32ea 1d3e a1ed 9fbd c9f0 1d3e
000003c0: b6f3 8ebd fa66 f8bd 11b8 0cbe bcb5 bbbc
000003d0: 992a e03d 89aa c4bd ebb4 cdbd fdf3 313e
000003e0: e713 27be f82a bfbd 0a78 043e 6a4d 77bc
000003f0: ca1a 2cbe 771c 443e 81a9 eb3b 0129 493d

linearx.bias f4 [24]
-0.18175608 -0.16307817 -0.020463618 0.09930056 0.020452108 0.016436838 -0.028019704 0.17995405
-0.10243097 0.040766098 0.16257674 -0.16553023 0.06376006 0.07233105 -0.060943775 0.006828295
0.02869401 -0.16063409 0.13029538 0.069207914 -0.046695273 0.111094594 0.0061985687 -0.15083952
00000000: 441e 3abe f7fd 26be 51a3 a7bc 185e cb3d
00000010: 2e8b a73c 8ca6 863c 9489 e5bc e045 383e
00000020: 54c7 d1bd 5afa 263d 847a 263e c280 29be
00000030: a294 823d 4d22 943d 2ea0 79bd e4bf df3b
00000040: b30f eb3c 437d 24be 276c 053e e1bc 8d3d
00000050: 8b43 3fbd 9085 e33d 5d1d cb3b ad75 1abe
