electricity_problem/saved_models/projectnet0.4_False.pt (torch, 65152 bytes, 6 tensors)

MM.weight f4 [576, 24]
-0.19496578 0.124515444 -0.0058271666 -0.19569245 -0.16263914 0.1353696 0.04154779 -0.026771517
0.10427623 0.10641794 0.04726779 0.13548712 0.033940237 -0.03732561 -0.18078125 0.043897502
0.17862618 0.0073986477 0.008642844 -0.05913516 -0.0242046 -0.16286634 -0.13788614 -0.035269916
0.18554762 -0.04360706 -0.12496228 -0.15299048 -0.059737783 -0.060460657 -0.18269639 -0.09732974
0.022603555 0.1252106 0.0016927596 0.14066318 0.0015795846 -0.072024785 -0.14904013 -0.008593131
-0.13833426 0.15796453 -0.15362288 -0.18630746 -0.0047774925 0.119059555 -0.051417015 0.1170829
-0.09312706 0.00020364703 0.19317877 0.08033353 -0.011711785 -0.18602179 -0.031544287 -0.13950993
0.020774916 0.06700722 0.16947319 0.096576214 -0.005222625 0.042760327 -0.14002213 0.16002786
0.16636093 -0.008816998 0.07203749 0.04067957 0.12786923 -0.11734792 -0.0041891816 0.015094408
0.058081448 -0.09667978 0.17529264 0.19974987 -0.02902239 -0.017407112 0.07236774 -0.14662914
0.12400765 0.14789772 -0.12944952 -0.13098353 -0.0910721 -0.14276142 0.003927475 0.052674107
0.071540184 0.16664536 -0.009334694 -0.166299 -0.16114527 -0.13349526 0.048330627 -0.096882716
0.17590706 0.14152612 -0.14291188 -0.18519437 -0.099638656 0.16119194 -0.12988059 0.006495778
-0.051637087 -0.058815666 0.07446517 -0.17020662 -0.0045255437 0.1481703 -0.13010001 -0.19185187
-0.06113888 -0.009990263 -0.008759669 0.03539808 0.15579492 -0.050226256 0.021532636 -0.11908525
-0.14523804 -0.08929816 -0.18700188 -0.1345987 0.05456251 -0.010833685 -0.14441095 0.15392327
0.0148765985 0.110398315 0.11292793 -0.15403444 -0.022161098 -0.08383617 0.12669279 0.11847178
-0.044311028 -0.11231081 -0.19438207 -0.077266656 0.08331876 0.007963209 -0.014026265 0.07945025
-0.03786292 0.012728389 0.15599693 0.0049421815 -0.1434059 0.07578648 0.009174701 -0.136707
-0.067448996 0.11956891 0.008353883 -0.09025311 -0.1565784 -0.15460862 -0.048922345 -0.11993084
0.12270097 0.0128254555 0.15769358 0.17804782 0.10358845 -0.20385884 0.13370265 0.02694864
-0.18074138 -0.15624143 -0.14383945 -0.16731344 -0.20043923 -0.09831516 0.11312133 -0.15632582
-0.06872762 -0.035673294 -0.028672935 0.06327743 -0.1581676 -0.108458035 0.046139225 -0.08847494
-0.072034836 0.054173563 -0.13670796 -0.13769123 -0.059186164 0.12728003 -0.06831271 -0.17235208
-0.15173723 0.010974649 -0.15838657 -0.02490161 0.14164917 0.16759337 -0.0051370687 -0.07103702
-0.06314275 0.025736345 -0.17994562 -0.079108804 0.0958345 -0.055761177 0.20387182 -0.20063125
0.054832928 0.16161573 0.11039854 0.025930746 0.047889706 -0.122937635 -0.16685799 -0.033382952
-0.19975373 0.010499295 0.0446169 0.13716853 0.08453476 -0.12204409 -0.053232025 0.1441417
-0.10258257 -0.019568997 0.07815045 -0.12822706 0.16249725 0.04263596 -0.015483549 -0.11851631
-0.06933727 0.047489226 -0.028496007 -0.010456079 -0.14583693 -0.17451939 -0.0784399 0.028798569
0.041675027 0.034350988 -0.11779606 -0.11364891 0.071530014 0.08489273 -0.117970705 -0.06047589
-0.2016944 -0.08545354 -0.1866002 0.1550247 -0.18105564 0.113248765 0.08604835 -0.06816795
00000000: 1ca5 47be f401 ff3d d1f1 bebb 9a63 48be
00000010: e08a 26be 549e 0a3e 042e 2a3d f14f dbbc
00000020: c78e d53d a6f1 d93d df9b 413d 23bd 0a3e
00000030: eb04 0b3d bde2 18bd b81e 39be decd 333d
00000040: c8e9 363e 5b70 f23b b79a 0d3c b637 72bd
00000050: ba48 c6bc 6fc6 26be 0632 0dbe 3077 10bd
00000060: 3200 3e3e 519d 32bd 39ec ffbd 89a9 1cbe
00000070: 9baf 74bd 98a5 77bd c314 3bbe d154 c7bd
00000080: 172b b93c 3537 003e 96df dd3a 020a 103e
00000090: 100a cf3a bb81 93bd fa9d 18be 34ca 0cbc
000000a0: 7fa7 0dbe 74c1 213e 514f 1dbe 62c7 3ebe
000000b0: 838c 9cbb 7fd5 f33d a69a 52bd 29c9 ef3d
000000c0: 66b9 bebd 158a 5539 a8d0 453e e885 a43d
000000d0: c9e2 3fbc 7f7c 3ebe 9534 01bd b1db 0ebe
000000e0: 2830 aa3c 153b 893d 618a 2d3e c0c9 c53d
000000f0: 8e22 abbb 7425 2f3d f661 0fbe 58de 233e
00000100: 855a 2a3e 2c75 10bc 6488 933d 9f9f 263d
00000110: 27f0 023e 1b54 f0bd 6745 89bb 894e 773c
00000120: d0e6 6d3d 0c00 c6bd ea7f 333e 3b8b 4c3e
00000130: 5dc0 edbc 5c99 8ebc 8a35 943d f325 16be
00000140: b9f7 fd3d 8072 173e 6a8e 04be 8c20 06be
00000150: 0284 babd 0d30 12be 0cb2 803b cec0 573d
00000160: a983 923d 15a5 2a3e 8bf0 18bc 494a 2abe
00000170: 4403 25be fbb2 08be 56f6 453d 726a c6bd
00000180: fb20 343e 39ec 103e 7e57 12be 98a3 3dbe
00000190: 5a0f ccbd 800f 253e 6bff 04be 89da d43b
000001a0: 6981 53bd b2e8 70bd 3281 983d a54a 2ebe
000001b0: 034b 94bb f5b9 173e f038 05be d174 44be
000001c0: c36c 7abd 33ae 23bc b784 0fbc 94fd 103d
000001d0: b488 1f3e 0cba 4dbd 3665 b03c f8e2 f3bd
000001e0: 48b9 14be f4e1 b6bd 6c7d 3fbe 3ed4 09be
000001f0: f07c 5f3d c57f 31bc 77e0 13be 109e 1d3e
00000200: fabc 733c 8318 e23d c246 e73d 34bb 1dbe
00000210: 318b b5bc 4cb2 abbd c1bb 013e 55a1 f23d
00000220: 7b7f 35bd 3603 e6bd 180c 47be fb3d 9ebd
00000230: 07a3 aa3d 1f78 023c 6bce 65bc d0b6 a23d
00000240: 2616 1bbd bc8a 503c a9bd 1f3e 06f2 a13b
00000250: ffd8 12be f135 9b3d 7c51 163c ebfc 0bbe
00000260: b322 8abd 8be0 f43d bade 083c 9fd6 b8bd
00000270: 1756 20be b951 1ebe cc62 48bd 4d9e f5bd
00000280: a54a fb3d dc21 523c 6d7a 213e 2b52 363e
00000290: 2e26 d43d 5fc0 50be 59e9 083e 65c3 dc3c
000002a0: 4514 39be c1fd 1fbe a64a 13be 3754 2bbe
000002b0: f13f 4dbe 7559 c9bd 28ac e73d e013 20be
000002c0: 11c1 8cbd 291e 12bd 81e3 eabc 9997 813d
000002d0: b0f6 21be 3f1f debd 7cfc 3c3d 5932 b5bd
000002e0: 0087 93bd 19e5 5d3d 2cfd 0bbe eefe 0cbe
000002f0: 316d 72bd b255 023e 89e7 8bbd 107d 30be
00000300: 0161 1bbe 04cf 333c 1730 22be 76fe cbbc
00000310: 7b0c 113e 999d 2b3e db54 a8bb db7b 91bd
00000320: fc50 81bd 07d5 d23c aa43 38be cc03 a2bd
00000330: e144 c43d d565 64bd c6c3 503e 4772 4dbe
00000340: 7e98 603d 987e 253e a118 e23d b76c d43c
00000350: ff27 443d bac6 fbbd d2dc 2abe 90bc 08bd
00000360: 3e8c 4cbe 3c05 2c3c 36c0 363d e875 0c3e
00000370: 8f20 ad3d 40f2 f9bd d309 5abd e299 133e
00000380: cf16 d2bd 294f a0bc 580d a03d f44d 03be
00000390: ae65 263e 0ba3 2e3d b6ae 7dbc aeb8 f2bd
000003a0: b300 8ebd 1084 423d 7570 e9bc f94f 2bbc
000003b0: 4756 15be 36b5 32be 19a5 a0bd faea eb3c
000003c0: 6fb3 2a3d 9fb3 0c3d 103f f1bd c2c0 e8bd
000003d0: 547e 923d 3ddc ad3d a09a f1bd 91b5 77bd
000003e0: fa88 4ebe 4402 afbd 1f14 3fbe ccbe 1e3e
000003f0: a666 39be f8ee e73d 1e3a b03d a39b 8bbd

MM.bias f4 [576]
0.19745417 0.102127336 -0.0070121833 0.11605145 0.12452094 -0.04702039 0.16833012 -0.1548708
0.016981155 -0.12310274 -0.103681885 -0.07817744 -0.052233502 0.053347953 -0.06340328 0.12292012
0.14055789 0.14802174 -0.057547085 0.18303047 0.020262137 0.14747141 -0.10738685 -0.011486894
0.13076307 0.17634606 0.17324436 0.02506277 -0.030585306 -0.09900087 -0.19537827 -0.047954407
0.017657503 0.008621309 0.01553533 -0.18335524 0.043746952 0.1169022 0.170785 -0.046984453
-0.123552226 0.1965667 -0.1391493 -0.20304686 0.11228852 -0.130428 0.0031619917 -0.06787167
-0.08275778 0.1895194 0.032556027 0.19366528 -0.04807763 0.0013223551 0.07365734 -0.12770282
0.06516186 -0.13680865 0.14383587 -0.0033131514 0.029790038 -0.1524291 -0.056169275 -0.016001342
0.046177916 -0.14202867 0.048376277 -0.13761584 -0.058953367 -0.18204305 0.013972147 -0.12712108
0.13499522 0.18876329 -0.1258142 -0.15142795 0.12772803 0.17084403 -0.07059274 0.087444894
-0.08411664 0.020029996 0.006281546 0.12151795 -0.17917094 -0.16932395 -0.20190443 -0.10931808
-0.080136724 -0.084930174 -0.021452725 -0.07449422 0.2026732 0.19154379 -0.18712135 -0.06939762
0.1467312 0.0985209 -0.055865083 0.19759643 -0.1866689 -0.10686492 0.015058589 0.16609757
0.1564418 0.039966647 -0.1703148 0.1811015 0.14804326 0.06869854 -0.15629056 0.13955466
-0.13126993 -0.059404 -0.09031554 -0.0950084 -0.00948016 -0.15178606 -0.12832378 -0.041822296
0.14023298 0.09892498 0.13405877 0.13492006 -0.051764473 0.059591003 -0.14834161 0.0013965237
-0.12501441 -0.096005954 -0.18217318 -0.13764752 0.09702078 -0.092687376 0.18082641 0.18924181
0.09634081 -0.17133301 -0.019131431 -0.059562895 -0.020246709 0.03796614 -0.06522856 0.04695148
0.052798674 0.06582894 0.031966936 -0.032269087 -0.08324535 0.12011665 0.036492407 -0.03899377
-0.1634797 -0.09632254 -0.15604761 0.13691273 -0.114517 0.20001087 0.20309518 0.0512889
0.17364399 -0.044747107 0.043010596 -0.105839245 0.030927703 0.1936528 0.13611484 0.16082871
-0.19061542 -0.12687545 -0.18932246 -0.123470955 -0.17992574 -0.1804405 0.09310501 -0.0054157116
-0.06601414 0.07794987 -0.05741761 0.15672077 0.12195191 -0.101762116 -0.1061272 -0.048550457
0.04638728 0.1610972 -0.111879595 -0.12269474 0.10965374 -0.09725373 -0.1807451 0.15328506
-0.12928064 -0.19951642 -0.009627742 -0.19409308 -0.14540708 0.060611013 -0.026449803 -0.19681226
0.09897469 -0.049291972 0.05279536 -0.06358126 -0.07094095 -0.11200061 0.029021416 -0.0015294332
-0.036157407 0.018536162 -0.136551 -0.17987254 -0.13163713 -0.0480359 0.087586984 -0.16427027
-0.1535315 -0.084800914 -0.1927925 0.074949235 0.15795164 -0.18595745 0.01216227 0.10077021
-0.15451859 0.19228342 -0.103032544 -0.14755125 0.084733345 0.12090438 -0.17635715 -0.10344247
-0.103892565 0.14145705 -0.07123986 0.035626452 0.083726056 0.16026515 -0.085829765 -0.20088731
-0.074166864 0.11843881 -0.16022244 0.011453484 0.02759837 -0.040632315 -0.11586143 -0.14978203
0.13595684 -0.1338337 0.06543929 0.114637166 0.0007985523 0.19727544 -0.07285648 -0.06800197
00000000: 6d31 4a3e 2328 d13d 75c6 e5bb 62ac ed3d
00000010: d604 ff3d 7498 40bd bb5e 2c3e 7396 1ebe
00000020: 101c 8b3c 4a1d fcbd 2b57 d4bd 7e1b a0bd
00000030: ccf2 55bd 6283 5a3d 94d9 81bd 8bbd fb3d
00000040: 68ee 0f3e 0393 173e 7eb6 6bbd 576c 3b3e
00000050: c8fc a53c bf02 173e a3ed dbbd 8733 3cbc
00000060: c1e6 053e 1094 343e f866 313e 7050 cd3c
00000070: 098e fabc f8c0 cabd 3e11 48be d76b 44bd
00000080: 78a6 903c 6440 0d3c e687 7e3c 7ac1 3bbe
00000090: 0130 333d 6c6a ef3d 43e2 2e3e c572 40bd
000000a0: f308 fdbd c848 493e 277d 0ebe 84eb 4fbe
000000b0: 86f7 e53d eb8e 05be 6b39 4f3b 4d00 8bbd
000000c0: e97c a9bd 6011 423e 7859 053d 3150 463e
000000d0: 0ded 44bd e052 ad3a a9d9 963d 87c4 02be
000000e0: 9573 853d 9117 0cbe b649 133e 7521 59bb
000000f0: 3d0a f43c 6016 1cbe c111 66bd 3f15 83bc
00000100: 0e25 3d3d f76f 11be 3426 463d 2beb 0cbe
00000110: 1679 71bd 7e69 3abe 6feb 643c 072c 02be
00000120: 303c 0a3e 2a4b 413e 70d5 00be ee0f 1bbe
00000130: 23cb 023e bdf1 2e3e ed92 90bd 4f16 b33d
00000140: 5845 acbd f215 a43c 6dd5 cd3b 67de f83d
00000150: 9678 37be 4263 2dbe 09c0 4ebe 28e2 dfbd
00000160: b91e a4bd dfef adbd a0bd afbc 6d90 98bd
00000170: 9089 4f3e 0e24 443e bd9c 3fbe 5720 8ebd
00000180: b440 163e 53c5 c93d c9d2 64bd b856 4a3e
00000190: 2226 3fbe ffdb dabd 4db8 763c 7b15 2a3e
000001a0: 4732 203e 11b4 233d 0167 2ebe ac72 393e
000001b0: a798 173e d2b1 8c3d a20a 20be 6be7 0e3e
000001c0: a06b 06be 9c51 73bd 5bf7 b8bd c493 c2bd
000001d0: ac52 1bbc ce6d 1bbe 4f67 03be db4d 2bbd
000001e0: 3c99 0f3e 2e99 ca3d b446 093e 7c28 0a3e
000001f0: fc06 54bd b215 743d dde6 17be 8f0b b73a
00000200: c703 00be c59e c4bd 9b8b 3abe 79f3 0cbe
00000210: d5b2 c63d e1d2 bdbd 8f2a 393e 9bc8 413e
00000220: 554e c53d ec71 2fbe 85b9 9cbc 39f8 73bd
00000230: 6ddc a5bc 6282 1b3d 8d96 85bd 3250 403d
00000240: 6c43 583d 53d1 863d c3ef 023d 972c 04bd
00000250: 8a7c aabd b8ff f53d 1079 153d eeb7 1fbd
00000260: 3967 27be c044 c5bd f2ca 1fbe da32 0c3e
00000270: e487 eabd a6cf 4c3e 2ff8 4f3e 4f14 523d
00000280: bbcf 313e be48 37bd e12b 303d 3fc2 d8bd
00000290: 185c fd3c eb4c 463e b061 0b3e 48b0 243e
000002a0: b030 43be a3eb 01be bfdd 41be 57de fcbd
000002b0: 743e 38be 65c5 38be d7ad be3d 4876 b1bb
000002c0: 6c32 87bd 2ea4 9f3d ba2e 6bbd 697b 203e
000002d0: ecc1 f93d a868 d0bd 3859 d9bd d8dc 46bd
000002e0: 9700 3e3d aaf6 243e 2121 e5bd 6147 fbbd
000002f0: 2492 e03d f72c c7bd 3e15 39be c2f6 1c3e
00000300: 2562 04be 084e 4cbe adbd 1dbc 56c0 46be
00000310: 98e5 14be 4143 783d 42ad d8bc 2789 49be
00000320: 3eb3 ca3d 61e6 49bd f33f 583d e436 82bd
00000330: 7d49 91bd 9360 e5bd 52be ed3c 4377 c8ba
00000340: ca19 14bd 26d9 973c 06d4 0bbe 8230 38be
00000350: e2cb 06be 4bc1 44bd ce60 b33d 7736 28be
00000360: 5d37 1dbe 1aac adbd 666b 45be fc7e 993d
00000370: 13be 213e a16b 3ebe 4244 473c 9d60 ce3d
00000380: 1f3a 1ebe f2e5 443e ba02 d3bd ad17 17be
00000390: ad88 ad3d b79c f73d f896 34be a5d9 d3bd
000003a0: a0c5 d4bd 1eda 103e 34e6 91bd 0bed 113d
000003b0: 9178 ab3d 8c1c 243e 84c7 afbd 67b5 4dbe
000003c0: cce4 97bd 0c90 f23d 5a11 24be 65a7 3b3c
000003d0: fa15 e23c 126e 26bd c248 edbd 7660 19be
000003e0: 4538 0b3e b40b 09be 0905 863d e4c6 ea3d
000003f0: f055 513a 9302 4a3e c735 95bd 9e44 8bbd

linear.weight f4 [24, 24]
0.03344063 0.24074915 -0.076228425 0.22960703 -0.11155112 0.031886812 -0.1270159 -0.12002705
0.16226324 -0.06131486 0.042109102 0.040745806 0.14324148 0.023768732 0.04014607 0.107855126
0.00057299837 0.22339454 0.1990537 0.17155017 -0.03216835 -0.14900628 -0.0053004385 -0.1336376
-0.017254772 0.0013528104 -0.05457892 -0.07473284 0.10059125 0.18904728 -0.039094005 -0.045667157
-0.056539107 -0.11204982 0.16117866 -0.02669395 0.016967475 0.11717207 -0.06640179 0.09854433
-0.017704913 -0.14054681 0.15168796 -0.05670907 0.037368644 -0.028686823 -0.09399898 0.1798291
0.02249974 -0.13737597 0.05014533 0.21380775 -0.060533762 0.1995866 0.22352886 -0.021274643
-0.1596706 -0.08916528 -0.080556974 0.061273936 -0.0961977 0.1723524 0.036911607 -0.16230875
0.20568432 0.11005236 0.24775235 0.020149298 -0.018442128 0.093985766 -0.055733867 0.12598065
0.22831152 0.18980509 -0.039013017 0.08571884 -0.08061366 -0.058312654 0.2023517 -0.15197997
-0.17043512 -0.067858085 0.051901393 -0.015258837 -0.012305519 0.13581729 -0.05012146 -0.12545422
-0.04568692 0.051520463 0.019655192 0.08448874 0.046705294 0.023368929 0.13090199 -0.13876486
0.072729945 0.174759 0.08007589 -0.02940787 0.15457371 -0.006212208 -0.06918655 -0.15070294
-0.007989965 0.18710877 -0.09086358 0.0025455912 0.070575185 -0.04921118 -0.05589934 -0.04565783
0.17684478 0.110792786 -0.09935819 -0.12022481 -0.026611432 -0.08557023 0.22614743 -0.043799557
0.08432763 0.10344414 0.22543952 0.1577365 -0.07639872 -0.12603058 0.106671736 0.036852304
0.007678637 0.1759795 0.082273565 -0.054379214 -0.089691706 -0.106644005 -0.09805126 -0.01194525
0.05383678 -0.049226165 -0.10055019 -0.11822451 0.11783756 0.01156397 -0.058094967 0.07011907
-0.06795749 -0.038375612 0.24086031 0.004186272 -0.13836068 -0.11947958 -0.0019950017 -0.072596356
-0.14596526 0.20322241 0.019761344 -0.06593076 0.09473163 0.044333808 0.15255451 0.008109995
-0.14887358 0.13193792 0.11768566 -0.08109108 -0.13297282 -0.04033978 -0.16676448 0.08408622
0.17951396 0.19307382 0.059746724 0.17101312 0.22753868 0.20934395 0.1164691 0.13971908
0.17686512 0.11068861 0.011706983 0.20453359 0.09183551 0.23902264 -0.045251563 0.07036965
0.028947791 0.20289329 0.22532992 0.17511247 0.20725782 -0.071998864 0.13131553 0.050319124
-0.09125745 0.012188546 0.21261828 -0.10830338 -0.09940763 0.2283161 0.11528109 0.114049315
-0.12111397 0.23269905 0.14943765 -0.14093058 -0.111992925 -0.11326893 -0.04617843 -0.14942507
-0.009017396 0.13339227 0.16190599 0.03653452 -0.16904035 0.054124795 0.23265925 -0.051158525
0.046195555 0.017630868 0.16131271 0.09628011 0.13531685 0.14538625 -0.075479224 0.09755117
0.21730869 0.14080565 0.20293844 0.20653845 -0.14185886 0.17423397 0.15274313 0.1675494
-0.1567011 0.12303011 -0.114686936 -0.11319857 -0.123047456 -0.07492666 -0.044636514 -0.1417504
-0.10055577 0.020104576 0.12419943 -0.10114008 -0.062059823 0.07314845 0.09214905 -0.15815534
-0.16862331 0.022970635 0.008328683 0.12614876 -0.0445082 0.13739286 0.09280974 0.23692639
00000000: 0bf9 083d f286 763e a61d 9cbd 1b1e 6b3e
00000010: ea74 e4bd bf9b 023d 7510 02be bed0 f5bd
00000020: 5628 263e 4a25 7bbd 987a 2c3d 13e5 263d
00000030: e5ad 123e a5b6 c23c 3570 243d 26e3 dc3d
00000040: 4535 163a 8ac1 643e bcd4 4b3e d9aa 2f3e
00000050: f6c2 03bd 1a95 18be 4daf adbb 4cd8 08be
00000060: e159 8dbc c950 b13a 258e 5fbd 880d 99bd
00000070: c902 ce3d 9c95 413e 0921 20bd 7c0d 3bbd
00000080: 8d95 67bd 607a e5bd 050c 253e 45ad dabc
00000090: 60ff 8a3c e9f7 ef3d a9fd 87bd 9cd1 c93d
000000a0: e509 91bc 81eb 0fbe 1754 1b3e c547 68bd
000000b0: dd0f 193d a100 ebbc 8a82 c0bd 1f25 383e
000000c0: 6051 b83c 49ac 0cbe 3165 4d3d 6bf0 5a3e
000000d0: 40f2 77bd 6e60 4c3e c0e4 643e 2948 aebc
000000e0: b180 23be 499c b6bd 0efb a4bd 61fa 7a3d
000000f0: 4d03 c5bd 267d 303e a030 173d 4434 26be
00000100: e99e 523e 2263 e13d cbb2 7d3e 2410 a53c
00000110: f213 97bc 9c7b c03d 3249 64bd 1201 013e
00000120: 7fca 693e 445c 423e 1dcc 1fbd 5c8d af3d
00000130: c618 a5bd 40d9 6ebd 4935 4f3e a3a0 1bbe
00000140: 8b86 2ebe 2ef9 8abd 8e96 543d 3300 7abc
00000150: 169d 49bc b013 0b3e 294c 4dbd 1277 00be
00000160: 3522 3bbd 1f07 533d ed03 a13c 6f08 ad3d
00000170: 0d4e 3f3d 3270 bf3c 2c0b 063e 6018 0ebe
00000180: 70f3 943d 06f4 323e d4fe a33d c6e8 f0bc
00000190: 9248 1e3e c78f cbbb aeb1 8dbd df51 1abe
000001a0: 58e8 02bc 7199 3f3e af16 babd efd3 263b
000001b0: b989 903d aa91 49bd b5f6 64bd b403 3bbd
000001c0: cc16 353e 54e7 e23d 4f7c cbbd 6d38 f6bd
000001d0: 3800 dabc 723f afbd 3193 673e 2a67 33bd
000001e0: f7b3 ac3d 85da d33d 9ed9 663e ad85 213e
000001f0: ef76 9cbd 290e 01be b676 da3d 71f2 163d
00000200: 139d fb3b f833 343e 0b7f a83d bdbc 5ebd
00000210: 49b0 b7bd 2c68 dabd 19cf c8bd 03b6 43bc
00000220: f583 5c3d 60a1 49bd 42ed cdbd b11f f2bd
00000230: d254 f13d ce76 3d3c fdf4 6dbd 969a 8f3d
00000240: 4c2d 8bbd bf2f 1dbd 16a4 763e ff2c 893b
00000250: 6cae 0dbe b6b1 f4bd 93be 02bb 66ad 94bd
00000260: eb77 15be 8919 503e 8be2 a13c b506 87bd
00000270: a802 c23d 5e97 353d 4037 1c3e c9df 043c
00000280: 5172 18be bc1a 073e 2e05 f13d 1513 a6bd
00000290: 072a 08be 533b 25bd 4fc4 2abe 6535 ac3d
000002a0: 82d2 373e 25b5 453e fbb8 743d 101e 2f3e
000002b0: e6ff 683e 435e 563e 5a87 ee3d 8512 0f3e
000002c0: 211c 353e b6b0 e23d a5ce 3f3c 4171 513e
000002d0: 4214 bc3d 5ac2 743e b459 39bd f71d 903d
000002e0: eb23 ed3c 42c3 4f3e e3bc 663e af50 333e
000002f0: 653b 543e 2474 93bd 9477 063e 6d1b 4e3d
00000300: 30e5 babd 78b2 473c 9bb8 593e 2ace ddbd
00000310: 3a96 cbbd b2cb 693e 7e18 ec3d b092 e93d
00000320: 9a0a f8bd a948 6e3e 2f06 193e 1b50 10be
00000330: 8c5c e5bd 8af9 e7bd 9825 3dbd e302 19be
00000340: b3bd 13bc fc97 083e afca 253e 39a5 153d
00000350: ea18 2dbe f6b1 5d3d 3a3e 6e3e 9a8b 51bd
00000360: 8d37 3d3d 9c6e 903c 292f 253e 822e c53d
00000370: 8090 0a3e 22e0 143e da94 9abd e8c8 c73d
00000380: 2b86 5e3e 5b2f 103e 18cf 4f3e d17e 533e
00000390: 7343 11be 646a 323e b268 1c3e 1292 2b3e
000003a0: 4176 20be 36f7 fb3d fce0 eabd a7d4 e7bd
000003b0: 4e00 fcbd 2673 99bd c7d4 36bd 0427 11be
000003c0: 2ff0 cdbd 5ab2 a43c 455c fe3d 8822 cfbd
000003d0: 7132 7ebd dbce 953d a4b8 bc3d 79f3 21be
000003e0: 97ab 2cbe ea2c bc3c 0775 083c 242d 013e
000003f0: 3b4e 36bd b7b0 0c3e 0813 be3d d59c 723e

linear.bias f4 [24]
0.133777 -0.18335137 -0.11696441 -0.07882705 0.1997401 0.19518524 -0.19997485 0.11989302
0.104737155 0.014013448 0.08217075 -0.032478113 0.12537096 -0.18743734 -0.05167459 -0.15269011
-0.16886695 0.041329768 0.106987424 -0.07043043 -0.09733863 0.05258474 -0.09671432 -0.021830548
00000000: d6fc 083e 76c0 3bbe 098b efbd 1470 a1bd
00000010: ab88 4c3e a4de 473e 35c6 4cbe 798a f53d
00000020: 6f80 d63d a998 653c 2349 a83d c507 05bd
00000030: 3f61 003e 93ef 3fbe bca8 53bd cc5a 1cbe
00000040: 75eb 2cbe 6749 293d 391c db3d d43d 90bd
00000050: 7a59 c7bd 1963 573d 2812 c6bd fad5 b2bc

linearx.weight f4 [24, 24]
0.10994313 -0.092322186 -0.16274756 -0.036921613 -0.08967514 -0.2524293 -0.19625373 0.012752402
0.08251948 -0.18136007 0.052965596 -0.17638583 -0.043064777 0.0013371324 -0.24558564 -0.17071132
0.14046115 0.119964585 0.06427342 -0.22187617 0.0056054858 -0.12314762 -0.07032991 0.092542544
-0.10925566 -0.1298486 0.009434794 0.04259346 0.0063074804 -0.15886563 -0.12587216 0.12291391
-0.1168924 0.14038749 0.030013612 0.022527223 0.17183058 -0.0038632797 -0.17905389 0.022993123
0.07011883 0.15980107 0.031807985 0.041119263 -0.121912554 0.085961215 -0.10633472 -0.115004286
-0.13807026 -0.12935059 0.20183553 -0.15633354 -0.07296224 -0.16046765 0.19700764 0.07543198
0.064833 0.048965413 -0.039078273 -0.17892018 0.009090268 -0.18716827 0.19886167 0.01226824
0.013287473 -0.14273816 0.07300424 -0.07125416 0.19724083 0.0783784 -0.12071686 0.13440104
0.15181075 0.0910425 -0.12562437 0.045637332 0.017742142 0.09428592 0.16153288 -0.0077442094
0.10426377 -0.04107818 -0.1885206 0.017660562 -0.17585112 -0.1605734 -0.17811239 0.07336945
-0.071482494 0.07633801 0.13883713 -0.053898193 -0.09985758 0.045177925 -0.031189486 0.14512417
0.12574655 -0.073569894 -0.11637119 -0.09725796 -0.09010235 -0.15483074 0.04315661 -0.080558546
-0.102489576 -0.1440244 0.0017015163 -0.17585643 0.07380719 -0.056066435 0.14207135 -0.021325124
0.1551521 -0.012894441 0.15272056 0.096713535 0.07755405 0.2168765 0.059475925 -0.11870568
0.03588157 -0.1037187 0.0002141714 0.14626227 -0.118776344 0.062094815 -0.17175159 -0.1018576
0.19172737 -0.017333299 -0.12312176 -0.03837079 0.09465404 -0.07524703 0.063712135 -0.022220425
0.045297347 0.045269452 0.13872893 0.06105192 -0.15441552 -0.06523288 0.17059271 -0.098267905
0.05935159 -0.16801834 -0.10075646 0.034166448 0.11034292 -0.03416303 -0.07406661 0.0062478823
0.1094051 0.05379264 0.089441076 -0.03348404 -0.09566156 0.006747148 0.017083993 0.01225277
0.061789054 0.19493484 0.046881832 -0.15850912 -0.07116306 -0.01865466 -0.023929933 0.0036634188
-0.07223646 0.12846227 -0.15302056 0.10055545 -0.052323904 -0.019987535 0.10140857 0.069451936
0.12534946 0.049660765 0.0011329827 -0.06999914 0.0134929 0.062499642 0.017054845 -0.08707516
0.10692731 -0.13937017 -0.1779969 0.023711491 -0.1560642 0.046580132 -0.030993603 -0.041979462
-0.07473055 -0.0080144005 -0.012322967 0.0688527 -0.008345162 -0.14817508 -0.19113849 0.07283651
-0.20343998 0.16234851 -0.20834583 -0.1559773 -0.1174186 -0.16792387 -0.11544878 -0.018732412
0.10050313 0.13356878 0.0044390364 0.128621 -0.17688262 0.1069707 0.03494661 -0.110187285
0.0983013 0.08796806 -0.0629651 0.036057718 -0.18898039 -0.022563558 0.16972055 -0.10648132
0.016803762 0.05768743 0.09796256 0.06369079 0.04169554 -0.1360896 -0.008669686 0.13234386
-0.010545786 -0.22206779 -0.19714132 0.14397739 0.10245645 0.08788096 -0.16840535 -0.016747031
-0.04738491 -0.1815168 -0.17943469 -0.20698068 0.014514465 0.036712993 -0.20834886 0.16966286
-0.07358536 -0.1560351 0.029164651 0.036509413 0.08670865 -0.034158044 -0.13919988 -0.05026804
00000000: dd29 e13d 6a13 bdbd 4ca7 26be 1e3b 17bd
00000010: 9aa7 b7bd 6a3e 81be bdf6 48be 73ef 503c
00000020: f9ff a83d 74b6 39be 74f2 583d 7d9e 34be
00000030: b164 30bd b842 af3a cd7a 7bbe f3ce 2ebe
00000040: 0cd5 0f3e feaf f53d c8a1 833d 8233 63be
00000050: 39ae b73b d234 fcbd 2109 90bd f286 bd3d
00000060: 6ec1 dfbd 08f7 04be 6594 1a3c 7b76 2e3d
00000070: fbae ce3b acad 22be a2e4 00be 4aba fb3d
00000080: 4865 efbd bdc1 0f3e 1bdf f53c 038b b83c
00000090: 5bf4 2f3e 142f 7dbb e759 37be 135c bc3c
000000a0: 769a 8f3d e4a2 233e 1749 023d ac6c 283d
000000b0: 4aad f9bd 6f0c b03d 05c6 d9bd 5e87 ebbd
000000c0: 4a62 0dbe 7b74 04be f9ad 4e3e e615 20be
000000d0: 3a6d 95bd a251 24be 5fbc 493e 157c 9a3d
000000e0: 2ac7 843d f58f 483d 8a10 20bd da36 37be
000000f0: 59ef 143c 0aa9 3fbe 65a2 4b3e ba00 493c
00000100: b3b3 593c f429 12be 3f83 953d b3ed 91bd
00000110: 80f9 493e db84 a03d 673a f7bd 6da0 093e
00000120: 4774 1b3e 7e74 ba3d ada3 00be 36ee 3a3d
00000130: f857 913c fa18 c13d e068 253e 23c3 fdbb
00000140: 3e88 d53d 9841 28bd 8b0b 41be e2ac 903c
00000150: 5112 34be 5a6d 24be 1863 36be b942 963d
00000160: 6a65 92bd 1a57 9c3d 522b 0e3e 5ac4 5cbd
00000170: 2282 ccbd 7d0c 393d 1881 ffbc 6e9b 143e
00000180: b4c3 003e d0ab 96bd 0554 eebd 2e2f c7bd
00000190: 9587 b8bd f38b 1ebe fcc4 303d e1fb a4bd
000001a0: 0ee6 d1bd 227b 13be 6a05 df3a b513 34be
000001b0: 3928 973d eba5 65bd 277b 113e 07b2 aebc
000001c0: 31e0 1e3e 3543 53bc c762 1c3e bf11 c63d
000001d0: a8d4 9e3d e014 5e3e 079d 733d f71b f3bd
000001e0: 8ef8 123d 786a d4bd 3393 6039 c7c5 153e
000001f0: 0341 f3bd 2257 7e3d a6df 2fbe b89a d0bd
00000200: 2e54 443e 90fe 8dbc 4327 fcbd b12a 1dbd
00000210: fad9 c13d 1d1b 9abd 827b 823d 9c07 b6bc
00000220: b689 393d 766c 393d f50e 0e3e 9411 7a3d
00000230: 1a1f 1ebe d198 85bd dbaf 2e3e af40 c9bd
00000240: a71a 733d 000d 2cbe 6759 cebd 1ef2 0b3d
00000250: 78fb e13d 89ee 0bbd 3cb0 97bd 09bb cc3b
00000260: c80f e03d ac55 5c3d e22c b73d 9026 09bd
00000270: 35ea c3bd 2e17 dd3b bbf3 8b3c d8bf 483c
00000280: 8516 7d3d 009d 473e 2a07 403d 3750 22be
00000290: f0bd 91bd a8d1 98bc b508 c4bc f815 703b
000002a0: b6f0 93bd 9d8b 033e 6cb1 1cbe 04f0 cd3d
000002b0: 9751 56bd e6bc a3bc 4caf cf3d d13c 8e3d
000002c0: 9c5b 003e 1669 4b3d 9780 943a b65b 8fbd
000002d0: 5311 5d3c a0ff 7f3d 9ab6 8b3c 7654 b2bd
000002e0: b5fc da3d 0eb7 0ebe d244 36be 9a3e c23c
000002f0: 4bcf 1fbe cfca 3e3d 4ce6 fdbc a8f2 2bbd
00000300: 550c 99bd d54e 03bc 45e6 49bc a502 8d3d
00000310: 25ba 08bc 35bb 17be cfb9 43be 4f2b 953d
00000320: 9252 50be b03e 263e 9c58 55be 83b8 1fbe
00000330: 2a79 f0bd 3cf4 2bbe 6970 ecbd b774 99bc
00000340: 96d4 cd3d 41c6 083e 5675 913b 39b5 033e
00000350: b820 35be 7413 db3d 2d24 0f3d dfa9 e1bd
00000360: 3152 c93d 9928 b43d d9f3 80bd 42b1 133d
00000370: 1384 41be 36d7 b8bc 39cb 2d3e e112 dabd
00000380: 0ba8 893c a849 6c3d 98a0 c83d 5170 823d
00000390: f1c8 2a3d 125b 0bbe 4c0b 0ebc 2685 073e
000003a0: 3bc8 2cbc bd65 63be 6adf 49be cf6e 133e
000003b0: b0d4 d13d effa b33d 7472 2cbe 1231 89bc
000003c0: ae16 42bd 8adf 39be babd 37be bef2 53be
000003d0: 14ce 6d3c 5d60 163d 6759 55be 1abc 2d3e
000003e0: ecb3 96bd aac7 1fbe b5ea ee3c e58a 153d
000003f0: 4e94 b13d 4ee9 0bbd 6a8a 0ebe dce5 4dbd

linearx.bias f4 [24]
0.08994244 0.038274463 0.14633639 -0.19017698 -0.026300969 0.17668268 0.1522916 0.083736
0.04004679 -0.10414877 -0.10963974 0.08549294 0.1641923 -0.034226123 -0.20007038 0.19772217
0.09784324 0.16582696 -0.059601836 -0.10224186 0.0708157 -0.15105043 -0.05397444 0.051631253
00000000: be33 b83d afc5 1c3d 35d9 153e c1bd 42be
00000010: 2175 d7bc 4eec 343e 54f2 1b3e c87d ab3d
00000020: 1a08 243d f34b d5bd cd8a e0bd ec16 af3d
00000030: 0722 283e b130 0cbd 40df 4cbe ae77 4a3e
00000040: 0962 c83d 8bce 293e 0e21 74bd 2e64 d1bd
00000050: d207 913d f7ac 1abe 4d14 5dbd 4b7b 533d
