electricity_problem/saved_models/task_net.pt (torch, 326900 bytes, 16 tensors)

sig f4 [1, 24]
0	0x3f7953fe	0.97393787
1	0x3f79142d	0.9729641
2	0x3f7789c5	0.96694595
3	0x3f771d4c	0.9652908
4	0x3f761945	0.9613231
5	0x3f7704a4	0.96491456
6	0x3f77845d	0.96686345
7	0x3f77bc6f	0.967719
8	0x3f78e338	0.9722171
9	0x3f785060	0.9699764
10	0x3f78be5b	0.9716546
11	0x3f79671f	0.97422975
12	0x3f782039	0.9692417
13	0x3f7707ed	0.9649647
14	0x3f772950	0.9654741
15	0x3f773c42	0.9657632
16	0x3f780af4	0.96891713
17	0x3f784c59	0.969915
18	0x3f782520	0.9693165
19	0x3f77e475	0.9683297
20	0x3f7ad307	0.9797825
21	0x3f79bcc6	0.9755367
22	0x3f787b8a	0.97063506
23	0x3f77d509	0.9680944

lin.bias f4 [24]
0	0x3fc3e163	1.5303158
1	0x3fb88df7	1.4418324
2	0x3fb0eed0	1.382288
3	0x3facd571	1.3502637
4	0x3faa7b37	1.3318852
5	0x3fac41df	1.3457602
6	0x3fb3b2c6	1.4038932
7	0x3fc000a0	1.5000191
8	0x3fca5b47	1.5809106
9	0x3fd1dee1	1.6396142
10	0x3fd92591	1.6964589
11	0x3fdf4820	1.7443886
12	0x3fe280fd	1.7695614
13	0x3fe45df9	1.7841178
14	0x3fe66d4b	1.8002104
15	0x3fe6d7f0	1.8034649
16	0x3fe79855	1.8093363
17	0x3fe932a7	1.8218583
18	0x3feb21ff	1.836975
19	0x3fe9d0d8	1.8266859
20	0x3fe88ca8	1.8167925
21	0x3fe5c6f7	1.7951344
22	0x3fdf88bb	1.7463602
23	0x3fd1f40a	1.64026

net.0.weight f4 [200, 149]
0	0xbd610b4b	-0.05494241
1	0x3da8c56a	0.08240779
2	0x3d8a83e4	0.067634374
3	0xbc8ef291	-0.017449649
4	0xbd76c4f5	-0.060246427
5	0x3cd19a3d	0.025586242
6	0x3cfdc56e	0.03097793
7	0x3d0f2309	0.03494552
8	0x3d9d2809	0.07673652
9	0x3da52645	0.0806394
10	0xbd750d71	-0.05982727
11	0xbc66f82c	-0.014097255
12	0x3d86385a	0.06553717
13	0x3d3fe6d2	0.046850987
14	0xbd7cb1b3	-0.061692905
15	0xbcdd440b	-0.027009984
16	0x3d8b5427	0.0680316
17	0x3d373be4	0.04473485
18	0x3c2b881e	0.010469465
19	0x3d6c1299	0.057634924
20	0x3d03d0e2	0.032181628
21	0xbda211dc	-0.07913563
22	0xbd629125	-0.0553142
23	0x3ce15ac7	0.027509106
24	0x3cbebebf	0.023284314
25	0x3b6254c8	0.0034535397
26	0x3d99b2bc	0.07504794
27	0xbd6d7abb	-0.057978373
28	0x3d0b0d97	0.033948507
29	0x3d114a0c	0.035471007
30	0xbc90647e	-0.017626043
31	0xbd754655	-0.059881527
32	0xbbea374b	-0.0071477047
33	0x3d952f5b	0.07284423
34	0x3d48c072	0.049011655
35	0xbcda720c	-0.02666571
36	0xbc577de1	-0.01315257
37	0x3d349fa2	0.04409755
38	0xbd0d4a6d	-0.034494806
39	0xbd886ee5	-0.066617765
40	0xbda5c052	-0.08093323
41	0x3ca78e94	0.020453729
42	0xbd8681be	-0.06567715
43	0xbb4c7655	-0.003119846
44	0xbcd5d85e	-0.026104148
45	0x3d057607	0.032583263
46	0xbd107e2e	-0.035276584
47	0x3d232489	0.039829765
48	0xbc2d83eb	-0.010590534
49	0x3da2e71c	0.07954237
50	0x3caea277	0.021317704
51	0xbd799f87	-0.060943153
52	0xbb2664e7	-0.0025389732
53	0x3d085fe3	0.03329457
54	0x3d2d727b	0.042345505
55	0xbd3871ee	-0.045030527
56	0xbd990c58	-0.074730575
57	0xbd2e2165	-0.042512316
58	0xbd2fcb7e	-0.042918675
59	0xbd6e4406	-0.05817034
60	0x3d71f480	0.059071064
61	0xbd601bd9	-0.054714058
62	0x3cece0bf	0.028915761
63	0x3d91ec36	0.07125132
64	0xbd7f1d3c	-0.06228374
65	0xbd29e78a	-0.04148058
66	0x3d20c79f	0.039252874
67	0xbce110c3	-0.027473813
68	0x3d8f1029	0.06985504
69	0xbd210381	-0.039309982
70	0xbc12da41	-0.008963169
71	0x3be74bc8	0.0070585944
72	0x3d9aa41e	0.07550834
73	0xbda2e6e9	-0.07954199
74	0xbd821b60	-0.063528776
75	0xbcb5c95f	-0.022190748
76	0x3d6bfb5b	0.057612758
77	0xbd601cdd	-0.054715026
78	0x3ce8266a	0.02833863
79	0x3d892dda	0.066981986
80	0xbccf6edc	-0.025321417
81	0xbdaed055	-0.0853583
82	0x3afabba3	0.0019129406
83	0x3ce87006	0.02837373
84	0xbd6d9bdc	-0.058009967
85	0xbb92e82b	-0.004483243
86	0xbd968fcf	-0.07351648
87	0x3b6573ab	0.003501157
88	0xbc42f0c8	-0.011898227
89	0xbd57dbbe	-0.052699797
90	0xbd715b22	-0.0589248
91	0xbc067077	-0.008205525
92	0xbd56ad03	-0.05241109
93	0x3b24f994	0.0025173174
94	0xbd028d1d	-0.031872857
95	0xbd94b92c	-0.07261881
96	0xbd26c104	-0.040711418
97	0xbd9d73e7	-0.07688122
98	0xbd8767c5	-0.06611589
99	0xbdb2f50f	-0.087381475
100	0xbd8d7a97	-0.06908148
101	0xbcd0f1f5	-0.025506
102	0xbb0ee18c	-0.0021801917
103	0xbd6e179a	-0.058127977
104	0xbd8120ca	-0.06305082
105	0x3d1fd230	0.03901881
106	0x3d3ad349	0.045611653
107	0x3d6a77b4	0.057243064
108	0xbd1bbee6	-0.03802385
109	0xbca78c7b	-0.020452728
110	0xbd85c14e	-0.065310106
111	0xbd06b9a9	-0.032891903
112	0x3d2dab6c	0.04239981
113	0x3cf78d73	0.030218815
114	0x3d1bdef3	0.038054418
115	0x3ca6f73c	0.020381562
116	0xbbc3d7ce	-0.0059766537
117	0x3d4dd1f9	0.050249074
118	0xbc57ea24	-0.013178382
119	0xbd83fe33	-0.06444969
120	0x3cef5b1b	0.029218247
121	0xbda3e038	-0.08001751
122	0x3d1de458	0.038547844
123	0x3d9712cb	0.07376631
124	0xbd974edc	-0.07388088
125	0xbd932374	-0.071844965
126	0xbd7046b4	-0.058661178
127	0x3d2f08fd	0.04273318
128	0xbb06eaa3	-0.0020586632
129	0xbd8b2795	-0.06794659
130	0xbd7a5837	-0.061119284
131	0xbd1581aa	-0.03650061
132	0xba87b86b	-0.0010354643
133	0xbd92bec1	-0.0716529
134	0xbca363bf	-0.019945024
135	0x3cfde388	0.030992284
136	0xbda1e5f4	-0.07905188
137	0xbd5a95b3	-0.05336542
138	0x3d52e672	0.0514893
139	0xbcc4459a	-0.02395897
140	0xbcc5c4a8	-0.024141625
141	0x3d4b7af0	0.04967779
142	0x3d85c679	0.06531996
143	0x3d352a59	0.04422984
144	0xbd08512f	-0.033280548
145	0xbd340d5d	-0.043958057
146	0x3d630335	0.05542298
147	0x3ceddc2d	0.029035652
148	0xbcc0adc6	-0.023520362
149	0x3d51c286	0.051210903
150	0x3dadea15	0.08491913
151	0x3d7f11c4	0.062272802
152	0xb9b68d31	-0.0003481894
153	0x3d1dc684	0.038519397
154	0xbd53c386	-0.051700138
155	0x3c86e923	0.01646859
156	0xbc8cdad4	-0.01719419
157	0x3d986552	0.074412
158	0xbd110ff6	-0.035415612
159	0xbbcebdf5	-0.0063092657
160	0xbc4e6dd0	-0.0125994235
161	0x3cee25a9	0.029070692
162	0x3d127058	0.03575167
163	0xbd17bf05	-0.037047405
164	0x3d512265	0.05105819
165	0xbc028100	-0.007965326
166	0x3c485127	0.0122263795
167	0x3cdbc2f3	0.026826357
168	0xbd8b5ea7	-0.06805163
169	0x3cd24320	0.025666773
170	0x3ccd24ba	0.025041927
171	0xbd0a2843	-0.033729803
172	0x3cba1e92	0.022719655
173	0xbd4ddfb5	-0.05026217
174	0x3d2fe65f	0.04294431
175	0xbca50cec	-0.020147763
176	0x3ca62efe	0.02028608
177	0xbc0a640d	-0.0084467055
178	0xbda6c5c5	-0.0814319
179	0x3d702662	0.058630355
180	0xbd08f1f9	-0.033433888
181	0x3c43364b	0.0119148
182	0xbb498dc7	-0.0030754672
183	0x3b39be49	0.0028342179
184	0xbda487b8	-0.08033699
185	0x3ba74bc2	0.0051054666
186	0xbcc6e577	-0.02427934
187	0xbdadc8a8	-0.08485538
188	0xbd7925c0	-0.060827017
189	0x3cdccdbd	0.026953572
190	0x3d650cce	0.055920415
191	0xbba8a76a	-0.0051469104
192	0xbd25ee88	-0.040510684
193	0x3d2aa1e6	0.041658305
194	0xbd754f04	-0.05988981
195	0x3d8d596c	0.069018215
196	0x3c910660	0.017703235
197	0x3d42621f	0.047456857
198	0xbcb8d27c	-0.022561304
199	0xbd99be23	-0.07506969
200	0xbc3836ea	-0.011243561
201	0x3d030e07	0.0319958
202	0xbcfae189	-0.030625122
203	0xbd87a95f	-0.06624102
204	0x3d283b41	0.041072134
205	0xbd168aca	-0.036753453
206	0x3cac745e	0.021051582
207	0xbd993418	-0.07480639
208	0xbd070745	-0.032965917
209	0x3d1232c1	0.035692934
210	0xbdb1129a	-0.08646126
211	0x3cafefcf	0.021476654
212	0xbc118dec	-0.0088839345
213	0x3c0fd140	0.008777916
214	0xbd3dc0d6	-0.04632648
215	0xbd16e4a5	-0.036839146
216	0x3d3339e7	0.04375639
217	0x3d859e5e	0.06524347
218	0x3d8e89fc	0.06959912
219	0xbc7314bf	-0.014836489
220	0x3d955904	0.07292369
221	0xbd857595	-0.065165676
222	0xbd7dfece	-0.06201058
223	0xbc94f2e4	-0.018182226
224	0x3d8bf6c4	0.06834176
225	0x3d97a8a2	0.07405211
226	0x3d8378e5	0.06419543
227	0xbd0cc86c	-0.034370825
228	0x3c762a64	0.015024755
229	0x3cec2bce	0.028829481
230	0xbbc242f2	-0.0059283907
231	0xbda0d6e8	-0.0785349
232	0xbc460383	-0.012085798
233	0xbc45777c	-0.012052413
234	0xbc8b6226	-0.017014574
235	0xbda4d284	-0.08047965
236	0x3cc43642	0.023951653
237	0x3c0a9aeb	0.008459787
238	0x3c4f7ff2	0.012664782
239	0x3ca79261	0.020455541
240	0x3da29290	0.07938111
241	0x3d8bfcfc	0.06835362
242	0x3be72b90	0.0070547536
243	0xbc34e119	-0.011039996
244	0x3d3e88ef	0.04651731
245	0x3d870022	0.06591822
246	0x3da20ca4	0.07912567
247	0x3d669c84	0.05630161
248	0x3d5f5f21	0.05453408
249	0x3d98faa1	0.07469679
250	0xbcc2ccfa	-0.023779381
251	0xbdb14606	-0.08655934
252	0x3cfb634b	0.030686995
253	0x3d30c927	0.043160584
254	0xbd9c29b8	-0.07625145
255	0xbc676edb	-0.014125551

net.0.bias f4 [200]
0	0x3d8dc74a	0.06922777
1	0xbb62fb94	-0.0034634816
2	0xbcc463bb	-0.023973336
3	0xbd6a434f	-0.057193097
4	0xbd023c3d	-0.03179573
5	0xbbf4caff	-0.007470488
6	0x3c92697d	0.017872566
7	0xbd8534a9	-0.06504185
8	0x3d4f895f	0.050668117
9	0x3d9389c6	0.072040126
10	0x3bcc0f0c	0.0062273797
11	0x3c89f419	0.016840028
12	0x3c8fe27f	0.017564056
13	0x3c829084	0.015938051
14	0x3cf6c7e3	0.03012461
15	0xbca480f3	-0.020081019
16	0xbcd5f576	-0.026118021
17	0xbd6b9e10	-0.057523787
18	0x3d8a8de9	0.067653485
19	0x3d4d4d8a	0.050122775
20	0x3d9712aa	0.07376607
21	0xbcaa4a16	-0.02078728
22	0xbc83a82c	-0.016071402
23	0x3ca73d54	0.020414986
24	0x3d8b0445	0.06787924
25	0xbd9f67b0	-0.07783449
26	0xbc82d31f	-0.015969811
27	0x3cf0c550	0.029390961
28	0x3cd4b772	0.02596638
29	0x3d9cdaef	0.07658946
30	0x3d17642e	0.036960773
31	0x3d628c34	0.05530949
32	0x3daa53e9	0.08316786
33	0xbd9857fd	-0.074386574
34	0x3cf85d4d	0.030317927
35	0x3d05c5ed	0.03265946
36	0xbd3fc691	-0.046820227
37	0xbd3e9250	-0.046526253
38	0xbc694979	-0.014238709
39	0x3c5bbf19	0.01341226
40	0x3d66cea4	0.05634941
41	0x3d2c5319	0.042071436
42	0xbd0646fb	-0.032782536
43	0x3b95969e	0.004565074
44	0xbd00102e	-0.03126543
45	0x3d3b8580	0.045781612
46	0x3caf8abc	0.021428458
47	0xbb013490	-0.0019715168
48	0x3bf68e84	0.0075243134
49	0x3d563731	0.05229873
50	0xbd3a16dc	-0.045431957
51	0x3d1200e9	0.0356454
52	0xbb73561f	-0.003713019
53	0x3d9067f3	0.07051077
54	0x3ca2266f	0.019793717
55	0xbd859bc2	-0.06523849
56	0xbd375f05	-0.044768352
57	0xbd82f94b	-0.06395205
58	0xbd599b58	-0.053126663
59	0x3d8c165f	0.068402044
60	0xbcec4595	-0.028841773
61	0xbd72f491	-0.059315268
62	0xbd44cf9e	-0.04804956
63	0xbd8746a7	-0.06605273
64	0x3b381bec	0.0028092815
65	0xbd91041b	-0.07080861
66	0xbc8b4c87	-0.017004265
67	0xbd8158ce	-0.06315766
68	0xbba1166b	-0.0049160025
69	0xbda3e38c	-0.080023855
70	0x3bb9a901	0.005665899
71	0x3d4f862a	0.05066506
72	0xbca53aef	-0.020169703
73	0x3d197a11	0.037469927
74	0x3d0bb46d	0.034107614
75	0xbd1932b7	-0.03740188
76	0x3c926357	0.017869635
77	0xbc088dea	-0.008334616
78	0x3d61f32c	0.055163547
79	0x3d9697a4	0.07353142
80	0x3d98f197	0.074679546
81	0x3c2e2437	0.0106287515
82	0xbd9ea0d5	-0.0774552
83	0x3d73c5f3	0.05951495
84	0x392c6788	0.00016441767
85	0xbd6c2b55	-0.057658512
86	0x3d6bc1ad	0.05755775
87	0x3d056406	0.032566093
88	0xbd8f0438	-0.069832265
89	0x3d9d910d	0.07693682
90	0x3d97aeb0	0.07406366
91	0x3d2a882c	0.04163377
92	0x3c587d32	0.013213443
93	0x3d1409c8	0.03614214
94	0x3c2a80d9	0.010406696
95	0xbd97b0f2	-0.074067965
96	0x3d9d5af0	0.076833606
97	0xbc021c8a	-0.007941375
98	0xbd4c1d4e	-0.049832635
99	0xbd02f98f	-0.03197628
100	0xba807b56	-0.0009802382
101	0x3da591d1	0.08084453
102	0x3cda0ab7	0.026616437
103	0xbd49ec23	-0.049297463
104	0xbd3c0746	-0.045905374
105	0xbd2f5c09	-0.04281238
106	0x3d1c5bcf	0.038173493
107	0x3d3cd0d1	0.04609758
108	0xbda47678	-0.080304086
109	0x3b5cda53	0.0033699467
110	0xbc0a835a	-0.008454168
111	0x3d9399db	0.0720708
112	0xbb6ea2d5	-0.0036412973
113	0x3cc2fd4c	0.023802422
114	0x3cb7b997	0.022427363
115	0xbd90d006	-0.07070927
116	0xbc42235c	-0.011849251
117	0x3d966da9	0.07345135
118	0x3d2a94cc	0.04164581
119	0x3d647b73	0.055781793
120	0xbb97f023	-0.004636781
121	0x3d843df3	0.064571284
122	0x3cacd410	0.021097213
123	0xbd70213d	-0.05862545
124	0xbd3c5dba	-0.045987822
125	0xbd8d3022	-0.06893946
126	0xbd981bcb	-0.07427176
127	0x3c980351	0.018556269
128	0xbd9b3f3e	-0.07580422
129	0xbd8a4786	-0.06751923
130	0xbcc23d9e	-0.023711022
131	0xbd6ba66a	-0.05753175
132	0x3d8dafc5	0.06918291
133	0x3d10ba53	0.035333943
134	0xbab940cb	-0.001413369
135	0xbd9662f2	-0.07343091
136	0x3c511d78	0.012763374
137	0x3da2747b	0.07932373
138	0x3ba57603	0.0050494685
139	0x3c41b677	0.011823288
140	0x3c2bc31a	0.010483528
141	0xbd4b7446	-0.049671434
142	0xbd70c8f5	-0.058785398
143	0xbd5726de	-0.0525273
144	0x3d007466	0.031361006
145	0xbd59b24d	-0.053148557
146	0x3d9d1229	0.076694794
147	0xbc827d22	-0.015928809
148	0xbd8040e0	-0.06262374
149	0x3c92dfd8	0.017929003
150	0x3cf8f136	0.030388456
151	0x3d99af6f	0.075041644
152	0xbcd86b5d	-0.026418382
153	0x3da06fa1	0.078337915
154	0x3d86847c	0.06568238
155	0x3d51bbac	0.05120437
156	0xbc1c2095	-0.009529253
157	0xbd87630b	-0.06610688
158	0xbdafb787	-0.08579927
159	0x3d820f75	0.063506044
160	0xbc3beb0f	-0.011469617
161	0xbc43063c	-0.011903342
162	0x3d37375c	0.04473053
163	0x3d773661	0.060354594
164	0xbb49afb1	-0.0030774886
165	0xbd5ebc42	-0.054378755
166	0x3d74d399	0.059772108
167	0x3cf23918	0.02956824
168	0x3d758970	0.059945524
169	0x3d895f46	0.06707625
170	0x3d1c9ca8	0.038235337
171	0xbd55fd79	-0.052243683
172	0x3d5fee57	0.054670658
173	0xbc88e9f9	-0.01671313
174	0xbd26bcd4	-0.040707424
175	0xbd483ecc	-0.048888013
176	0x3d564dad	0.05232017
177	0xbd63d9a0	-0.055627465
178	0xbd1c54d3	-0.038166832
179	0xbd8b307d	-0.06796358
180	0xbc10a3ae	-0.008828087
181	0xbda16e3c	-0.07882354
182	0xbd72c69b	-0.059271436
183	0x3c700984	0.014650706
184	0x3d49660a	0.049169578
185	0xbd766135	-0.060151298
186	0x3ac644e8	0.0015126737
187	0x3d884e15	0.06655518
188	0x3d91e84a	0.07124384
189	0x3cf44ae6	0.02982087
190	0x3bf7b416	0.0075593097
191	0x3d950b1c	0.072775096
192	0x3c3b1bd9	0.011420214
193	0xbbe79119	-0.0070668575
194	0xbd67f360	-0.056628585
195	0xbb974d35	-0.004617358
196	0xbcc64a78	-0.024205431
197	0xbc250232	-0.010071324
198	0xbd6b1060	-0.057388663
199	0xbcc77e48	-0.024352208

net.1.weight f4 [200]
0	0x3f7f260d	0.99667436
1	0x3f7ea59b	0.99471444
2	0x3f7e0ed1	0.9924136
3	0x3f812db2	1.009207
4	0x3f7f75f6	0.9978937
5	0x3f7de0e0	0.99171257
6	0x3f813118	1.0093107
7	0x3f812475	1.0089251
8	0x3f801b68	1.0008364
9	0x3f7f23c4	0.9966395
10	0x3f81487b	1.0100244
11	0x3f81400e	1.0097673
12	0x3f7e7226	0.99392927
13	0x3f816e90	1.0111866
14	0x3f805339	1.0025398
15	0x3f80768c	1.0036178
16	0x3f809d78	1.0048056
17	0x3f7f9cbb	0.99848527
18	0x3f7f1188	0.99636126
19	0x3f80005f	1.0000113
20	0x3f7fdca2	0.99946034
21	0x3f7f209f	0.9965915
22	0x3f7f1227	0.99637073
23	0x3f81bed5	1.0136362
24	0x3f8033c2	1.0015795
25	0x3f7fbb76	0.9989542
26	0x3f7dfa9d	0.9921053
27	0x3f8015e7	1.0006684
28	0x3f806a49	1.0032436
29	0x3f7e1d3a	0.99263346
30	0x3f81363e	1.0094678
31	0x3f806236	1.0029972
32	0x3f8000d6	1.0000255
33	0x3f80d448	1.0064783
34	0x3f801ced	1.0008827
35	0x3f812562	1.0089533
36	0x3f80117f	1.0005339
37	0x3f8134d6	1.0094249
38	0x3f7fcd74	0.9992287
39	0x3f7fe33a	0.99956095
40	0x3f805424	1.0025678
41	0x3f8018e3	1.0007595
42	0x3f7f3edf	0.9970531
43	0x3f7dc1cf	0.99123853
44	0x3f815a0c	1.0105605
45	0x3f811cd8	1.0086927
46	0x3f806a25	1.0032393
47	0x3f81bcfc	1.0135798
48	0x3f7eec79	0.9957958
49	0x3f80baf9	1.005706
50	0x3f7f6315	0.9976056
51	0x3f7e7aac	0.9940593
52	0x3f7f8531	0.9981261
53	0x3f80225b	1.0010484
54	0x3f8077fc	1.0036616
55	0x3f8133fa	1.0093987
56	0x3f8166b7	1.0109471
57	0x3f80f1e4	1.0073819
58	0x3f806857	1.0031842
59	0x3f7e8b73	0.9943153
60	0x3f7f9d0c	0.9984901
61	0x3f81023d	1.0078808
62	0x3f80b44f	1.0055026
63	0x3f80de8f	1.006792
64	0x3f8025dc	1.0011554
65	0x3f80032c	1.0000968
66	0x3f7ea915	0.9947675
67	0x3f7ded28	0.99189997
68	0x3f7f7bb7	0.9979815
69	0x3f80ff00	1.007782
70	0x3f80da65	1.0066649
71	0x3f801e8f	1.0009326
72	0x3f7f104c	0.9963424
73	0x3f7e8781	0.9942551
74	0x3f806a51	1.0032445
75	0x3f7ed574	0.99544454
76	0x3f802277	1.0010518
77	0x3f7f6ab6	0.997722
78	0x3f80dc12	1.006716
79	0x3f8012b9	1.0005714
80	0x3f80d286	1.0064247
81	0x3f80a6e3	1.005093
82	0x3f812b72	1.0091383
83	0x3f80cbd9	1.0062209
84	0x3f7d3b39	0.9891849
85	0x3f7f713f	0.99782175
86	0x3f7f8c03	0.99823016
87	0x3f7e45a8	0.99325037
88	0x3f811e7e	1.008743
89	0x3f80e450	1.0069675
90	0x3f807252	1.0034888
91	0x3f7fcafb	0.999191
92	0x3f7f5dd4	0.99752545
93	0x3f7e1260	0.9924679
94	0x3f805919	1.002719
95	0x3f816cce	1.011133
96	0x3f7fa519	0.99861294
97	0x3f803570	1.0016308
98	0x3f7da268	0.9907594
99	0x3f7f84f0	0.9981222
100	0x3f7c5b07	0.98576397
101	0x3f7fabd3	0.9987156
102	0x3f8094c3	1.0045398
103	0x3f808eb0	1.0043545
104	0x3f7ff09c	0.99976516
105	0x3f8142b1	1.0098478
106	0x3f7f66d9	0.9976631
107	0x3f8037c6	1.0017021
108	0x3f7fa1da	0.9985634
109	0x3f7df8d9	0.99207836
110	0x3f7ee08c	0.9956138
111	0x3f7e89d2	0.9942905
112	0x3f803516	1.00162
113	0x3f7f0ab9	0.99625736
114	0x3f7f9513	0.99836844
115	0x3f7e15f8	0.9925227
116	0x3f7f38f7	0.99696296
117	0x3f7e6552	0.9937335
118	0x3f7f370b	0.99693364
119	0x3f80d880	1.006607
120	0x3f7f5c03	0.99749774
121	0x3f80e2b8	1.0069189
122	0x3f7f199a	0.9964844
123	0x3f806cf5	1.0033251
124	0x3f807c8c	1.0038009
125	0x3f7fdb3c	0.999439
126	0x3f80d1b9	1.0064002
127	0x3f80d0d3	1.0063728
128	0x3f806fa0	1.0034065
129	0x3f805c6f	1.0028208
130	0x3f7f5c96	0.9975065
131	0x3f800596	1.0001705
132	0x3f7da5d7	0.99081177
133	0x3f7e024c	0.99222255
134	0x3f7f165b	0.99643487
135	0x3f7fc45a	0.99908984
136	0x3f8079b7	1.0037144
137	0x3f80f6e9	1.0075351
138	0x3f7fc5de	0.99911296
139	0x3f8038d9	1.0017349
140	0x3f7ea4f8	0.9947047
141	0x3f803206	1.0015266
142	0x3f7fde96	0.99949014
143	0x3f809b52	1.00474
144	0x3f7fab35	0.99870616
145	0x3f7de7c9	0.991818
146	0x3f8192e3	1.0122951
147	0x3f7d2097	0.98877853
148	0x3f8008be	1.0002668
149	0x3f810436	1.007941
150	0x3f7fcd71	0.99922854
151	0x3f80dc48	1.0067225
152	0x3f7fe2d1	0.9995547
153	0x3f801769	1.0007144
154	0x3f7f571e	0.99742305
155	0x3f7eddd8	0.99557257
156	0x3f7d9892	0.9906093
157	0x3f80dbf1	1.0067121
158	0x3f81df79	1.0146323
159	0x3f7f4f17	0.99730057
160	0x3f7f719b	0.99782723
161	0x3f809374	1.0044999
162	0x3f7ddde3	0.991667
163	0x3f8154d6	1.0104015
164	0x3f7fd13c	0.9992864
165	0x3f7e56ba	0.99351084
166	0x3f80b2b2	1.0054533
167	0x3f81256c	1.0089545
168	0x3f7edf1a	0.99559176
169	0x3f8073d7	1.0035352
170	0x3f7e1702	0.9925386
171	0x3f7fb116	0.99879587
172	0x3f801fb0	1.000967
173	0x3f7dea8d	0.9918602
174	0x3f7ebb5b	0.9950463
175	0x3f81cfa9	1.0141498
176	0x3f7fd98a	0.99941313
177	0x3f80b5fb	1.0055536
178	0x3f7f5495	0.99738437
179	0x3f7fea3e	0.999668
180	0x3f802a56	1.001292
181	0x3f80bee5	1.0058256
182	0x3f7f08e1	0.99622923
183	0x3f81f308	1.0152292
184	0x3f7e89bc	0.99428916
185	0x3f80ba21	1.0056802
186	0x3f7dcb28	0.99138117
187	0x3f807a80	1.0037384
188	0x3f7d6792	0.9898616
189	0x3f802dee	1.0014017
190	0x3f7f7ccd	0.99799806
191	0x3f80d9a6	1.0066421
192	0x3f812d9c	1.0092044
193	0x3f7e3ccb	0.9931151
194	0x3f7f2483	0.9966509
195	0x3f80dff1	1.0068341
196	0x3f7fc62d	0.9991177
197	0x3f7e4a4a	0.99332106
198	0x3f80d0ef	1.0063761
199	0x3f804e32	1.0023863

net.1.bias f4 [200]
0	0xbb4e009b	-0.0031433466
1	0xbb2b51d5	-0.0026141305
2	0xbaf8cf61	-0.0018982702
3	0x3bc90ff7	0.0061359364
4	0x3bb672b9	0.005567875
5	0xbba9fad1	-0.0051873703
6	0x3bbe2094	0.0058022235
7	0x3bef85dc	0.0073096585
8	0x3ad3bc27	0.0016154096
9	0x3bc46b37	0.0059942263
10	0x3c90d235	0.01767836
11	0x3c6d3512	0.014477985
12	0xb806bbb1	-3.212289e-05
13	0x3bc0f646	0.005888733
14	0xbbb2b3ab	-0.005453547
15	0x3bedc1e7	0.007255781
16	0x3c0d8182	0.008636834
17	0x3ac8005b	0.0015258895
18	0x3b78c1f2	0.0037957397
19	0xb883cd6a	-6.284828e-05
20	0x3b41693a	0.0029512183
21	0x3b1afef0	0.002365049
22	0xbc4112aa	-0.011784235
23	0x3c51938d	0.0127915265
24	0x3b060beb	0.002045388
25	0xba7ffc7c	-0.0009765101
26	0xbb0b260e	-0.00212324
27	0x3b7da506	0.0038703098
28	0x3c24776a	0.010038236
29	0xbada4473	-0.001665248
30	0x3c16152b	0.00916032
31	0x3b2a1cb6	0.0025957054
32	0x3ad69e02	0.0016373994
33	0x3ba63927	0.005072731
34	0x3bd17b93	0.006392905
35	0x3c869848	0.016430035
36	0x3befcd94	0.007318208
37	0x3c7c164f	0.015386178
38	0x39e704a3	0.00044063208
39	0x3c2eab12	0.0106609035
40	0x3aeb948f	0.0017973351
41	0xba499d9a	-0.0007691026
42	0x3b9eeb2f	0.0048498134
43	0xbb3cc2c5	-0.0028802615
44	0x3ba9c27e	0.005180656
45	0x3b85d9a7	0.004084784
46	0x3bb01337	0.0053733843
47	0x3c23b761	0.009992451
48	0x3b4b0e41	0.0030983838
49	0x3bef960e	0.007311589
50	0xbb5136af	-0.0031923463
51	0xbba74696	-0.00510485
52	0xbb7fd007	-0.0039033906
53	0xbbb216a9	-0.00543483
54	0x3c13a782	0.009012105
55	0x3a16632d	0.0005736824
56	0x3c5a0271	0.013306246
57	0x3ba00ad9	0.0048841056
58	0x3c3383dd	0.010956732
59	0xbb9f9f31	-0.004871272
60	0x3b1d26c1	0.0023979398
61	0x3c0cdcad	0.008597535
62	0x3bc11ee5	0.0058935755
63	0x3c15b7c3	0.0091380505
64	0x3b8a460b	0.0042197756
65	0xb91bbe3c	-0.0001485282
66	0xbab066c9	-0.0013458367
67	0x3b253f6e	0.002521481
68	0x3badc713	0.0053032725
69	0x3b379b94	0.0028016316
70	0x3a483cbd	0.0007638445
71	0x3bfecd90	0.00777597
72	0xbb63f147	-0.0034781264
73	0xbb5a579c	-0.003331638
74	0x3ac6d3fa	0.0015169375
75	0xbc3899d1	-0.011267141
76	0x3b92d276	0.0044806553
77	0x3b8693c6	0.0041069714
78	0x3c222c6c	0.009898286
79	0x3bca44ed	0.0061727674
80	0x3972d88c	0.00023159588
81	0x392935c1	0.00016137121
82	0x3c095b0a	0.008383522
83	0x3c0a2251	0.008431033
84	0xbb725b48	-0.0036980677
85	0x3beb443e	0.007179766
86	0x3b6ef338	0.0036460888
87	0xbbce32aa	-0.0062926607
88	0x3c3b850a	0.011445293
89	0x3be048c2	0.006844611
90	0x3baecf7b	0.005334792
91	0x3af8b60c	0.0018975153
92	0xbb9e021a	-0.004822028
93	0xbc185e97	-0.009299896
94	0x3b8bc06f	0.004264883
95	0x3bf4fbd4	0.0074763093
96	0xbb8b296e	-0.004246882
97	0x3bebb698	0.0071933977
98	0xbc32688f	-0.0108891865
99	0x3a1213c5	0.0005572404
100	0xbc69a7f2	-0.014261233
101	0x3b7e5dfc	0.0038813343
102	0x3b766f0c	0.003760281
103	0x3b9568de	0.0045596203
104	0x3aeff5c3	0.0018307496
105	0x3c5ae998	0.013361357
106	0x3be318c7	0.006930444
107	0x3be54651	0.0069969078
108	0x3bcc2c83	0.006230892
109	0xbb2442e2	-0.002506428
110	0x3a724aa4	0.00092426897
111	0x38eef56f	0.0001139444
112	0x3b7070a9	0.0036688244
113	0xbbfddb29	-0.007747073
114	0xbb543a67	-0.0032383443
115	0xbb125f58	-0.0022334661
116	0x3b10e2ce	0.0022107842
117	0xbb66ed35	-0.0035236601
118	0xb924df6a	-0.00015723487
119	0x3ba55d0d	0.005046493
120	0x3a1ba0b9	0.00059367303
121	0x3ab70802	0.0013964179
122	0x3b9282d0	0.0044711605
123	0x3c1924c4	0.0093471445
124	0x3a9063ad	0.0011016034
125	0x3c0a04be	0.008423982
126	0x3c526819	0.012842202
127	0x3bb47429	0.0055070114
128	0x3b578b2e	0.0032889354
129	0x3ac147ba	0.0014746108
130	0xbb479096	-0.003045117
131	0x3c12622e	0.008934541
132	0xbb3ee7e7	-0.0029129924
133	0xbba2e330	-0.0049709305
134	0x3abdefdf	0.0014491043
135	0x3b8bc6ae	0.004265628
136	0x3a33a6c0	0.0006853156
137	0x3c15817d	0.009125111
138	0x3b7a1a09	0.003816249
139	0x3b1110c6	0.0022135242
140	0x3ae30a7b	0.0017321849
141	0x3ba27bde	0.004958614
142	0xbb83312b	-0.004003664
143	0x3b34ef32	0.0027608392
144	0xba378355	-0.0007000466
145	0xbbe4a0c2	-0.0069771716
146	0x3bed4424	0.007240789
147	0xbac752c8	-0.0015207166
148	0x3bde8a7a	0.00679141
149	0x3bcd2dfd	0.0062615857
150	0xb909d5a7	-0.0001314493
151	0x3bf3de0b	0.007442241
152	0x3be476c2	0.006972165
153	0x3bc825dd	0.0061080293
154	0xbbd31321	-0.0064414893
155	0x397a9f35	0.00023901167
156	0xb9d618b1	-0.00040835657
157	0x3ba6f5f1	0.0050952365
158	0x3c7b5067	0.015338994
159	0x39dc7527	0.00042048955
160	0xbade41dc	-0.0016956883
161	0x3c21090e	0.009828819
162	0xbbb03357	-0.005377214
163	0x3c110138	0.008850388
164	0xba627d4f	-0.0008639888
165	0xbbedb6d1	-0.0072544594
166	0x3c091f88	0.008369334
167	0x3c1bdbd4	0.00951286
168	0x399c6f82	0.00029837718
169	0x3bf240a8	0.0073929615
170	0x3ba40ad3	0.005006173
171	0x3b638200	0.0034714937
172	0x3bc0633c	0.0058712047
173	0xbbf184c2	-0.0073705623
174	0xbb30cd02	-0.0026977663
175	0x3c403ede	0.011733739
176	0xbb43140b	-0.0029766585
177	0x3c2f732d	0.010708612
178	0x3b061224	0.002045759
179	0x3bc4992d	0.0059997053
180	0xbaa5b894	-0.001264351
181	0x3c20d189	0.009815582
182	0xba5f6ea6	-0.0008523263
183	0x3c1dd1d6	0.009632548
184	0xbc3d4bce	-0.011553718
185	0x3c254d30	0.010089204
186	0xbc6a7972	-0.014311181
187	0x3b835da4	0.0040089656
188	0x3b233bf3	0.0024907559
189	0x3b9f2c29	0.004857559
190	0xba5dadfd	-0.0008456407
191	0x3c2efa39	0.010679775
192	0x3be89f93	0.007099101
193	0x3a299958	0.00064696884
194	0x3bb6aa43	0.005574496
195	0x3bfc92dd	0.007707937
196	0x3c08a599	0.008340263
197	0x378244c7	1.5529235e-05
198	0x3b9480c2	0.0045319507
199	0x3c113b4a	0.008864233

net.1.running_mean f4 [200]
0	0x3e2e2e29	0.17009796
1	0xbbe04fdb	-0.006845457
2	0x3b001397	0.0019542926
3	0xbe3451ac	-0.1760928
4	0xbd91e797	-0.071242504
5	0x3ce9e806	0.02855302
6	0x3d9f7f31	0.07787932
7	0xbbfc3306	-0.007696512
8	0x3e0d2f68	0.13787615
9	0x3c7ef2a5	0.015560781
10	0x3cd1eee3	0.025626605
11	0x3e0f7387	0.14008914
12	0x3cfc22d7	0.030778332
13	0x3c226f24	0.009914193
14	0x3cca57d3	0.024700081
15	0xbdb81872	-0.089890376
16	0xbd0125bd	-0.03153013
17	0xbda4b89d	-0.08043025
18	0x3db8c422	0.09021784
19	0x3da30125	0.07959203
20	0xbbe8ffd5	-0.0071105757
21	0xbd12d95c	-0.03585182
22	0x3dc1628f	0.09442627
23	0x3d8c6d0a	0.06856735
24	0xbd26c559	-0.04071555
25	0xbd449f84	-0.04800369
26	0x3d61aba9	0.05509535
27	0x3ddd4a59	0.10805196
28	0xbcf71a59	-0.03016393
29	0x3deeab41	0.11653758
30	0x3de2b226	0.11069135
31	0x3ddbedd3	0.10738721
32	0x3e18038e	0.14845106
33	0xbd16bb30	-0.03679961
34	0x3cee98f1	0.029125663
35	0x3d4343f8	0.047672242
36	0xbe053df4	-0.13011914
37	0xbd1563b1	-0.036472026
38	0x3c3466c6	0.011010831
39	0x3c75f704	0.015012506
40	0x3deae95d	0.11470292
41	0x3cc6dead	0.024276102
42	0x3c9b2540	0.01893866
43	0xbd046312	-0.032321043
44	0xbdb28129	-0.087160416
45	0x3d3006a8	0.042975098
46	0xbc883871	-0.016628476
47	0xbe009aa5	-0.12558992
48	0x3cf2f96b	0.029659947
49	0x3cbc43e1	0.022981586
50	0x3daaf4a5	0.083474435
51	0xb9d97b4e	-0.00041481334
52	0x3c135112	0.008991497
53	0x3df6ee4e	0.12057172
54	0xbd9616bb	-0.07328554
55	0xbd49892b	-0.04920308
56	0xbd947387	-0.072485976
57	0xbd978c70	-0.07399833
58	0xbda6f0a8	-0.0815137
59	0x3d477bd1	0.048702065
60	0xbcdbeb91	-0.026845725
61	0xbcbfebcd	-0.023427868
62	0xbd4e92b5	-0.05043288
63	0xbdb49ec9	-0.08819348
64	0xbb7f914a	-0.003899651
65	0xbccf2ee6	-0.025290918
66	0xbb7d4ed6	-0.0038651726
67	0xbe0003d3	-0.12501459
68	0xbd052396	-0.03250464
69	0xbdd76ca5	-0.10518769
70	0xbd7e3a52	-0.062067337
71	0x3ddb3f1c	0.107053965
72	0xbdcd7493	-0.100320004
73	0x3da51688	0.08060938
74	0x3bdfcb8e	0.0068296855
75	0x3cdfc253	0.02731434
76	0x3ddb582f	0.10710179
77	0xbd9f80d6	-0.077882454
78	0x3e045bb4	0.12925607
79	0x3dc025a6	0.09382181
80	0x3e6582db	0.22413199
81	0x3e043eab	0.12914531
82	0xbe12c12f	-0.14331506
83	0xbc08b1a1	-0.008343131
84	0xbca75457	-0.020425959
85	0xbd975336	-0.07388918
86	0x3cc1c2f6	0.023652535
87	0x3e6a2a1a	0.22867623
88	0xbcaaad50	-0.020834595
89	0x3ddc2fc7	0.107513
90	0x3d898181	0.06714154
91	0x3d6dbd3f	0.058041807
92	0xbdc6f251	-0.09714187
93	0xbb9cb79e	-0.004782631
94	0xbb3b9cc9	-0.0028627387
95	0xbe07a828	-0.1324774
96	0x3d4f0b29	0.050547753
97	0x3da12de1	0.07870079
98	0xbdd1c575	-0.1024274
99	0x3ce54a6f	0.027989594
100	0x3e3f2780	0.18667412
101	0x3d86be59	0.06579275
102	0xbd1cdd77	-0.038297143
103	0xbd6a95de	-0.05727183
104	0xbd4cc3ff	-0.049991604
105	0xbce0f7c8	-0.027461901
106	0xbcb925f4	-0.022601105
107	0x3e04f372	0.12983492
108	0xbd965126	-0.073396966
109	0xbbd96cf4	-0.0066353027
110	0xbd98841f	-0.07447075
111	0xbd0f2f1d	-0.03495704
112	0x3d827d10	0.0637151
113	0x3d1f55aa	0.038900055
114	0x3e35416e	0.1770074
115	0xbdce42f1	-0.10071362
116	0xbd7a26c8	-0.06107214
117	0x3d5d4ba7	0.054027226
118	0x3e016a3d	0.12638183
119	0x3d9ee58d	0.07758627
120	0xbd41952f	-0.047261413
121	0xbd084247	-0.033266332
122	0xbdcf2649	-0.10114724
123	0xbdde0814	-0.108413845
124	0x3bb9dcf6	0.0056720925
125	0xbe11d9d7	-0.14243256
126	0x3d07e2f1	0.033175413
127	0x3d5b4891	0.053536
128	0x3883c0b8	6.2824634e-05
129	0xbd81af0a	-0.06332214
130	0xbe0772fd	-0.13227458
131	0xbd0eeefc	-0.034895882
132	0x3e8fe9ee	0.28108162
133	0x3d491fa4	0.04910244
134	0x3d6278b8	0.055290908
135	0xbdb58b05	-0.088644065
136	0x3ded70c0	0.11593771
137	0x3dc478a8	0.09593326
138	0x3d88cf23	0.06680133
139	0xbd31698e	-0.043313555
140	0x3c9bcd53	0.019018805
141	0x3d10197f	0.035180565
142	0xbda2c8ad	-0.07948432
143	0xbd97c87b	-0.074112855
144	0x3b112c8b	0.0022151794
145	0xbd6fc1f0	-0.058534563
146	0x3e07df58	0.13268793
147	0xbe197d35	-0.14989169
148	0x3bb81373	0.005617553
149	0x3d1fb528	0.038991123
150	0x3d342c91	0.043987814
151	0x3d0362aa	0.032076515
152	0x3d2720cd	0.040802766
153	0x3d06e8b5	0.03293677
154	0x3ddbef8d	0.1073905
155	0x3d8338ed	0.06407342
156	0xbdd7f4ae	-0.10544716
157	0xbd9ca48a	-0.07648571
158	0xbdcba6ae	-0.09943901
159	0x3d4b5b32	0.049647518
160	0x3d48ea7e	0.049051754
161	0x3defe6c3	0.11713936
162	0x3dae2aaa	0.08504231
163	0x3d83cca4	0.064355165
164	0x3d95756a	0.072977856
165	0xbd4852fd	-0.04890727
166	0x3cd94b13	0.026525056
167	0xbc5f83f9	-0.013642305
168	0x3dc29703	0.095014594
169	0xbcb3e26e	-0.021958556
170	0xbb1ef15f	-0.0024252755
171	0x3c13503b	0.008991296
172	0xbc0da3d5	-0.008645018
173	0xbd4d53ad	-0.050128628
174	0x3d1ee357	0.038791027
175	0x3d83fd03	0.064447425
176	0x3e03f941	0.12888052
177	0xbd99a175	-0.075014986
178	0x3d4de375	0.050265748
179	0xbdceb9fc	-0.100940675
180	0x3d50a010	0.050933897
181	0xbdeb9fad	-0.11505065
182	0xbd8c32e8	-0.06845647
183	0x3d8b1d65	0.06792716
184	0x3dede640	0.11616182
185	0xbdbebc32	-0.09313239
186	0xbd3a00f2	-0.045411058
187	0x3d149ddd	0.036283363
188	0x3d064734	0.03278275
189	0xbd5378e5	-0.051628966
190	0xbd9c5516	-0.07633416
191	0x3df9cf2b	0.12197717
192	0xbd6afcd6	-0.05737003
193	0x3d093706	0.03349974
194	0x3ce765a4	0.028246708
195	0x38a88c7b	8.037031e-05
196	0x3ae9bfdd	0.0017833669
197	0xbd8f73d7	-0.070045166
198	0x3d47e05d	0.048797954
199	0x3cc72e62	0.02431411

net.1.running_var f4 [200]
0	0x3dc69fdf	0.09698462
1	0x3d0a809b	0.033814054
2	0x3ce5a786	0.028033983
3	0x3d33683f	0.04380059
4	0x3d539dab	0.051664036
5	0x3c88fac7	0.016721142
6	0x3cee3678	0.029078707
7	0x3ce6628b	0.02812316
8	0x3da1dc0b	0.07903298
9	0x3cbe0a0f	0.023198156
10	0x3cd1ccb1	0.0256103
11	0x3d326493	0.043552946
12	0x3ca9a4fa	0.02070855
13	0x3c454451	0.012040214
14	0x3d163b08	0.03667739
15	0x3d8b1d55	0.06792704
16	0x3c954279	0.018220173
17	0x3cd3f03b	0.025871387
18	0x3c87f312	0.016595397
19	0x3d51ab5f	0.051188823
20	0x3c568aa3	0.013094577
21	0x3d29dfec	0.041473314
22	0x3d7dbad9	0.06194577
23	0x3d5aedbb	0.053449374
24	0x3d15517f	0.036454674
25	0x3d36bcff	0.044613834
26	0x3ced2344	0.02894748
27	0x3d1b91d2	0.037980862
28	0x3d2fd083	0.04292346
29	0x3d8577c3	0.06516983
30	0x3cf73d2e	0.03018054
31	0x3cb75004	0.022377022
32	0x3d829d68	0.06377679
33	0x3d408af4	0.047007516
34	0x3ce2ed44	0.027701028
35	0x3ce53988	0.027981535
36	0x3cf53522	0.029932562
37	0x3cce2b13	0.025167024
38	0x3ca36836	0.019947153
39	0x3c813665	0.015773008
40	0x3caef8c9	0.021358864
41	0x3ca1b113	0.019737756
42	0x3cce6239	0.02519332
43	0x3cb13a91	0.021634372
44	0x3c84a0f4	0.01619003
45	0x3d086b22	0.033305295
46	0x3cc08ef3	0.023505663
47	0x3d4f69ea	0.050638117
48	0x3cc6cfa9	0.024268942
49	0x3c683f87	0.014175302
50	0x3ce1d1c7	0.02756585
51	0x3c945fa8	0.018112019
52	0x3d9c4b1c	0.076315135
53	0x3d5a4e97	0.053297605
54	0x3ce82274	0.028336741
55	0x3cde263b	0.02711784
56	0x3ca4ca45	0.02011598
57	0x3d094210	0.033510268
58	0x3cafea42	0.021474008
59	0x3cada3b0	0.021196216
60	0x3cb06df9	0.021536814
61	0x3c42ef06	0.011897808
62	0x3c983eb8	0.018584594
63	0x3cb1398e	0.02163389
64	0x3d374bcd	0.044750024
65	0x3c8cccc6	0.017187487
66	0x3d32a169	0.043610964
67	0x3d1ee51d	0.03879272
68	0x3c567477	0.013089291
69	0x3c94f4e0	0.018183172
70	0x3c5cff08	0.013488539
71	0x3ce0c748	0.027438775
72	0x3d3fa48b	0.04678778
73	0x3d03910f	0.03212076
74	0x3cc1513f	0.023598311
75	0x3e6d0392	0.23145893
76	0x3c8c8d8b	0.017157337
77	0x3ced2af8	0.028951153
78	0x3d42aff4	0.047531083
79	0x3c21f157	0.0098842
80	0x3ccfa175	0.025345543
81	0x3cf459e7	0.029828025
82	0x3d14140c	0.03615193
83	0x3ce6c6a8	0.028170899
84	0x3d0cbc12	0.034359045
85	0x3cb9d315	0.02268366
86	0x3d3c1f41	0.045928244
87	0x3db9cbec	0.09072098
88	0x3c773ed4	0.015090663
89	0x3d243991	0.040093962
90	0x3c10aa92	0.00882973
91	0x3c41cc8a	0.011828551
92	0x3d10d051	0.035354916
93	0x3d2001ce	0.03906422
94	0x3d13bb8a	0.036067523
95	0x3c7b7b60	0.015349239
96	0x3bb53822	0.005530373
97	0x3d343c06	0.044002555
98	0x3d22dba3	0.039760243
99	0x3d9b984d	0.075974084
100	0x3dc95dcf	0.09832346
101	0x3c749d38	0.014930062
102	0x3ca53b93	0.020170009
103	0x3cd151b2	0.02555165
104	0x3c56fde4	0.013122056
105	0x3c35c1f7	0.011093608
106	0x3cb584c8	0.022158042
107	0x3d2902b6	0.04126235
108	0x3c56377e	0.013074754
109	0x3ce15f08	0.027511135
110	0x3d1fad52	0.03898365
111	0x3e229608	0.15877545
112	0x3d6d6c45	0.057964582
113	0x3cde95ee	0.027171101
114	0x3d8d57ed	0.06901536
115	0x3c7d0539	0.01544314
116	0x3cba3224	0.022728987
117	0x3c841e12	0.01612762
118	0x3cf6af60	0.030112922
119	0x3c2b4048	0.010452338
120	0x3c252ee4	0.01008198
121	0x3c2317bb	0.009954388
122	0x3daa20d1	0.083070405
123	0x3c393862	0.011304947
124	0x3c244f1a	0.010028625
125	0x3e1bd5de	0.15218303
126	0x3d5c5648	0.05379322
127	0x3ced0428	0.028932646
128	0x3d1ebabe	0.03875231
129	0x3c447f75	0.011993279
130	0x3d81cb54	0.0633761
131	0x3d406ff7	0.046981778
132	0x3e204899	0.15652694
133	0x3cfb7bad	0.030698622
134	0x3c28a877	0.010294071
135	0x3cfd9cb5	0.030958513
136	0x3d68253c	0.056676134
137	0x3c0b9a3b	0.008520658
138	0x3c872c1f	0.01650053
139	0x3d1f07c8	0.03882578
140	0x3d035d16	0.032071196
141	0x3d168aa2	0.036753304
142	0x3cb54ac3	0.022130376
143	0x3cc6f387	0.024286045
144	0x3c34057d	0.010987637
145	0x3cd7bdcf	0.026335625
146	0x3cc086a2	0.023501698
147	0x3d172056	0.036896072
148	0x3d3e263a	0.046423174
149	0x3cb55de6	0.0221395
150	0x3cc6915a	0.02423923
151	0x3d01a4c1	0.031651262
152	0x3ca9410d	0.020660901
153	0x3d8a1480	0.06742191
154	0x3d22eeae	0.039778404
155	0x3d1354d9	0.03596959
156	0x3d1f25b5	0.03885432
157	0x3ca7b9eb	0.020474395
158	0x3c83519c	0.016030125
159	0x3b7d7db5	0.0038679664
160	0x3da347be	0.07972668
161	0x3cf3bec7	0.029754056
162	0x3c57ed0d	0.013179076
163	0x3cf87dde	0.030333456
164	0x3d140a43	0.0361426
165	0x3d3065c8	0.043065816
166	0x3d3d3586	0.046193622
167	0x3d14f09e	0.036362283
168	0x3c311bc8	0.010809846
169	0x3d35d224	0.04438986
170	0x3d114454	0.035465553
171	0x3cb3b0c2	0.02193487
172	0x3cd5643b	0.02604877
173	0x3cfc0dfc	0.030768387
174	0x3cf448e4	0.029819913
175	0x3d2f613c	0.04281734
176	0x3dd2dc9c	0.10295984
177	0x3c407337	0.011746219
178	0x3c49318d	0.01227988
179	0x3cd25748	0.025676385
180	0x3c8f5bfd	0.017499918
181	0x3d0b3d94	0.033994272
182	0x3c805b9a	0.015668679
183	0x3c629e50	0.01383169
184	0x3d0d76a6	0.03453698
185	0x3d0fddb3	0.03512354
186	0x3d83b5d4	0.06431165
187	0x3c21995e	0.009863226
188	0x3d2c891f	0.042122956
189	0x3d536b4c	0.051616
190	0x3d5eff7f	0.05444288
191	0x3cf527f2	0.029926274
192	0x3d2700de	0.04077231
193	0x3d941c29	0.072319336
194	0x3d578a62	0.052622207
195	0x3d2d6fa2	0.04234279
196	0x3c2eda2b	0.0106721325
197	0x3d034f66	0.032058142
198	0x3d00c7e2	0.031440623
199	0x3c25b64a	0.010114262

net.4.weight f4 [200, 200]
0	0xbd70998d	-0.058740187
1	0xbd1a12c3	-0.03761555
2	0xbc4e1545	-0.012578313
3	0xbd725d88	-0.05917123
4	0xbc931051	-0.017952116
5	0xbbc0381c	-0.0058660638
6	0x3c779341	0.015110792
7	0xbd56b62a	-0.05241982
8	0xbd4c2db6	-0.04984828
9	0x3d764863	0.060127627
10	0xbc0edf18	-0.008720182
11	0x3ca1bde9	0.019743877
12	0xbd56ad9a	-0.052411653
13	0xbd99317b	-0.07480141
14	0xbd76f8ca	-0.060295857
15	0x3cae9783	0.02131248
16	0x3cdd1709	0.026988523
17	0xbd80e6ca	-0.062940195
18	0x3d7a6bf7	0.06113812
19	0xbceb4783	-0.028720623
20	0xbbc5f36b	-0.0060409806
21	0xbc46a8f6	-0.012125244
22	0x3c4388b7	0.011934451
23	0x3d36678a	0.044532336
24	0xbd4987f8	-0.049201936
25	0x3d5d1d3c	0.05398296
26	0x3d4ff431	0.05076999
27	0x3cec2179	0.028824555
28	0xbd2f062c	-0.042730495
29	0xbabf495b	-0.0014594005
30	0xbd9c1fbf	-0.076232426
31	0xbd8c413b	-0.06848379
32	0xbceb27b1	-0.02870545
33	0xbd0064f2	-0.03134627
34	0xbd55dded	-0.052213598
35	0x3d63e3b8	0.05563709
36	0x3cd67ebf	0.026183484
37	0xbd62f8d3	-0.05541308
38	0x3bcda346	0.006275567
39	0x3c750f2b	0.01495723
40	0xbd869ca0	-0.065728426
41	0x3d05fe1e	0.03271305
42	0xbd6e7e02	-0.05822564
43	0xba529fc7	-0.0008034673
44	0xbd2aa9c2	-0.0416658
45	0xbc05ab18	-0.008158468
46	0xbd2975ad	-0.04137199
47	0x3c2bf492	0.010495322
48	0xbce4928e	-0.027901914
49	0xbb46bf66	-0.0030326485
50	0xbd8c39f3	-0.068469904
51	0xbc9a0d98	-0.01880531
52	0x3bc5081a	0.0060129287
53	0xbca12e33	-0.01967535
54	0xbd0b4be8	-0.034007937
55	0x3c2b3497	0.01044955
56	0x3d324d6e	0.043530874
57	0xbcb25e75	-0.021773556
58	0x3c89145e	0.016733345
59	0xbd343997	-0.044000234
60	0xbd82ebe3	-0.06392648
61	0x3c11f5d4	0.008908708
62	0xbd945b61	-0.07243992
63	0xbd104088	-0.03521779
64	0xbd28cc73	-0.041210603
65	0xbd81cc82	-0.06337835
66	0x3c832b18	0.01601176
67	0x3abbd007	0.0014328965
68	0x3be60fc2	0.0070209214
69	0xbd0ddbe5	-0.034633536
70	0xbd2bcb40	-0.04194188
71	0x3d37c284	0.04486324
72	0xbd61e697	-0.05515155
73	0xbc36b523	-0.011151585
74	0xbd5c0c75	-0.053722817
75	0xbc941d04	-0.018080242
76	0x3cc75aa6	0.024335217
77	0x3d1969be	0.03745436
78	0x3c44b510	0.012006059
79	0xbd6c1805	-0.057640094
80	0x3d323a44	0.043512598
81	0x3ce0ded3	0.02745
82	0xbd61a3fd	-0.055088032
83	0x3c74b43f	0.014935552
84	0xbd9c015b	-0.07617446
85	0xbd95962d	-0.073040344
86	0x3cac2f1e	0.021018561
87	0x3d1d50f3	0.038407277
88	0x3d67992f	0.05654257
89	0x3a44e851	0.00075114245
90	0x3d3fc136	0.04681512
91	0x3d6c46e2	0.057684787
92	0xbc3d282e	-0.011545224
93	0xbd52fa3b	-0.05150817
94	0x3d561d66	0.05227413
95	0xbd337af2	-0.04381842
96	0x3ccc0c91	0.024908336
97	0x3d80955f	0.0627849
98	0xbd0a093d	-0.033700217
99	0x3bfff65c	0.0078113507
100	0xbd74ee03	-0.0597973
101	0x3c557d26	0.013030326
102	0x3d70475b	0.0586618
103	0x3d1a78fb	0.037713032
104	0xbc2c8457	-0.010529599
105	0xbd3f90c5	-0.046768922
106	0x3c523cf4	0.012831915
107	0xbd401b18	-0.04690084
108	0x3d78a26d	0.060701776
109	0x3c17177a	0.009221906
110	0xbd8977e3	-0.0671232
111	0x3c7085e5	0.01468036
112	0xbd62c592	-0.0553642
113	0xbc70f0aa	-0.014705816
114	0x3d3e5304	0.04646589
115	0xbc5e8ede	-0.013583867
116	0xbd8e2ecc	-0.069425195
117	0xbc485179	-0.012226456
118	0xbd49042a	-0.049076237
119	0xbb7d4573	-0.0038646131
120	0x3c76c47a	0.015061492
121	0x3cb06865	0.021534154
122	0xbcd579c4	-0.026059039
123	0x3d4dc8c6	0.0502403
124	0xbc7b5ea9	-0.015342393
125	0x3d63c68c	0.05560927
126	0xbcf8f61f	-0.030390797
127	0xbd991fa7	-0.0747674
128	0xbcc4735e	-0.023980793
129	0x3b83f7ee	0.0040273583
130	0x3d5085fd	0.05090903
131	0xbba59347	-0.005052957
132	0x3d46ba53	0.048517536
133	0x3d5bbd60	0.0536474
134	0xbc641700	-0.013921499
135	0x3d7f22a4	0.062288895
136	0x3c55863a	0.01303249
137	0x3d6ddeff	0.058073994
138	0xbc917e70	-0.017760485
139	0x3a0e6d78	0.0005433182
140	0x3d8d4f8d	0.06899939
141	0x3cadb88a	0.02120616
142	0xbcbf7ae7	-0.023374034
143	0x3c9c9286	0.019112837
144	0x3cd54cd1	0.026037605
145	0x3d1b1cac	0.03786914
146	0xba06fdcf	-0.0005149515
147	0xbd7e079b	-0.062018972
148	0x3d7d4d48	0.06184128
149	0xbd914ebe	-0.07095097
150	0xbd80b0cd	-0.06283722
151	0xbd7d7409	-0.061878238
152	0x3cc49a0f	0.023999242
153	0xbca6a0c3	-0.020340329
154	0xbd0f2e7c	-0.03495644
155	0xbd74aafe	-0.059733383
156	0xbd77fb03	-0.060542118
157	0x3c24d09c	0.010059502
158	0x3cd5966f	0.026072709
159	0xbb09d32d	-0.0021030412
160	0xbd0976c8	-0.033560544
161	0xbd9b4577	-0.07581609
162	0x3cd67c23	0.02618224
163	0xbcddee9c	-0.027091317
164	0x3d139f33	0.036040496
165	0xbd454f2e	-0.048171215
166	0xbd36f39b	-0.044665914
167	0xbd090f3f	-0.033461805
168	0xbd044b32	-0.032298274
169	0x3cb4ab59	0.022054361
170	0xbd126719	-0.035742853
171	0xbd352c5a	-0.04423175
172	0x3d883d12	0.06652273
173	0x3cba0fa7	0.022712542
174	0xbd736d4f	-0.059430417
175	0xbcb8d657	-0.022563143
176	0xbcf49dd2	-0.02986041
177	0x3c524145	0.012832944
178	0x3d4e8e18	0.05042848
179	0xbd520100	-0.051270485
180	0xbcd27ff0	-0.025695771
181	0xbccbb88d	-0.024868274
182	0x3d16437e	0.03668546
183	0xbda450c8	-0.0802322
184	0x3d63ab5b	0.05558334
185	0xbd5f849d	-0.05456983
186	0x3d6b4bf2	0.057445474
187	0xbb20f535	-0.0024560217
188	0xbc5d1242	-0.0134931225
189	0xbd8b0eea	-0.06789954
190	0x3d1746e9	0.03693286
191	0xbd2ff5c3	-0.042958986
192	0xbd0def86	-0.034652255
193	0xbd064679	-0.03278205
194	0x3d83054d	0.063974954
195	0xbcf05bb7	-0.029340608
196	0xbbd7d439	-0.006586578
197	0xbd9f2884	-0.077713996
198	0x3d810234	0.06299248
199	0xbcdb2d62	-0.026755039
200	0x3c1590af	0.009128734
201	0xbd7b12ab	-0.0612971
202	0x3d29d270	0.041460454
203	0xbd9a0220	-0.075199366
204	0xbcf3c845	-0.029758582
205	0x3cf0ce88	0.029395357
206	0x3d338724	0.043830052
207	0x3cf01a39	0.029309379
208	0x3b8c6718	0.0042847507
209	0xbcaa7db1	-0.020811887
210	0xbcda4e7f	-0.026648758
211	0xbd55fcfa	-0.05224321
212	0x3d825ab4	0.063649565
213	0x3d4d69b2	0.050149627
214	0x3c383a1d	0.011244324
215	0x3ad22be9	0.0016034815
216	0x3d771a5a	0.060327865
217	0x3c12a034	0.008949328
218	0x3d1450cc	0.036209866
219	0x3c65a292	0.014015811
220	0x3d700e9d	0.058607686
221	0xbc2d422c	-0.010574859
222	0x3d80d58f	0.06290733
223	0xbd730d38	-0.05933878
224	0x3d647d9e	0.05578386
225	0xbd2240ec	-0.039612696
226	0xbd4b6a99	-0.049662206
227	0xbd15a3d0	-0.036533177
228	0xbd4c5ba6	-0.04989209
229	0xbc3e8cd4	-0.011630256
230	0xbd52fbd3	-0.05150969
231	0xbd19f370	-0.037585676
232	0xbccf278c	-0.025287412
233	0x3cb787d0	0.022403628
234	0xbd991129	-0.07473976
235	0xbbca132b	-0.006166836
236	0xbcb0973e	-0.021556493
237	0xbd94e51d	-0.072702624
238	0x3d8aad3d	0.06771324
239	0xbd95bd78	-0.07311529
240	0xbd8b79c6	-0.06810336
241	0xbd8eb0b2	-0.06967296
242	0xbd31883f	-0.043342825
243	0x3d5275e2	0.051381953
244	0x3d920f05	0.07131771
245	0x3bc0988b	0.0058775595
246	0xbbde68a9	-0.006787379
247	0xbd0935bb	-0.033498507
248	0x3ca7a2f1	0.020463439
249	0x3c415499	0.011799955
250	0xbd5c4fa9	-0.053786907
251	0xbc380909	-0.011232623
252	0xbd4192ef	-0.047259267
253	0x3cb2b316	0.02181391
254	0x3d40f10a	0.047104873
255	0x3d4f7adf	0.05065429

net.4.bias f4 [200]
0	0xbd60f7df	-0.05492389
1	0xbd174abc	-0.036936507
2	0xbd177277	-0.036974397
3	0x3d63aa76	0.055582486
4	0xbc2f7428	-0.010708846
5	0x3d90717a	0.07052894
6	0x3d0829fc	0.033243164
7	0xbd09af6c	-0.03361456
8	0xbd714c5b	-0.05891071
9	0xbd3f9203	-0.046770107
10	0xbce927c2	-0.02846134
11	0x3d3a172d	0.04543226
12	0xbb9bfcf7	-0.0047603804
13	0x3c72b9d2	0.014814811
14	0x3d0afe90	0.033934176
15	0x3d1dc1a7	0.03851476
16	0xbd2c3099	-0.042038534
17	0xbc98e4a6	-0.018663716
18	0xbd10ecae	-0.035381965
19	0xbb1f4951	-0.0024305175
20	0xbd71c954	-0.059029892
21	0x3d8777ba	0.06614633
22	0xbb8d7061	-0.004316375
23	0xbd4f3ccc	-0.05059509
24	0x3c9fb1b9	0.019493924
25	0xbd0f2c45	-0.034954328
26	0x3d26719e	0.040635698
27	0xbd3c01cc	-0.04590015
28	0xbd60c5f8	-0.054876298
29	0x3d685b5d	0.056727756
30	0xbd1ae778	-0.037818402
31	0x3c9391ef	0.018013922
32	0xbc035ac9	-0.00801725
33	0x3d856ac4	0.065145046
34	0xbd0dd344	-0.034625307
35	0xbc96f31a	-0.018426467
36	0x3b4a774d	0.0030893863
37	0xbd32d94e	-0.04366427
38	0xbc803b01	-0.015653135
39	0xbd2f9819	-0.04286966
40	0xbd3b2c9c	-0.04569684
41	0x3d4fdd50	0.05074817
42	0xbd8d14b2	-0.06888713
43	0x3ac8f405	0.0015331513
44	0xbbfbeffb	-0.00768852
45	0xbc00db0a	-0.007864723
46	0x3d3c4fe2	0.04597462
47	0xbb298f7e	-0.0025872882
48	0xbd8e4d89	-0.069483824
49	0x3c228963	0.009920451
50	0x3c2ff1e3	0.010738823
51	0xbccc9f5a	-0.024978328
52	0xbd84ea1a	-0.06489964
53	0xbd8f3fe9	-0.06994612
54	0xbd8ba852	-0.06819214
55	0xbd623d04	-0.05523397
56	0x3c674072	0.014114486
57	0x3c411310	0.01178433
58	0x3d92d62f	0.071697585
59	0xbcc57160	-0.024101913
60	0x3d90c345	0.07068495
61	0xbd48b1f1	-0.048997823
62	0x3d0afba7	0.0339314
63	0xbd163289	-0.036669288
64	0x3c497835	0.012296726
65	0x3d63df08	0.05563262
66	0xbca7a735	-0.020465473
67	0x3d148b4f	0.036265668
68	0x3c7343e7	0.014847732
69	0x3ce5c0e5	0.02804608
70	0xbbd21d4c	-0.006412184
71	0xbd4736e8	-0.048636347
72	0xbc450795	-0.0120257335
73	0x3d89d42d	0.067299224
74	0xbb8606f6	-0.0040901853
75	0x3d17c39c	0.037051782
76	0xbd68d19b	-0.05684052
77	0xbd88171f	-0.06645035
78	0x3d39a079	0.045319054
79	0xbd14474f	-0.036200818
80	0xbd1390b1	-0.03602666
81	0x3d255052	0.040359803
82	0x3d735e5e	0.059416167
83	0xbc21df0a	-0.009879837
84	0x3d3cc88d	0.046089698
85	0x3b956f91	0.004560419
86	0x3ce54a11	0.02798942
87	0x3d2a791c	0.041619405
88	0x39c0c808	0.0003677013
89	0xbd89a43b	-0.067207776
90	0x3d8e71a3	0.06955268
91	0x3d905616	0.070476696
92	0xbd0a8b85	-0.033824462
93	0xbd832866	-0.0640419
94	0x3d3393b3	0.04384203
95	0x3d25a6da	0.040442325
96	0x3c32e414	0.010918636
97	0xbd4679c4	-0.04845597
98	0x3c835c19	0.016035127
99	0x3d0cf5e2	0.03441418
100	0x3ccd6718	0.025073573
101	0xbd32a02e	-0.04360979
102	0x3d344876	0.044014417
103	0xbcd81703	-0.02637816
104	0x3d61329f	0.054979917
105	0x3b195a14	0.0023399638
106	0xbbde91d9	-0.0067922887
107	0x3d4ae9ca	0.049539365
108	0x3d766159	0.06015143
109	0x3d8992ad	0.06717429
110	0xbd12f3ce	-0.03587704
111	0x3cb02ce4	0.02150578
112	0xbd22e1e1	-0.039766196
113	0x3c39e7fe	0.011346815
114	0xbd8e9560	-0.06962085
115	0xbd6bbc3b	-0.057552557
116	0x3d57f879	0.052727196
117	0x3d6d2496	0.05789622
118	0xbd7ad842	-0.061241396
119	0xbd574cc1	-0.052563433
120	0x3d012fa6	0.03153958
121	0xbcc2c642	-0.023776177
122	0xbd609715	-0.054831583
123	0xb94b55c0	-0.00019391533
124	0xbd806eac	-0.06271109
125	0x3d2ea767	0.042640116
126	0xbac042cf	-0.0014668348
127	0x3c04d69e	0.008107809
128	0x3b7756a6	0.0037740855
129	0x3d681526	0.056660794
130	0x3d67902e	0.056533985
131	0x3d5e05a2	0.05420459
132	0x3c83ab63	0.016072934
133	0x3d683c90	0.056698382
134	0xbd54bd56	-0.051938377
135	0xbc8d75fa	-0.01726817
136	0x3c02aab6	0.007975271
137	0x3d792ff0	0.060836732
138	0x3b0d5409	0.0021564981
139	0x3c2270d2	0.009914594
140	0xbd7da5fb	-0.06192587
141	0x3c9173aa	0.017755348
142	0x3d810ce1	0.063012846
143	0x3d496693	0.049170088
144	0xbc5398c8	-0.012914844
145	0x3c336e4f	0.010951593
146	0x3c889117	0.016670747
147	0xbcb33b32	-0.021878812
148	0xbc841a79	-0.016125904
149	0xbcab63ce	-0.020921614
150	0xbd260609	-0.0405331
151	0xbd603ca2	-0.054745324
152	0x3d457326	0.048205517
153	0xbbc7d597	-0.00609846
154	0x3bcf69dc	0.006329758
155	0xbd59c3db	-0.053165298
156	0x3ce95b15	0.028485814
157	0xbd81494d	-0.06312809
158	0xbc5cd82a	-0.013479272
159	0x3d826fdd	0.063689925
160	0x3c0ee1b9	0.008720809
161	0x3d4aa62c	0.04947488
162	0xbc7e9b82	-0.015540006
163	0xbc805102	-0.015663628
164	0xbb700cfd	-0.0036628835
165	0x3d54908f	0.051895674
166	0x3cba5548	0.022745743
167	0x3c828d50	0.015936524
168	0xbba1c320	-0.004936591
169	0xbd060c13	-0.03272636
170	0xbc020a41	-0.007937015
171	0xbd1db8aa	-0.038506187
172	0x3d07fcf9	0.033200238
173	0xbd3e33c2	-0.04643608
174	0x3c80bcfb	0.015715113
175	0xbd5cc4eb	-0.053898733
176	0xbd858c05	-0.06520847
177	0xbd2b7833	-0.041862678
178	0xbcf97473	-0.030451035
179	0xbd86ca6f	-0.0658158
180	0x3c050533	0.008118915
181	0xbacec347	-0.001577475
182	0xbd699635	-0.057028014
183	0x3d39aadf	0.04532897
184	0x3d6fd3ff	0.058551785
185	0xbd60c610	-0.054876387
186	0xbcdd57b7	-0.027019365
187	0xbd06e76e	-0.032935552
188	0xbd127341	-0.035754446
189	0x3d65b394	0.056079462
190	0x3d2ec490	0.042667925
191	0xba9dd329	-0.001204108
192	0x3d5cec29	0.053936157
193	0x3cef09d5	0.029179493
194	0xbd42800a	-0.04748539
195	0xbd3140ac	-0.043274567
196	0x3b9bd8ea	0.004756083
197	0xbd449c61	-0.048000697
198	0x3cb75a9a	0.02238207
199	0x3d749b03	0.059718143
