electricity_problem/projectnet.pt (torch, 300004 bytes, 8 tensors)

L f4 [24, 24]
000000 dd 5b aa be 28 19 5a 3d ff dc 8f bf 05 94 c3 bf
       -0.3327321 0.053246647 -1.1239318 -1.5279547
000010 7f 86 ae be d3 00 7d 3f 48 39 39 3f 1b 80 c4 bf
       -0.34086987 0.9882938 0.7235303 -1.5351595
000020 a2 52 0e bf a8 1d 6e 3e 73 71 92 3f b2 54 6b 3e
       -0.5559484 0.232535 1.1440872 0.22981527
000030 a6 44 22 bf f2 a9 e7 be ce ad 0c 3f 3a 2e a1 3e
       -0.63386 -0.45246845 0.54952705 0.3148058
000040 0d 9d 15 bd 2b 2e ef 3e 98 e6 08 bf d0 23 a9 bf
       -0.03652673 0.4671491 -0.5347686 -1.3214054
000050 69 20 d7 3e 29 06 f1 bd 14 56 c3 3e 70 c5 c5 3d
       0.42016914 -0.11768753 0.3815161 0.09656799
000060 0e 55 42 3f d0 90 a4 bf 8c 93 bd 3e 34 9a fe 3c
       0.75911033 -1.2856693 0.37026632 0.03107939
000070 f2 5a ff 3e 56 dd 0d 3f 09 79 1e bf d8 33 1b c0
       0.49874073 0.55415857 -0.61903435 -2.4250393
000080 9e 87 c4 3f ce 96 f5 3e 14 ba 23 be 1b af 77 3f
       1.5353887 0.47966617 -0.15988952 0.96751565
000090 7f 42 2e 3f f1 51 98 bf ca 24 69 bf 2c 1d 7c 3f
       0.68070215 -1.1900007 -0.9107176 0.9848201
0000a0 04 1b bf bf 12 b7 a2 3e bd 26 5b 3f c9 26 f3 be
       -1.493012 0.31780297 0.85605985 -0.47490528
0000b0 23 7f 64 3f 07 d6 da be 2e e1 28 3d f3 f7 7a 3d
       0.89256495 -0.42741415 0.041230373 0.06127162
0000c0 69 16 b8 bf b6 6e b8 be 0b 47 bf 3e 8d 9c 2a 3e
       -1.4381839 -0.36021966 0.3735889 0.16661282
0000d0 ba 88 89 bf e0 0e 88 3f b1 1b 3c bf 91 05 be bf
       -1.0744851 1.062954 -0.73479754 -1.4845449
0000e0 78 9a 96 bf 25 35 f3 bf 80 97 ad 3e d4 ef 4e 3f
       -1.176589 -1.9000593 0.33904648 0.808347
0000f0 eb c9 70 3d d6 10 b4 be cd 3f 0e 3f 15 0a 1b be
       0.058786314 -0.35169095 0.555661 -0.15140565
000100 ea a3 34 be eb 34 09 bf 1e ad 3e 3e 60 48 1d 3e
       -0.17640653 -0.5359637 0.18620726 0.1535964
000110 1d 7a 5f be 69 19 2a bf 69 1b 97 be 7e d4 d3 3d
       -0.21823926 -0.6644502 -0.295131 0.10343264
000120 d7 dd 60 bf e0 99 a8 be 2f be 82 3f ab e3 77 3f
       -0.878385 -0.32929897 1.021429 0.9683177
000130 d8 5d 45 bf 4d 4a 9c 3d 31 07 9b 3f 98 d4 44 3d
       -0.7709632 0.07631359 1.211157 0.048054308
000140 55 ae 14 40 3e ba 16 bf ef 8b 0c bf 0e c2 11 3e
       2.3231404 -0.58877933 -0.5490102 0.14234182
000150 cf 6c ab 3f 06 a9 8b bf a0 30 93 3f ae b1 19 3f
       1.3392581 -1.0910957 1.1499214 0.6003674
000160 dd 6f ac 3f 2d f3 52 bf b4 33 3d 3f d4 26 e4 be
       1.3471638 -0.82402307 0.7390702 -0.44560874
000170 95 21 3a bf ef 29 2b bf ec be 54 bf a4 b8 1e 3f
       -0.7270749 -0.6686086 -0.83103824 0.6200049
000180 b3 c3 39 3f 82 09 92 bd a7 ea 64 bf df 90 9d 3f
       0.7256424 -0.0713072 -0.8942055 1.2309836
000190 4b f2 7d bb a6 1e 0a 3f 36 45 5b 3f cc 20 8e bf
       -0.0038749154 0.53953016 0.8565248 -1.1103759
0001a0 4e d4 ca be e9 5f 25 40 8c 63 86 bf 5e 51 9e 3f
       -0.396151 2.583979 -1.0499129 1.2368581
0001b0 94 58 bb 3f c0 12 bd 3e a2 79 80 bc 50 4f af be
       1.4636407 0.36928368 -0.015682999 -0.34240198
0001c0 92 d2 1c bf 0a 0c 10 bf 15 6c 44 bf 35 04 8e bf
       -0.61258805 -0.5626837 -0.7672742 -1.1095034
0001d0 53 c2 23 be 36 4a c7 be 7d 78 0d be d5 43 30 3d
       -0.15992098 -0.38923806 -0.13815494 0.04303344
0001e0 28 f9 a3 be ad 92 80 3f de 69 ac be 8f 1c 17 c0
       -0.3202603 1.0044762 -0.3367452 -2.361118
0001f0 7c 17 7e 3f 72 f1 b2 bf da ae c6 bf be a6 d5 bf
       0.99254584 -1.3979933 -1.552211 -1.6691511
000200 d7 53 dd 3e 69 b0 8c bf 08 4e c4 3f a5 71 84 3f
       0.43228027 -1.0991336 1.5336313 1.0347182
000210 a5 2f f1 3f f6 cd b7 bf 73 c1 b8 bf ca 30 64 bf
       1.8842665 -1.4359729 -1.4434036 -0.89136946
000220 ec 56 d8 3e b0 5d f0 3f da 6f 1c 3f 48 1d e2 be
       0.42253816 1.8778591 0.6110817 -0.44162965
000230 89 fc 0c be 4c 16 f3 bf 76 29 16 3f 7e e6 63 3f
       -0.1376821 -1.899118 0.58657014 0.8902358
000240 da 36 9b 3f 36 03 ca be f6 3a 2b bc 87 98 95 3f
       1.2126114 -0.39455575 -0.010451069 1.1687173
000250 92 29 84 bf 0a 44 61 3f ea ca de bd ec ae 90 bf
       -1.0325186 0.87994444 -0.108785465 -1.1303382
000260 d1 15 d5 3d d4 89 90 3e df e3 e3 3f a5 53 a5 bf
       0.10404552 0.28230155 1.7803916 -1.2916151
000270 b6 5a 73 bf 06 6f 2d 3f db 66 d7 bf aa da bf bf
       -0.9506029 0.67747533 -1.6828264 -1.4988606
000280 cc b3 9a bf 50 3f 0f 3f 29 4d 65 bf 60 1f ed bf
       -1.208612 0.5595598 -0.8957086 -1.85252
000290 97 55 e9 bf be c3 cb 3f cf d0 05 3e 4f dc 54 3f
       -1.8229245 1.5919111 0.13067935 0.83148664
0002a0 3c 17 72 bf 82 1c b5 3e 86 ba 1f bf 3a 8b 31 3f
       -0.945667 0.35373312 -0.6239399 0.6935307
0002b0 c8 7c a3 bf 7b 18 31 3f c8 f1 b7 3e 0c a5 30 3f
       -1.2772455 0.6917798 0.35926652 0.6900184
0002c0 93 da 90 be a1 fc 67 bf c9 cf ef 3e c0 c3 1d be
       -0.2829176 -0.90619856 0.46838215 -0.15406704
0002d0 8e 60 b8 3d 29 f4 07 bf 44 13 83 3f a0 a8 86 bf
       0.09002791 -0.53106934 1.0240254 -1.052021
0002e0 44 1d 26 c0 3e a0 18 bf f9 dc 91 3c 64 fa e9 be
       -2.5955362 -0.5961951 0.017805563 -0.45698845
0002f0 f8 fa ab be b2 ab 94 bf e6 55 37 3f 0e 4a 14 c0
       -0.3358991 -1.1614897 0.71615446 -2.31702
000300 69 46 d1 3e 15 f6 39 3f 7a 52 c3 3f 7a 00 9d bf
       0.4087403 0.72641116 1.5259545 -1.226577
000310 2e 63 64 bf 16 3f f3 be e2 45 00 3e ec 6d de bf
       -0.89213836 -0.47509068 0.12526658 -1.7377295
000320 30 84 87 bf 6d ee 51 3f 67 19 93 bf fe 64 bd 3e
       -1.0587215 0.82004434 -1.1492127 0.36991113
000330 8b 8a 47 3f 9b f9 41 bf 74 fc 18 3f 9a 86 ca 3c
       0.77945775 -0.7577149 0.5976021 0.024722386
000340 ac e2 a8 be ee 43 78 3f b7 1a cd bf f7 36 93 3f
       -0.32985437 0.9697865 -1.6023778 1.1501149
000350 9a 8b a7 3e 5a 56 d1 bd 08 a5 bc bf 2c 9d 63 3f
       0.32723695 -0.102215484 -1.4737864 0.889117
000360 05 d1 72 bf d8 7a b8 bf 7e 6c 92 3f 2d 1c 82 be
       -0.9485019 -1.4412489 1.1439359 -0.2541212
000370 8c 41 a2 be b4 53 87 3f cf 27 8d bf 76 78 c4 bf
       -0.31690633 1.0572419 -1.1027774 -1.5349262
000380 0b 87 5c bd 74 8c 70 bf a0 27 59 3f a1 43 9c bf
       -0.053839725 -0.93964314 0.8482609 -1.2208139
000390 04 ba 58 3f 46 f8 8a bf e3 77 0a bf 45 64 83 3f
       0.8465884 -1.0857017 -0.5408918 1.0264975
0003a0 44 c6 17 bf 91 8e 81 be 78 70 fb 3f 9f 2f 39 3f
       -0.59286904 -0.25304082 1.9643698 0.7233829
0003b0 77 0b db bf 5d 2a 34 bf 17 56 14 c0 59 c8 07 40
       -1.7112874 -0.7037714 -2.3177545 2.1216033
0003c0 90 df 64 be c3 17 92 bf 3d 0d a9 3f 58 cb 03 40
       -0.22350907 -1.1413502 1.3207165 2.059286
0003d0 d7 5c e1 3e c5 4c 11 3f 08 3e 1d c0 19 d5 3f 3f
       0.44016144 0.56757766 -2.456911 0.74934536
0003e0 7e f4 8f be 2d 5b 2a bf 38 79 8c be c0 d1 60 3f
       -0.2811622 -0.66545373 -0.27436233 0.87820053
0003f0 21 80 6d be cf bc 84 3c d3 e1 00 bf 04 bd 7f bf
       -0.23193409 0.016203312 -0.5034458 -0.9989779

Lambda f4 [24]
000000 2a f4 5e 3f 45 3c 8e 3f e2 d5 8d 3f a6 d3 90 3f
       0.87091315 1.1112143 1.1080897 1.131459
000010 5c 22 82 3f 82 d1 87 3f c3 d1 86 3f 6e 6e 64 3f
       1.0166736 1.0610812 1.0532764 0.89231
000020 2b 27 8c 3f d0 0a 66 3f 38 9e 89 3f 9f 3e 75 3f
       1.0949453 0.8986025 1.075141 0.9579868
000030 53 2c 75 3f c6 fc 87 3f d7 c5 7b 3f 8b 6c 8c 3f
       0.9577076 1.0624015 0.98348755 1.0970625
000040 5c c9 6e 3f c1 8b 91 3f 78 bf 8b 3f 63 fb 80 3f
       0.93276 1.1370775 1.0917807 1.0076717
000050 c3 b3 91 3f 94 47 7c 3f 89 56 6f 3f 57 52 8a 3f
       1.1382984 0.9854672 0.9349142 1.0806378

linear.weight f4 [24, 24]
000000 23 4b 6d bf a0 ce 45 bf 33 99 b7 be 51 70 c3 be
       -0.92692775 -0.7726841 -0.3585907 -0.38171628
000010 b3 05 0d bf 94 aa cc be 96 e7 96 bd a3 b3 2a be
       -0.5508682 -0.3997389 -0.0736839 -0.16670088
000020 14 e0 7a 3d 45 25 a3 be 8d 9e b4 b9 0a 01 a2 be
       0.061248854 -0.31864372 -0.00034450405 -0.31641418
000030 3a bf 6b be 1d e6 af 3b 3c 4f 83 bd 82 d0 46 3d
       -0.23022166 0.005368008 -0.06411597 0.048538692
000040 d0 1e 90 3d 62 1f 5d 3d 9d d1 1c 3e 67 5b 9e bd
       0.07037127 0.053985007 0.15314336 -0.07732277
000050 e0 c1 78 be 57 32 7b 3d 91 32 20 bd 2a 28 56 be
       -0.24292707 0.061327305 -0.039110724 -0.20913759
000060 e5 e8 83 bf c9 fc 55 bf a4 14 1e bf 8c 8f e2 be
       -1.0305449 -0.83588845 -0.61750245 -0.44250143
000070 52 b4 e2 be 8b c3 b3 be d7 5c 9b be c0 d8 80 be
       -0.44278198 -0.35110125 -0.3034427 -0.25165367
000080 5d c9 84 be 8f 79 1f be b0 94 d3 bc 2a e7 17 be
       -0.25934878 -0.15573715 -0.025827736 -0.14834276
000090 99 c8 a0 bd e1 c2 76 be d7 67 46 bc 32 70 92 be
       -0.07850761 -0.24097778 -0.012109718 -0.28601223
0000a0 2c a0 86 be 70 82 fe bd 4f ef 03 bd 0f 3c 3a be
       -0.26294076 -0.12427223 -0.032210644 -0.18186973
0000b0 4e 6c 2f be 6e 26 96 bd b7 cf 99 be 7e 85 a6 3d
       -0.17131159 -0.07331549 -0.30041286 0.0813093
0000c0 20 67 d4 be 9a e3 90 be d5 30 87 be 97 d7 61 be
       -0.41484928 -0.28298646 -0.26404443 -0.22054897
0000d0 80 bd 2b bf 87 de 6b be 00 f9 7b 3e de e4 1c 3e
       -0.6708603 -0.23034106 0.24606705 0.15321681
0000e0 96 17 e6 3c 5d 9a ab 3e 9f c5 94 3e 9f 86 30 3c
       0.028087419 0.33516207 0.29057023 0.010774284
0000f0 4d 4b c7 3d 86 f4 8b 3e 37 30 28 3e 1a a1 4b 3e
       0.09731159 0.27334994 0.16424643 0.19885674
000100 da a4 b5 3e bc 51 75 3e 73 54 92 bd 04 9e d9 3d
       0.35477334 0.2395696 -0.07145014 0.10625842
000110 13 a0 2a 3e 80 fc db 3e 05 40 9b 3e 2d b5 75 3e
       0.16662626 0.4296608 0.3032228 0.23994894
000120 27 64 d5 be 84 dd 33 bf fb 23 e4 be 86 8d 02 bf
       -0.41677973 -0.7025988 -0.445587 -0.509972
000130 55 9f 5e bf a6 23 38 bf b4 94 46 be f9 cc 9d 3d
       -0.8696187 -0.71929395 -0.19392663 0.07705111
000140 ac da 90 be cf 62 2e 3d 30 a8 df bc 7e 02 96 3d
       -0.28291833 0.0425747 -0.027301878 0.07324694
000150 68 71 07 be ae b0 5d bd 43 1b 22 3e 9e 7e 65 3d
       -0.13226855 -0.054123573 0.15830712 0.056028955
000160 5c df 5c bd a5 03 d0 3b 22 b1 1a be 9e 4d 7f 3d
       -0.05392395 0.0063480907 -0.15106633 0.06232988
000170 46 a8 27 be 6c ef 9f bd 20 2b 15 be e6 f0 b9 3d
       -0.16372785 -0.07809338 -0.14567232 0.09079151
000180 be 75 cf be cb a0 ee be e9 cb f7 be 2b fd 14 bf
       -0.40519518 -0.4660705 -0.4839776 -0.58198804
000190 28 0a 61 bf 17 6b 7f bf be 99 10 bf 94 23 92 be
       -0.8790612 -0.9977278 -0.5648459 -0.2854277
0001a0 5d ca f1 be 69 f1 0d bf dd 05 ec be 92 77 d1 be
       -0.47224703 -0.5544649 -0.46098223 -0.40911537
0001b0 73 cd 97 be 91 c7 d4 bd a6 b7 ff bd 54 31 9c be
       -0.29648933 -0.10389627 -0.124862 -0.30506384
0001c0 67 f6 37 be 2a 2d fd bb 14 6a 99 be 0f 1f 6d be
       -0.17965089 -0.0077263312 -0.29963744 -0.23156379
0001d0 48 38 9e be 18 1a e6 3c 5e 33 b1 be da 0f b2 bd
       -0.30902314 0.028088614 -0.34609503 -0.0869443
0001e0 3f 7f 87 bb c2 21 94 bd 4d 91 6b be ec af da be
       -0.004135042 -0.07233001 -0.23004647 -0.42712343
0001f0 ba 97 f7 be b5 35 19 bf 28 2b d1 be 6a 45 08 bf
       -0.48357946 -0.59847575 -0.40853238 -0.5323092
000200 6f e1 2c bf 8b 55 9a be ca ad b5 be 12 4c 91 be
       -0.67531484 -0.3014339 -0.35484153 -0.2837835
000210 c1 77 32 be ba 72 7e be 73 e7 04 3d ae 5e 37 be
       -0.17428495 -0.24848452 0.03244729 -0.17907211
000220 8e 8c 9e bd b4 5e 96 bd 6b 36 0a be 0a 44 a4 be
       -0.077416524 -0.07342282 -0.13497321 -0.3208316
000230 e2 2b 6a be 3f 2f 78 be 4a 82 2c bc 44 96 06 bc
       -0.22868302 -0.24236773 -0.01052911 -0.008214537
000240 92 56 fe 3d 99 d1 c8 bc 5b 73 90 ba db 7b 60 be
       0.12418856 -0.024514006 -0.0011020707 -0.21922247
000250 5d d8 0d bf 59 a2 11 bf 6d db f6 be 27 8b 00 bf
       -0.5540827 -0.5688835 -0.48214284 -0.5021233
000260 4b e7 f7 be 59 50 21 3d 8a f3 05 be 64 92 f3 3c
       -0.4841865 0.039383266 -0.13081184 0.02973289
000270 6d a4 15 3d b5 3d e5 3d e3 82 6c 3e 1e 5f 47 3e
       0.03653376 0.1119341 0.23096804 0.19469878
000280 c2 d1 c4 3b f6 b4 0a be 2a 71 84 bd 29 d3 a5 3d
       0.0060064504 -0.13545594 -0.06466897 0.08096916
000290 36 b1 3e 3e 46 d6 c1 3d 29 9a 57 3e e1 30 bf 3c
       0.18622288 0.094646975 0.21054901 0.023338737
0002a0 fb 8c f7 bb 6b 79 49 be 4e 92 a1 bd 30 09 a7 bd
       -0.007554648 -0.19675224 -0.078892335 -0.08156049
0002b0 f0 2b a1 3b 23 7a f1 be 9c e5 be be 60 fe b4 be
       0.004918568 -0.47163495 -0.37284553 -0.35350323
0002c0 6e e5 e1 be f0 5b 6e be d0 44 b7 be 9f 72 48 3d
       -0.44120353 -0.23277259 -0.35794687 0.048937436
0002d0 80 4b 11 3e 10 9c a8 3d 0c 67 81 3d 32 2e e8 bd
       0.14188957 0.082328916 0.06318483 -0.11336936
0002e0 27 95 d0 bd 7f 0e 11 be e1 37 8a bd 1b 90 db 3c
       -0.101846986 -0.14165686 -0.06748939 0.026802113
0002f0 b2 16 3f be 12 32 8a bd 0b 07 56 3e 11 5a fa 3d
       -0.18661001 -0.067478314 0.20901124 0.1222421
000300 b6 ac 4c bd e3 a0 2f bd c6 fe f8 bd 94 b4 14 bd
       -0.049969397 -0.042878043 -0.12157969 -0.036305025
000310 f7 ee c2 3d a2 47 14 be e9 a2 3e be ee 29 10 bf
       0.09518235 -0.14480451 -0.18616833 -0.5631398
000320 a5 23 6b bf 83 ba 37 bf 5c 5d 04 bf dc 1d 55 3d
       -0.91851264 -0.7176897 -0.51704955 0.05203043
000330 bf fc ad bd 89 a2 9d 3d 6c 96 ea 3d 76 db 5f bd
       -0.08495473 0.07697017 0.11454472 -0.054652654
000340 b2 7f ce bd 83 99 05 3e 68 bb 40 be cf 8d 4a bd
       -0.1008295 0.13046841 -0.1882149 -0.049451645
000350 87 88 1f be 06 52 83 be f2 2a 9d 3c 16 5e 53 be
       -0.15579425 -0.25648516 0.019185517 -0.2064136
000360 75 d6 09 bd 49 84 48 bd 29 da 37 3e 2d df 48 bd
       -0.033651788 -0.048954282 0.17954315 -0.049040962
000370 a5 e4 68 3e a9 01 37 3d 82 40 09 3d 42 cb 79 be
       0.22743471 0.044679318 0.033508785 -0.24393943
000380 2e 2b 31 bf 19 c5 00 bf 2c 31 03 bf 20 aa af bc
       -0.6920651 -0.5030075 -0.51246905 -0.021443427
000390 fd 90 0b 3d d3 6d 05 3b e7 b9 f8 3d 66 07 9a 3d
       0.03407382 0.002035965 0.12144833 0.075209424
0003a0 cb ba 8e 3d 27 f3 07 3e dd c3 3b 3c 43 c6 e0 3d
       0.06969222 0.13276349 0.011460272 0.109753154
0003b0 11 fd 4f 3e 74 39 bc bd 70 4a 37 3e 5a 75 9a 3c
       0.20311381 -0.09190646 0.1789949 0.018854786
0003c0 aa 44 43 3e 5f c1 4d 3d fb 8f 8d 3d b9 59 dd 3d
       0.19069162 0.05023324 0.06912228 0.10808129
0003d0 fa be 21 3e 84 5c 78 3e 0b 0a 78 3d 87 47 89 be
       0.15795508 0.24254042 0.060556453 -0.26812384
0003e0 a7 be cd be 01 21 23 bf 7f 77 34 bf cf 73 cc be
       -0.4018452 -0.63722235 -0.70494837 -0.39932105
0003f0 63 75 12 be 19 6a 87 be 4c 8a dc bc b1 7f 9d 3d
       -0.14302592 -0.26448134 -0.026921414 0.07690371

linear.bias f4 [24]
000000 0a 46 bd 3d f8 05 1e 3f a7 e5 88 3f 30 47 67 3e
       0.092418745 0.6172786 1.0695084 0.2258575
000010 07 c1 43 be 80 8c 74 be 9b 44 a2 3e bb 80 82 3d
       -0.19116603 -0.23881721 0.31692967 0.0637221
000020 16 fd 62 be e3 52 06 be 44 21 13 bf b1 26 a2 be
       -0.22166857 -0.13117556 -0.57472634 -0.31670144
000030 fb da 9e be 4b ae 99 be e5 4d 29 bd da 2a 2f 3e
       -0.31026444 -0.30015787 -0.04133405 0.1710619
000040 82 bc f7 bc f7 00 d8 be ae 46 52 be 76 be d6 be
       -0.030241255 -0.42188236 -0.20534775 -0.41942185
000050 cc 5a 2d 3e 60 44 4f 3f 0c 1a 88 bd d4 69 9b 3e
       0.16929168 0.80963707 -0.06645593 0.30354178

linear1.weight f4 [1000, 48]
000000 d4 0c 33 bd cd 0c be 3c 16 20 d3 3d 42 53 a9 bd
       -0.043713406 0.023199463 0.10308854 -0.08267833
000010 74 76 00 be 01 52 4b 3d ac 9f 7a 3d 0b 73 ec 3d
       -0.12545186 0.049638752 0.06118743 0.1154538
000020 c5 f1 50 bc b7 d6 dd 3d 1e 9c a1 bd cb 17 45 3b
       -0.012752955 0.10831969 -0.07891105 0.0030073996
000030 c1 5e c6 3d d2 2e cd bd b0 8a f9 bc f1 b0 8c bd
       0.096860416 -0.10018696 -0.03046164 -0.068696864
000040 57 4f 8a bd 47 a3 00 be 2d 8b b1 3b aa 78 30 3d
       -0.06753414 -0.12562285 0.0054182024 0.043083824
000050 b0 c1 ab bd 2a 41 11 be b1 08 46 bd 37 51 bb 3d
       -0.08386552 -0.14185014 -0.048348133 0.0914635
000060 2c 65 bc 3c 06 52 0a 3e 3f 37 fc 3d 15 59 c6 3d
       0.022997461 0.13507852 0.12315225 0.0968496
000070 64 8a 8b ba 1c 7c 03 be fc a9 07 3e 03 3a 6a bd
       -0.0010646102 -0.12840313 0.13248438 -0.05718423
000080 cb 80 3b 3d 70 4c 27 bd a3 eb 05 bb f3 25 1f bd
       0.045777123 -0.04084438 -0.002043464 -0.03885455
000090 e4 f0 b3 bd 18 63 54 3d 0d 82 b4 bd 36 20 f8 bd
       -0.087861806 0.051852316 -0.08813868 -0.12115519
0000a0 08 5b 57 3d 28 fe 5f bd 7f 1b 97 3d e0 9e 45 3d
       0.05257705 -0.05468574 0.07378291 0.048247218
0000b0 f3 5b ed bb ed 81 0d be b3 fe 5e 3d 8f a4 5f bd
       -0.007243627 -0.13819094 0.05444212 -0.054600295
0000c0 8a 77 8c bd 36 8f d9 bc 37 e2 03 3c 1e 67 d4 3d
       -0.06858738 -0.026557546 0.008049539 0.103712305
0000d0 c7 6c cc 3d 02 14 bd 3d 0a 94 f6 3d e9 37 a3 bd
       0.09981685 0.09232332 0.12039955 -0.079696484
0000e0 d5 53 bd bb 19 49 e3 3d 8e ab 3f 3b 40 a3 06 3e
       -0.005777816 0.11097927 0.0029246542 0.13148212
0000f0 de 7b 04 be 55 8f 94 bd ec 0e fd 3c df d8 b5 3c
       -0.12937877 -0.07253901 0.030890904 0.022198139
000100 1d 9e a6 3d e8 da 01 3e f6 93 11 3c 79 5d 47 bb
       0.081356265 0.12681162 0.008885374 -0.0030420704
000110 28 94 c4 ba ed e7 90 bd f9 00 04 3e a0 57 28 3d
       -0.0014997767 -0.07075486 0.12890996 0.04109919
000120 80 5a 16 bd ae f1 ea bc b1 91 9a 3d 9a 19 80 bd
       -0.0367074 -0.028679695 0.0754732 -0.06254883
000130 43 c5 96 bd 76 0b 6c bd 15 0c b3 bd cc fe fa bd
       -0.073618434 -0.057628118 -0.08742539 -0.1225563
000140 3a 29 10 3e 88 4d 86 3c 32 aa eb 3d 5f 55 c6 bd
       0.14078227 0.016394392 0.115070716 -0.09684252
000150 5f e0 ee bd 8b 39 eb 3d 2e 6d 09 3d 0a 27 ba 3d
       -0.11663889 0.11485585 0.033551387 0.09089477
000160 74 b9 fb bc 87 5b c9 bc 0e 5d 99 bd 9c a9 0a 3e
       -0.03072808 -0.024579776 -0.07488452 0.13541263
000170 ec 55 9e bc 1e bb cd bd 0c 92 e7 3d 1d 32 e5 bd
       -0.01932808 -0.100454554 0.11307153 -0.11191199
000180 49 72 55 3d d7 97 5e 3d e3 dc 85 bd 32 c8 d4 3d
       0.052110944 0.054344025 -0.065362714 0.10389747
000190 aa 04 71 3d 9c 73 5a bd 44 93 9f bd 97 c3 c2 bd
       0.05884234 -0.05333291 -0.077917606 -0.09509962
0001a0 a5 ed 08 be 4a 4d 91 bd 3f 5e 5c 3d 6a cb 0b be
       -0.13371904 -0.0709482 0.053800818 -0.13651815
0001b0 0f 00 cf bc 59 b0 68 3d 68 66 2d bd 5b ab 07 3e
       -0.025268583 0.056808803 -0.04233399 0.1324896
0001c0 84 95 81 bd 2e 61 b5 bc 46 36 bf bd f8 95 32 3d
       -0.06327346 -0.022141065 -0.09336524 0.043600053
0001d0 b4 2e 97 3d c3 4c cb bd 77 4f 10 be a9 9e f8 bd
       0.07381955 -0.099267505 -0.14092813 -0.12139637
0001e0 f5 e3 0f 3c e7 f5 b8 bc 20 36 fa 3d 53 fc f5 3d
       0.008782377 -0.022578193 0.12217355 0.12011018
0001f0 c8 8c ee bd 8d 8c e7 bb 99 a1 bf 3c 6b bb 9f 3d
       -0.11647946 -0.0070663155 0.023392485 0.07799419
000200 bd 19 b0 3d 7e 77 4b 3d d5 4d 14 bd 10 7a d5 3c
       0.08598659 0.049674504 -0.03620704 0.02605918
000210 e7 35 c2 3d 98 4a 03 3e 22 a5 f0 bd aa dd eb 3d
       0.09482937 0.12821424 -0.117502466 0.115168884
000220 09 6d 38 3c a4 64 d9 3d fc 42 0d 3c 70 3a b1 3d
       0.011256465 0.10614899 0.008621927 0.08653724
000230 b6 e4 24 bd 04 dd b1 bc 4b ed 1a 3d 49 d9 e6 3d
       -0.04025718 -0.021711834 0.037823956 0.112719126
000240 09 51 d5 bc 99 d6 83 bc 2f 82 55 3d f0 c5 14 3d
       -0.026039617 -0.01609354 0.052126106 0.03632158
000250 cb d5 0c bc fd de 1f bd 04 cc e8 bd 4c 56 f2 bd
       -0.008595894 -0.039031018 -0.11367038 -0.11832866
000260 59 46 64 bd 2c 05 cc bd e8 56 c7 bc 8d 21 d8 bd
       -0.05573115 -0.09961924 -0.024333432 -0.10553274
000270 f1 b7 7e bd 21 24 c8 3d 5a f8 9b bc 60 e7 e9 bc
       -0.06218714 0.09772516 -0.019039322 -0.028552711
000280 a5 21 0a 3e 40 b8 4f 3d 70 34 55 3d 11 e5 03 3e
       0.13489397 0.050712824 0.05205196 0.1288035
000290 2c d7 ca 3c 91 9b 0a be 3a 83 fb bd 1c 97 93 bd
       0.024760805 -0.13535906 -0.12280889 -0.07206556
0002a0 e6 b9 3e bd 56 f9 8e 3c f4 c3 79 3d f7 19 f2 bd
       -0.046564005 0.017452877 0.06097789 -0.11821359
0002b0 7b e0 8b bd e4 d2 f7 3d 8d 85 ff bd 13 81 13 3e
       -0.068299256 0.12100771 -0.12476645 0.14404707
0002c0 7c 6e 5d 3d 71 3b 3d 3d 30 a1 46 bd 26 fe 89 bc
       0.054060444 0.046199266 -0.048493564 -0.01684482
0002d0 ef a0 92 bd 5f f8 9c bc ea a5 94 bd 13 1b b3 3d
       -0.07159602 -0.019161401 -0.07258208 0.08745398
0002e0 d8 41 01 3e 4c 11 11 3d 08 bf 4b bd 4d 6b f7 3d
       0.12622774 0.035416886 -0.04974273 0.12081013
0002f0 e5 bc 41 bd c7 75 fc 3c c9 27 d0 3d 80 b8 d8 3d
       -0.047299284 0.03081788 0.101638384 0.105820656
000300 c6 5f ab 3d a9 b0 d5 3c 04 d6 d6 3d 38 2d 20 bc
       0.08367877 0.026085215 0.10490039 -0.009776406
000310 ec 9d b1 bd e9 6c 70 bd 6f cd ac bd 8a fd 80 3d
       -0.08672699 -0.058697615 -0.08437621 0.06298359
000320 31 8f ef bc e4 fb a7 bd f2 77 ce bc 30 4e d9 bd
       -0.029243084 -0.08202341 -0.025203679 -0.10610616
000330 d8 4a 07 be ed 45 44 bc d4 08 84 bc 9f 38 0f be
       -0.13212144 -0.011979562 -0.01611749 -0.13986443
000340 be 00 03 3d 28 fa e8 3c b6 c6 c2 3b 82 34 03 bd
       0.03198313 0.028439596 0.0059440983 -0.032032497
000350 85 39 db 3d 5c 33 09 be 9e 76 d6 3d aa d1 b6 bd
       0.1070433 -0.13398498 0.10471843 -0.08926709
000360 20 7a bc bd 0f af e7 bd 96 eb 80 3d e9 5f 0d 3e
       -0.09202981 -0.11312687 0.062949345 0.13806118
000370 c0 a9 73 3d 9a fa b5 bd 6c ae 94 bd 99 eb 10 be
       0.059488058 -0.08885689 -0.07259831 -0.14152373
000380 aa 5e 09 be 2a e1 0a 3e 35 96 95 3d d1 25 1a 3d
       -0.13415018 0.13562456 0.0730404 0.03763372
000390 20 a7 01 be 9f bc 56 bc e1 af ea 3d b1 39 3e bc
       -0.1266141 -0.013106494 0.114593275 -0.011610434
0003a0 3e 06 ef 3d c5 d7 e8 3c fb a5 01 3e 73 fa d3 bb
       0.116711125 0.0284232 0.12660973 -0.006469065
0003b0 0f b3 08 bd d3 52 a8 bd 3d 46 19 bc fb 52 01 3e
       -0.03337389 -0.082189225 -0.009355125 0.12629311
0003c0 21 c4 a6 3d 63 ef d0 3c 76 d1 07 be 68 52 a5 3c
       0.08142877 0.025504773 -0.13263497 0.020180896
0003d0 19 af 5f 3d 34 7e 4a 3d ea 23 e6 bd 39 66 14 3c
       0.054610346 0.049436763 -0.11237319 0.009057575
0003e0 d4 14 a4 bd 08 0a 4c bc 68 81 a4 3c 44 ee b3 bd
       -0.08011785 -0.0124535635 0.020081237 -0.0878568
0003f0 2e 0e 79 bd a7 4a 43 bd 58 77 aa bd be b8 55 3c
       -0.06080454 -0.047678616 -0.08323544 0.013044534

linear1.bias f4 [1000]
000000 fd 35 03 be fb 40 f1 3d dc 5b 09 3e 39 b4 62 bd
       -0.12813564 0.11779972 0.13413948 -0.055347655
000010 f3 a1 aa 3d 25 02 2c 3d 52 c4 8d bd 70 14 9c bd
       0.083316706 0.041994233 -0.06922211 -0.07621086
000020 64 7b e6 3c f4 ec b8 bd d1 7b 8e bd df 88 e8 3d
       0.02813501 -0.0902957 -0.0695721 0.11354231
000030 ed 8d 50 3d 1a 99 eb 3d fb 00 e1 bd 57 0d ee 3c
       0.0509166 0.11503811 -0.10986515 0.029059095
000040 a8 b6 9f 3d bf 94 09 bc 3e fe bf 3d 9b 06 83 3b
       0.07798511 -0.00839728 0.09374665 0.00399859
000050 de 72 f3 bd 78 b8 22 3d 30 36 88 3d c7 25 a0 bd
       -0.118871436 0.039726704 0.066509604 -0.078197055
000060 86 20 fe 3d 14 7b 43 bd 04 3d f7 bd c5 5a 03 3e
       0.12408547 -0.0477248 -0.12072185 0.12827595
000070 75 0a 01 be 6c 54 99 bd 74 28 b7 bc e0 24 93 3d
       -0.12601645 -0.07486805 -0.022358157 0.07184768
000080 04 ec 85 3d 3f 4b bd bc 12 ab db bd 1c 44 33 3d
       0.06539157 -0.02310717 -0.107259884 0.043766126
000090 c6 6d 13 3e 2f 72 75 3a 3f a7 e8 bd 0d 8e 36 3c
       0.14397344 0.0009363023 -0.11360025 0.011142266
0000a0 95 7f c4 bd c6 2b 03 3d 6b ff 05 3e e7 24 dd 3d
       -0.09594647 0.032024167 0.13085715 0.10798054
0000b0 df 81 6b bd 12 ac b5 bd 66 cd 6d bd b4 4f 8c 3c
       -0.0574969 -0.088707104 -0.05805721 0.01712785
0000c0 c4 4b 88 bc fb 13 23 3c 1b 93 70 3c 66 0a 87 bc
       -0.01663769 0.009953494 0.01468351 -0.01648445
0000d0 69 c8 fb 3d 70 bc 11 3e 1c 3f 9f bd 3e e1 b8 3d
       0.122940846 0.1423204 -0.07775709 0.090273365
0000e0 37 dc 72 bd 1a 0f 65 3d bd 80 a3 bd 41 d6 8e bd
       -0.059292044 0.055922605 -0.07983539 -0.069744594
0000f0 f6 88 ff 3d d0 a0 9b bc 59 36 b5 3c 93 df 2b bd
       0.12477295 -0.01899758 0.022120642 -0.041961264
000100 b5 31 64 3d 8c e4 e0 bd 98 43 fc 3d 4c de fb 3c
       0.055711467 -0.10981092 0.1231758 0.030745648
000110 4b 5e 4e 3d 6f a1 cb bd 71 9f 06 3e 78 30 d3 3d
       0.050382894 -0.099429004 0.1314676 0.10311979
000120 e0 8e b0 3c 82 8f 62 bd 16 07 ad 3d 9b 8d 70 bd
       0.021552503 -0.05531264 0.08448617 -0.058728795
000130 5a 32 de 3c 61 95 a3 3d 8b e7 08 3d 6c aa dd bc
       0.027123619 0.07987476 0.03342394 -0.027058803
000140 61 57 fd 3d cc 82 58 bd 8d 61 2c bd 62 c8 52 3d
       0.12370182 -0.052859113 -0.04208522 0.05146063
000150 f4 46 d9 bd 7b 83 39 bd 7c 9b 2e bd a8 77 16 3a
       -0.10609236 -0.045291405 -0.04262875 0.0005739876
000160 46 6a 20 bd 84 c7 0c be db 9b 97 3d de 58 ff 3d
       -0.03916385 -0.13747984 0.07402774 0.12468122
000170 08 e9 bc bd 6c 07 a1 bd 32 0c fa bc 14 5a 8f 3c
       -0.09224135 -0.07862744 -0.030523393 0.017499007
000180 5d ec d7 bd 67 ed 1c bc 09 e2 1b 3d 98 fe e6 bd
       -0.105431296 -0.0095780855 0.03805736 -0.11279029
000190 f5 2e 58 3d 94 71 a7 3d d0 12 91 3c b4 38 0c 3e
       0.052779157 0.0817596 0.017709166 0.13693506
0001a0 fd 31 3f bd 50 f3 a9 3d 8b 1e d6 3d 43 e3 66 bd
       -0.046678532 0.08298361 0.10455044 -0.056369077
0001b0 bf 5e df 3d f8 36 5c 3d 3a 98 b9 bd 47 ed a9 bd
       0.10906743 0.05376336 -0.09062238 -0.0829721
0001c0 ef 67 cd bd 7d 2e 9d 3d 13 a4 16 3d 5b 17 0d bd
       -0.100295894 0.076748826 0.036777567 -0.0344461
0001d0 3a 0c e6 bd 81 fa e0 3d fb b4 61 bd 7c 4f b2 bd
       -0.11232801 0.1098528 -0.055104237 -0.08706567
0001e0 fd 60 07 3e 3e 0a 2b 39 2e b5 a6 bd 35 47 de bd
       0.13220592 0.00016311646 -0.08140026 -0.108534254
0001f0 91 ed ec 3c 9d 10 ec 3d 83 0a 3e 3d 5a 70 b4 3b
       0.028921874 0.11526606 0.046396744 0.0055065574
000200 35 56 0d 3e 39 67 03 3d 06 ba 6f 3c 3e c8 0b 3c
       0.13802417 0.032080863 0.014631754 0.008531628
000210 79 f4 e5 3d 82 fe 04 3d 0f 92 97 3d 0d 34 a5 bd
       0.1122827 0.03246928 0.07400905 -0.080665685
000220 45 90 df bd 74 ba 36 3d 61 2b 87 3d 26 57 9c bd
       -0.10916189 0.04461141 0.06600071 -0.0763381
000230 c8 ec f8 bd 72 12 39 3c a7 f3 ce bd 62 3e 99 3d
       -0.121545374 0.011295902 -0.10105067 0.07482602
000240 87 3d e8 bd 14 56 e4 3d b5 21 90 3d 1a a7 42 3b
       -0.113398604 0.111492306 0.07037679 0.002970165
000250 60 1b b7 3d 9d c2 c1 bd 6b e0 a2 3d f1 ff f8 3d
       0.08940768 -0.09460948 0.079529606 0.12158192
000260 a6 40 dd bd f7 cf cb bd 21 80 99 bd 5e c7 8a bd
       -0.10803346 -0.099517755 -0.07495142 -0.067763075
000270 f9 2f ca bd c3 80 44 3d 33 8d fc bd 20 0f 22 3d
       -0.09872431 0.04797436 -0.12331619 0.039565206
000280 3c f2 e2 3d 20 b0 f7 3d 87 92 89 3d 35 e6 e1 3d
       0.11081359 0.1209414 0.06717401 0.11030237
000290 db 5d fb bd 1b 9f 70 3d c7 49 01 bd 83 2c 0b 3e
       -0.12273761 0.058745485 -0.0315645 0.13591199
0002a0 ef 27 9e 3d 73 1a 30 3d 06 ea b0 bc cf e5 07 bd
       0.077224605 0.042993974 -0.021595966 -0.033178147
0002b0 7a 45 5c bd e5 6b 4c 3b 6b 1c 7f 3c a7 4f 5c bd
       -0.053777196 0.003119224 0.01557074 -0.0537869
0002c0 b6 bd 12 be 9c 70 09 bd 4a c1 b5 3d 00 0b 5a bd
       -0.14330181 -0.03355466 0.088747576 -0.053233147
0002d0 df 06 2c 3d 04 92 e2 bd 46 34 a1 bc a8 43 97 bd
       0.04199874 -0.110630065 -0.019678246 -0.07385951
0002e0 31 f2 07 be 5e b1 cf bd fd 9d 5c 3c 88 72 e4 3d
       -0.13275982 -0.10141252 0.013465402 0.111546576
0002f0 e2 59 46 bd b7 b7 6f bc b4 bf 0a be 73 06 10 be
       -0.048425563 -0.014631203 -0.13549691 -0.1406496
000300 ad 6a f3 bc 10 a8 0a be a7 fe 4f bd 00 41 72 bd
       -0.029713953 -0.13540673 -0.050779965 -0.05914402
000310 ea 70 c7 bd 08 4e f0 3d d9 8a 9b bd d7 c2 a9 3d
       -0.097383335 0.11733633 -0.075948425 0.08289116
000320 f8 b5 92 3d 91 69 66 bb 12 39 b5 3d 6b 0a 8b 3d
       0.07163614 -0.0035158137 0.08848776 0.067890964
000330 de 5f 13 3e c8 02 d9 3d ff b7 ff bd fa 20 5c 3d
       0.14392039 0.105962336 -0.12486266 0.053742386
000340 14 6b d3 bd 2c 94 fb 3d 4d 42 60 3d 03 cf 14 3c
       -0.10323158 0.12284121 0.05475073 0.009082559
000350 29 17 81 bd 58 73 62 bd fe ab 9c 3d 7d af d6 bd
       -0.063032456 -0.05528578 0.076499924 -0.104826905
000360 a1 5b 41 3d 8b ea e6 3d 42 30 2c 3d 72 96 73 bd
       0.047206525 0.11275204 0.04203821 -0.059469648
000370 f5 d9 6c bd 85 d3 58 bd 29 82 cf 3d 7d 84 83 3d
       -0.057825048 -0.052936096 0.10132248 0.064217545
000380 d4 6d ad bd 4f 14 90 3b 39 0b cc 3c 4f 1d ba bd
       -0.08468214 0.004396952 0.024907695 -0.090876214
000390 70 2d c6 bd df 7d 09 3e ed f3 df 3c 17 da eb 3d
       -0.09676635 0.13426922 0.027337993 0.11516207
0003a0 46 58 db bd bb 51 97 3d 0b 68 59 3d dd 9f fc bd
       -0.10710196 0.07388636 0.05307774 -0.12335179
0003b0 33 5f b0 3d a9 aa f0 3d fb 5a aa bd 3f 1e 20 bd
       0.08611908 0.11751301 -0.083181344 -0.039091345
0003c0 b6 9a bb 3d 2f 56 ec bd 76 a7 04 be a3 2a 1b bd
       0.09160368 -0.11539876 -0.12954506 -0.03788246
0003d0 e3 5d 07 3e 71 50 bc bd 4e 78 99 3d 31 ca 05 3e
       0.13219409 -0.091950305 0.074936494 0.13065411
0003e0 2f 69 63 bc 30 60 37 3d bb a8 a5 bd df 83 cd bd
       -0.013880058 0.044769466 -0.080888234 -0.10034918
0003f0 8c af 00 be 14 ee 0c be f3 9c 4c bd 4b f6 f9 3d
       -0.12566966 -0.13762695 -0.049954366 0.1220518

linear2.weight f4 [24, 1000]
000000 7d af 85 bc 39 5f b9 3b 42 ff c4 3c 6c 37 30 3c
       -0.01631903 0.0056571034 0.024047498 0.010755401
000010 ef 7c 74 bb b4 61 8c bb 72 fc a7 39 df 34 34 3c
       -0.0037305912 -0.004284108 0.0003204081 0.010998934
000020 13 f3 d2 3c 2d 9d fc bb bb 07 b8 bc 2b 99 d8 3c
       0.025750672 -0.0077091665 -0.022464624 0.026440224
000030 82 fd a1 bc 80 c3 ec bb e0 50 87 bc 71 38 00 3c
       -0.019774202 -0.007225454 -0.016518056 0.007825957
000040 c9 d0 a2 3c 11 c6 2e 3c da 0f 9c bc 19 aa 2e b9
       0.019874947 0.01066734 -0.019050527 -0.000166573
000050 39 97 9a bc d6 49 3c 3b b1 b4 83 bc 50 ff 94 3c
       -0.018870937 0.0028730533 -0.016077371 0.018188149
000060 5b c6 bd bc 49 be 00 bc ac d4 16 ba f3 99 58 bc
       -0.023165872 -0.0078578675 -0.00057537365 -0.013220298
000070 f6 a6 a4 bc 4f 78 f7 bb aa 61 cb 3b 4a fe f4 3c
       -0.020099144 -0.0075521837 0.006206711 0.02990641
000080 0e 43 f0 bb 89 19 82 bc d3 33 5f ba e6 03 b9 bb
       -0.0073322123 -0.015881317 -0.00085144973 -0.0056462167
000090 aa b0 31 bc 16 b4 80 bc e4 1d 32 bc 4e 30 bd 3a
       -0.010845343 -0.015710872 -0.010871384 0.0014433952
0000a0 d4 28 bf 3c 77 0d d4 bc 9b 47 2d 3b 63 26 25 bc
       0.023334898 -0.025885327 0.0026440385 -0.010079953
0000b0 9c 91 f4 3c 51 09 ac 3c 9e 0d bf 3b fe cd 0b 3c
       0.029854588 0.021000536 0.0058304807 0.008532999
0000c0 62 d4 9e 3c cd ca e0 3c 1e c6 f4 bc 53 62 00 bd
       0.019388381 0.027440453 -0.029879626 -0.03134377
0000d0 71 2e 4d 3c 61 95 7b 3c 91 88 8c 3b 0e 74 01 3d
       0.0125232795 0.015355439 0.004288741 0.03160482
0000e0 70 c7 e1 3c 3b d6 fb bc 0c 53 a6 bc 40 26 b6 3b
       0.02756092 -0.030741801 -0.020303272 0.005558759
0000f0 7c ac 52 bc 93 77 4f bc 09 6d c0 3c 0c 13 ab 3b
       -0.012858506 -0.012662786 0.023489492 0.0052207764
000100 92 62 37 3c 1b 74 ca 3c a5 68 90 3c 6a a5 ca ba
       0.011192935 0.024713567 0.017628023 -0.0015460674
000110 83 62 41 bc 85 ff ab bb c9 48 a2 3c fa f0 84 3c
       -0.011803272 -0.005248966 0.019810097 0.016228188
000120 9f 65 80 bc 58 2d 82 bb f0 dd 2b 3c 0b 58 fa bc
       -0.015673457 -0.0039726906 0.010489926 -0.03055956
000130 42 5e 94 bc 09 38 c4 3c ee 4d df bc 28 52 b9 bc
       -0.018111352 0.0239525 -0.02725884 -0.022622183
000140 6e 67 c8 bb 32 0f f0 ba ea cc 98 bc 36 ed 16 3b
       -0.0061158454 -0.0018315075 -0.018652398 0.0023029572
000150 61 6b 13 ba aa 06 6d 3b 9e 17 df bc fe 93 26 bc
       -0.00056236057 0.0036167302 -0.027232941 -0.01016712
000160 dd 86 6d bc 52 f9 e8 bc 1c 1f 0e 3c 78 4a 89 3c
       -0.014497486 -0.028439198 0.008674409 0.016759142
000170 f0 34 8e 3c f5 c0 d8 bc 71 50 d7 bc a0 83 bf bc
       0.017359227 -0.026459197 -0.026283475 -0.023378193
000180 68 79 14 3c 29 45 96 3c 18 68 d6 3c 11 02 43 bc
       0.009062149 0.018343525 0.026172683 -0.011902348
000190 ce e0 35 bc 1f bd 4c bc e0 22 2c 3c ce 8f db bc
       -0.011100961 -0.012496262 0.010506362 -0.02680197
0001a0 37 95 d5 bc fa ff 32 bc 68 f8 50 bc 58 92 e5 3c
       -0.026072128 -0.010925287 -0.012754537 0.028023884
0001b0 a9 50 f3 bc 15 e6 a5 3b 67 bb ec 3c ee 31 c3 3b
       -0.029701548 0.0050628283 0.028897954 0.00595688
0001c0 fc 99 e7 3c ee 46 b9 3c f0 38 70 39 d5 4f 00 3d
       0.028271668 0.02261683 0.00022909394 0.031326134
0001d0 e8 ba f0 3c 99 b2 87 bc 24 db 2c 3a 2c bf 9e 3c
       0.029385999 -0.016564654 0.0006593934 0.019378267
0001e0 1d b1 a4 3c 86 62 5b 3c bf a3 b8 3c 82 de b6 bc
       0.020103985 0.013390189 0.022539018 -0.022322897
0001f0 a9 d5 b6 3b 6f 6e cb bc 0b b2 2a bc 0a 13 f1 bb
       0.0055796695 -0.024832932 -0.010418425 -0.007357006
000200 13 3a a6 bb b8 fd a8 3c ce dd 3f 3c 85 da b2 bc
       -0.005072841 0.020628795 0.011710597 -0.021832714
000210 bd 1d b4 bb 09 bf b0 bb 36 b6 95 3c f9 42 c9 bc
       -0.005496709 -0.005393867 0.018275362 -0.024568068
000220 55 83 78 3b 38 b6 c9 39 33 83 b0 3c df 15 6b 3c
       0.0037920077 0.0003847347 0.021546936 0.014348476
000230 b1 31 f5 bb 22 fa e7 3c 00 61 3c bc 95 dc 94 3c
       -0.0074827303 0.028317515 -0.011497736 0.018171588
000240 3f 40 9b 3c f0 e7 d3 3c cf f4 a4 bc 41 ec 2e bc
       0.018951533 0.025867432 -0.020136265 -0.0106764445
000250 8e 6c 16 bc fe e3 f7 3c de e0 cb 3c e8 00 72 3c
       -0.009181155 0.030260082 0.024887498 0.014770724
000260 e0 d5 f8 3c 3c d7 00 bc 7a 3b 5f 3c 0b 65 be 3c
       0.030375421 -0.007863816 0.01362502 0.02324154
000270 9c 57 f7 3b 8b 13 ab 3c 95 af 58 bc 0c e5 ad bc
       0.0075482856 0.020883342 -0.013225456 -0.021227382
000280 2b 7c 19 3c ed 31 ed 3c 5d 99 4f 3b 00 a6 7c bb
       0.009367983 0.02895447 0.0031677105 -0.0038551092
000290 bd 9d cd 3c a7 6c 94 3c 19 2a a3 bc 63 38 8b 3a
       0.02509963 0.018118216 -0.019917535 0.0010621663
0002a0 46 1b 0a 3c b5 3c 41 3b 00 9a a2 3c d9 ed ad 3b
       0.008429354 0.0029485647 0.019848824 0.0053078947
0002b0 9f c6 3c 3c 19 f3 18 bc de 62 d9 bc a3 bf 37 3b
       0.011521964 -0.009335303 -0.026536401 0.0028037808
0002c0 5d 58 33 bc 17 a1 13 3c 63 c6 b6 bb 2f c3 6c bb
       -0.01094636 0.009010575 -0.0055778488 -0.003612708
0002d0 e6 bb 17 3c d1 d4 d5 3c 41 a7 d3 3c 11 52 cb 3c
       0.009261107 0.026102455 0.025836589 0.024819406
0002e0 4e 3f a1 bc ca 58 c4 3c 87 bb 5d 3c ae 32 6b 3c
       -0.019683506 0.02396812 0.0135334795 0.014355345
0002f0 bb 25 63 bb fb 76 b9 3c a6 ae cd bc f4 d5 99 bc
       -0.003465994 0.022639742 -0.025107693 -0.018778779
000300 4d 69 9f 3c fd 8a 22 bc 7d c3 5f 3c 53 f2 ab bc
       0.019459391 -0.009920833 0.013657448 -0.020989573
000310 44 c9 62 3c eb 97 df 3c 1d 7c 9d bc b8 95 8e 3c
       0.013841931 0.02729412 -0.01922422 0.017405376
000320 4e 2c f4 3c 26 ca 11 3c db 44 ad 3c c2 9d d3 3c
       0.029806282 0.008898294 0.021150997 0.02583206
000330 0b 75 4e 39 20 bc 20 3c 7e c0 22 3c 25 4b af bc
       0.00019689293 0.0098104775 0.009933589 -0.021398136
000340 b2 fb db 3c ec d9 07 3c 26 ec 0c bc 9e b9 14 bc
       0.026853416 0.008291703 -0.008601224 -0.009077458
000350 26 de b5 bc 7b a6 c6 3b c1 6d c8 3b c3 2f 81 bc
       -0.022200655 0.0060623265 0.0061165993 -0.015769845
000360 f1 02 d4 3c f4 78 96 3c 8b 89 28 3c cc a8 2c 3b
       0.025880309 0.018368222 0.010286699 0.0026345728
000370 1a 71 e7 3c 89 9d f7 3c 70 4f 01 bd 9d 0a 47 3c
       0.028252173 0.030226486 -0.031569898 0.0121485265
000380 cb 74 cc bc 46 5a 7b 3c 29 5c 34 3b 85 d4 c1 3c
       -0.024958035 0.015341347 0.0027520752 0.023660908
000390 9f ea 2c bc ef eb f2 3c 9c 15 bb 3c de c5 dc 3c
       -0.010553985 0.029653518 0.022837453 0.02694982
0003a0 5c ca a2 bb 08 8c ca 3c 4d 60 de bc 10 c3 89 bc
       -0.004967971 0.024724975 -0.02714553 -0.016816646
0003b0 7a 0b ce 3c a4 fa 76 bc 56 f6 1e 3b 30 3f 81 bc
       0.025151957 -0.015074406 0.0024255714 -0.0157772
0003c0 45 2f d0 3c 87 bc 91 3c 39 01 b8 bb 0a 24 7a 3c
       0.025413165 0.017790092 -0.00561538 0.015267381
0003d0 0d cc b8 3b 22 62 e4 3c dc 97 d3 3c 92 92 70 bc
       0.005639559 0.027878825 0.025829248 -0.014683383
0003e0 2f b8 59 3c fa 37 c6 bc 99 c1 63 3c ba 5c 7b bc
       0.013288542 -0.024196614 0.013901138 -0.015341932
0003f0 9c 8c b6 3b 29 25 5b 3c 00 ef 92 bc 55 aa bb b9
       0.005570961 0.013375559 -0.01793623 -0.00035794327

linear2.bias f4 [24]
000000 67 75 e2 38 4d a6 cd bc f9 0d 5f 3c c8 60 35 bc
       0.00010798388 -0.025103712 0.013614171 -0.011070438
000010 fb 65 ee 3c 17 4f 45 bc bf 34 5a bb 3b a2 ad 3c
       0.029101362 -0.012042782 -0.00332956 0.021195522
000020 a2 52 84 bc 84 b7 b2 3b 31 f4 96 bc 2d a2 f0 3b
       -0.016152684 0.0054540057 -0.018426986 0.0073435516
000030 69 45 76 bc 89 a9 c0 3c a1 28 8e bb 12 db ce 3c
       -0.015031197 0.02351834 -0.0043383394 0.025250945
000040 40 fa db 3b 07 b3 9d ba 51 cf fd ba 2c 33 55 bc
       0.0067131817 -0.0012031504 -0.0019364153 -0.013012689
000050 bc 22 3c bc e2 d4 76 3b b7 a2 a8 bc 16 85 e9 ba
       -0.011482891 0.003766351 -0.020585401 -0.0017816152
